Neural Network Tools for STM32 family v1.7.0 (stm.ai v8.1.0-19520)
Created date          : 2025-04-09 15:43:52
Parameters            : generate -m C:\Users\User\Documents\CODE_SPACE\stm32ai-modelzoo-2.0.0\experiments_outputs\2025_04_09_12_28_02\quantized_models\quantized_model.tflite -v 0 --allocate-inputs --allocate-outputs --output C:\Users\User\Documents\CODE_SPACE\stm32ai-modelzoo-2.0.0\experiments_outputs\2025_04_09_12_28_02/stm32ai_files --workspace C:\Users\User\Documents\CODE_SPACE\stm32ai-modelzoo-2.0.0\experiments_outputs\2025_04_09_12_28_02/stm32ai_files --optimization balanced

Exec/report summary (generate)
-------------------------------------------------------------------------------------------------------------------------------------------------------------------
model file         :   C:\Users\User\Documents\CODE_SPACE\stm32ai-modelzoo-2.0.0\experiments_outputs\2025_04_09_12_28_02\quantized_models\quantized_model.tflite   
type               :   tflite                                                                                                                                      
c_name             :   network                                                                                                                                     
compression        :   lossless                                                                                                                                    
options            :   allocate-inputs, allocate-outputs                                                                                                           
optimization       :   balanced                                                                                                                                    
workspace dir      :   C:\Users\User\Documents\CODE_SPACE\stm32ai-modelzoo-2.0.0\experiments_outputs\2025_04_09_12_28_02\stm32ai_files                             
output dir         :   C:\Users\User\Documents\CODE_SPACE\stm32ai-modelzoo-2.0.0\experiments_outputs\2025_04_09_12_28_02\stm32ai_files                             
model_fmt          :   ss/sa per channel                                                                                                                           
model_name         :   quantized_model                                                                                                                             
model_hash         :   cad87fe12ab19e7d36b9ef56064487af                                                                                                            
params #           :   987,152 items (984.20 KiB)                                                                                                                  
-------------------------------------------------------------------------------------------------------------------------------------------------------------------
input 1/1          :   'serving_default_input_10' (domain:activations/**default**)                                                                                 
                   :   150528 items, 147.00 KiB, ai_u8, s=0.00784314, zp=127, (1,224,224,3)                                                                        
output 1/1         :   'conversion_82' (domain:activations/**default**)                                                                                            
                   :   5 items, 20 B, ai_float, float, (1,5)                                                                                                       
macc               :   66,617,294                                                                                                                                  
weights (ro)       :   1,007,840 B (984.22 KiB) (1 segment) / -2,940,768(-74.5%) vs float model                                                                    
activations (rw)   :   215,872 B (210.81 KiB) (1 segment) *                                                                                                        
ram (total)        :   215,872 B (210.81 KiB) = 215,872 + 0 + 0                                                                                                    
-------------------------------------------------------------------------------------------------------------------------------------------------------------------
(*) 'input'/'output' buffers can be used from the activations buffer

Model name - quantized_model ['serving_default_input_10'] ['conversion_82']
------ --------------------------------------------------------------------------- ------------------------------ ----------------- ------------ ----------------------------------------------------------- --- ------------- ------------------- ----------------------------- 
m_id   layer (type,original)                                                       oshape                         param/size                macc                                                connected to   | c_size        c_macc              c_type                        
------ --------------------------------------------------------------------------- ------------------------------ ----------------- ------------ ----------------------------------------------------------- --- ------------- ------------------- ----------------------------- 
0      serving_default_input_10 (Input, )                                          [b:1,h:224,h:224,w:224,c:3]                                                                                                 |               +301,056(+100.0%)   converter_oi8[0]              
       conversion_0 (Conversion, QUANTIZE)                                         [b:1,h:224,h:224,w:224,c:3]                           301,056                                    serving_default_input_10   |               -301,056(-100.0%)   
------ --------------------------------------------------------------------------- ------------------------------ ----------------- ------------ ----------------------------------------------------------- --- ------------- ------------------- ----------------------------- 
1      conv2d_1 (Conv2D, CONV_2D)                                                  [b:1,h:112,h:112,w:112,c:16]   448/496              5,419,024                                                conversion_0   |                                   optimized_conv2d_oi8[1]       
       nl_1_nl (Nonlinearity, CONV_2D)                                             [b:1,h:112,h:112,w:112,c:16]                          200,704                                                    conv2d_1   |               -200,704(-100.0%)   
------ --------------------------------------------------------------------------- ------------------------------ ----------------- ------------ ----------------------------------------------------------- --- ------------- ------------------- ----------------------------- 
2      conv2d_2 (Conv2D, CONV_2D)                                                  [b:1,h:56,h:56,w:56,c:32]      4,640/4,736         14,450,720                                                     nl_1_nl   |                                   pad_oi8/conv2d_oi8[2, 3]      
       nl_2_nl (Nonlinearity, CONV_2D)                                             [b:1,h:56,h:56,w:56,c:32]                             100,352                                                    conv2d_2   |               -100,352(-100.0%)   
------ --------------------------------------------------------------------------- ------------------------------ ----------------- ------------ ----------------------------------------------------------- --- ------------- ------------------- ----------------------------- 
3      pool_3 (Pool, AVERAGE_POOL_2D)                                              [b:1,h:1,h:1,w:1,c:32]                                100,352                                                     nl_2_nl   |                                   pool_oi8[4]                   
------ --------------------------------------------------------------------------- ------------------------------ ----------------- ------------ ----------------------------------------------------------- --- ------------- ------------------- ----------------------------- 
4      conv2d_4 (Conv2D, CONV_2D)                                                  [b:1,h:1,h:1,w:1,c:8]          264/288                    264                                                      pool_3   |                                   conv2d_oi8[5]                 
       nl_4_nl (Nonlinearity, CONV_2D)                                             [b:1,h:1,h:1,w:1,c:8]                                       8                                                    conv2d_4   |               -8(-100.0%)         
------ --------------------------------------------------------------------------- ------------------------------ ----------------- ------------ ----------------------------------------------------------- --- ------------- ------------------- ----------------------------- 
5      conv2d_5 (Conv2D, CONV_2D)                                                  [b:1,h:1,h:1,w:1,c:32]         288/384                    288                                                     nl_4_nl   |                                   conv2d_oi8[6]                 
------ --------------------------------------------------------------------------- ------------------------------ ----------------- ------------ ----------------------------------------------------------- --- ------------- ------------------- ----------------------------- 
6      EmbeddedNetV1_width1_0_conv2d_14_clip_by_value_Minimum_y (Placeholder, )    []                             1/1                                                                                          | +3(+300.0%)   +32(+100.0%)        eltwise_integer/min_oi8[7]    
       eltwise_6 (Eltwise, MINIMUM)                                                [b:1,h:1,h:1,w:1,c:32]                                     32                                                    conv2d_5   |               -32(-100.0%)        
                                                                                                                                                    EmbeddedNetV1_width1_0_conv2d_14_clip_by_value_Minimum_y   | 
------ --------------------------------------------------------------------------- ------------------------------ ----------------- ------------ ----------------------------------------------------------- --- ------------- ------------------- ----------------------------- 
7      nl_7 (Nonlinearity, RELU)                                                   [b:1,h:1,h:1,w:1,c:32]                                     32                                                   eltwise_6   |                                   nl_oi8[8]                     
------ --------------------------------------------------------------------------- ------------------------------ ----------------- ------------ ----------------------------------------------------------- --- ------------- ------------------- ----------------------------- 
8      eltwise_8 (Eltwise, MUL)                                                    [b:1,h:56,h:56,w:56,c:32]                             100,352                                                     nl_2_nl   |                                   eltwise_integer/mul_oi8[9]    
                                                                                                                                                                                                        nl_7   | 
------ --------------------------------------------------------------------------- ------------------------------ ----------------- ------------ ----------------------------------------------------------- --- ------------- ------------------- ----------------------------- 
9      conv2d_9 (Conv2D, CONV_2D)                                                  [b:1,h:56,h:56,w:56,c:32]      1,056/1,152          3,211,296                                                   eltwise_8   |                                   conv2d_oi8[10]                
       nl_9_nl (Nonlinearity, CONV_2D)                                             [b:1,h:56,h:56,w:56,c:32]                             100,352                                                    conv2d_9   |               -100,352(-100.0%)   
------ --------------------------------------------------------------------------- ------------------------------ ----------------- ------------ ----------------------------------------------------------- --- ------------- ------------------- ----------------------------- 
10     conv2d_10 (Conv2D, CONV_2D)                                                 [b:1,h:56,h:56,w:56,c:16]      528/576              1,605,648                                                     nl_9_nl   |                                   conv2d_oi8[11]                
------ --------------------------------------------------------------------------- ------------------------------ ----------------- ------------ ----------------------------------------------------------- --- ------------- ------------------- ----------------------------- 
11     conv2d_11 (Conv2D, CONV_2D)                                                 [b:1,h:28,h:28,w:28,c:64]      9,280/9,472          7,225,408                                                   conv2d_10   |                                   pad_oi8/conv2d_oi8[12, 13]    
       nl_11_nl (Nonlinearity, CONV_2D)                                            [b:1,h:28,h:28,w:28,c:64]                              50,176                                                   conv2d_11   |               -50,176(-100.0%)    
------ --------------------------------------------------------------------------- ------------------------------ ----------------- ------------ ----------------------------------------------------------- --- ------------- ------------------- ----------------------------- 
12     conv2d_12 (Conv2D, CONV_2D)                                                 [b:1,h:28,h:28,w:28,c:32]      2,080/2,176          1,605,664                                                    nl_11_nl   |                                   conv2d_oi8[14]                
       nl_12_nl (Nonlinearity, CONV_2D)                                            [b:1,h:28,h:28,w:28,c:32]                              25,088                                                   conv2d_12   |               -25,088(-100.0%)    
------ --------------------------------------------------------------------------- ------------------------------ ----------------- ------------ ----------------------------------------------------------- --- ------------- ------------------- ----------------------------- 
13     conv2d_13 (Conv2D, CONV_2D)                                                 [b:1,h:28,h:28,w:28,c:16]      528/576                401,424                                                    nl_12_nl   |                                   conv2d_oi8[15]                
------ --------------------------------------------------------------------------- ------------------------------ ----------------- ------------ ----------------------------------------------------------- --- ------------- ------------------- ----------------------------- 
14     conv2d_14 (Conv2D, CONV_2D)                                                 [b:1,h:28,h:28,w:28,c:80]      11,600/11,840        9,031,760                                                   conv2d_13   |                                   pad_oi8/conv2d_oi8[16, 17]    
       nl_14_nl (Nonlinearity, CONV_2D)                                            [b:1,h:28,h:28,w:28,c:80]                              62,720                                                   conv2d_14   |               -62,720(-100.0%)    
------ --------------------------------------------------------------------------- ------------------------------ ----------------- ------------ ----------------------------------------------------------- --- ------------- ------------------- ----------------------------- 
15     conv2d_15 (Conv2D, CONV_2D)                                                 [b:1,h:28,h:28,w:28,c:32]      2,592/2,688          2,007,072                                                    nl_14_nl   |                                   conv2d_oi8[18]                
       nl_15_nl (Nonlinearity, CONV_2D)                                            [b:1,h:28,h:28,w:28,c:32]                              25,088                                                   conv2d_15   |               -25,088(-100.0%)    
------ --------------------------------------------------------------------------- ------------------------------ ----------------- ------------ ----------------------------------------------------------- --- ------------- ------------------- ----------------------------- 
16     conv2d_16 (Conv2D, CONV_2D)                                                 [b:1,h:28,h:28,w:28,c:16]      528/576                401,424                                                    nl_15_nl   |                                   conv2d_oi8[19]                
------ --------------------------------------------------------------------------- ------------------------------ ----------------- ------------ ----------------------------------------------------------- --- ------------- ------------------- ----------------------------- 
17     eltwise_17 (Eltwise, ADD)                                                   [b:1,h:28,h:28,w:28,c:16]                              12,544                                                   conv2d_13   |                                   eltwise_integer/sum_oi8[20]   
                                                                                                                                                                                                   conv2d_16   | 
------ --------------------------------------------------------------------------- ------------------------------ ----------------- ------------ ----------------------------------------------------------- --- ------------- ------------------- ----------------------------- 
18     conv2d_18 (Conv2D, CONV_2D)                                                 [b:1,h:28,h:28,w:28,c:96]      1,632/1,920          1,204,320                                                  eltwise_17   |                                   conv2d_oi8[21]                
       nl_18_nl (Nonlinearity, CONV_2D)                                            [b:1,h:28,h:28,w:28,c:96]                              75,264                                                   conv2d_18   |               -75,264(-100.0%)    
------ --------------------------------------------------------------------------- ------------------------------ ----------------- ------------ ----------------------------------------------------------- --- ------------- ------------------- ----------------------------- 
19     conv2d_19 (Conv2D, DEPTHWISE_CONV_2D)                                       [b:1,h:14,h:14,w:14,c:96]      2,496/2,784            470,496                                                    nl_18_nl   |                                   conv2d_oi8[22]                
       nl_19_nl (Nonlinearity, DEPTHWISE_CONV_2D)                                  [b:1,h:14,h:14,w:14,c:96]                              18,816                                                   conv2d_19   |               -18,816(-100.0%)    
------ --------------------------------------------------------------------------- ------------------------------ ----------------- ------------ ----------------------------------------------------------- --- ------------- ------------------- ----------------------------- 
20     pool_20 (Pool, AVERAGE_POOL_2D)                                             [b:1,h:1,h:1,w:1,c:96]                                 18,816                                                    nl_19_nl   |                                   pool_oi8[23]                  
------ --------------------------------------------------------------------------- ------------------------------ ----------------- ------------ ----------------------------------------------------------- --- ------------- ------------------- ----------------------------- 
21     conv2d_21 (Conv2D, CONV_2D)                                                 [b:1,h:1,h:1,w:1,c:24]         2,328/2,400              2,328                                                     pool_20   |                                   conv2d_oi8[24]                
       nl_21_nl (Nonlinearity, CONV_2D)                                            [b:1,h:1,h:1,w:1,c:24]                                     24                                                   conv2d_21   |               -24(-100.0%)        
------ --------------------------------------------------------------------------- ------------------------------ ----------------- ------------ ----------------------------------------------------------- --- ------------- ------------------- ----------------------------- 
22     conv2d_22 (Conv2D, CONV_2D)                                                 [b:1,h:1,h:1,w:1,c:96]         2,400/2,688              2,400                                                    nl_21_nl   |                                   conv2d_oi8[25]                
------ --------------------------------------------------------------------------- ------------------------------ ----------------- ------------ ----------------------------------------------------------- --- ------------- ------------------- ----------------------------- 
23     EmbeddedNetV1_width1_0_conv2d_14_clip_by_value_Minimum_y1 (Placeholder, )   []                             1/1                                                                                          | +3(+300.0%)   +96(+100.0%)        eltwise_integer/min_oi8[26]   
       eltwise_23 (Eltwise, MINIMUM)                                               [b:1,h:1,h:1,w:1,c:96]                                     96                                                   conv2d_22   |               -96(-100.0%)        
                                                                                                                                                   EmbeddedNetV1_width1_0_conv2d_14_clip_by_value_Minimum_y1   | 
------ --------------------------------------------------------------------------- ------------------------------ ----------------- ------------ ----------------------------------------------------------- --- ------------- ------------------- ----------------------------- 
24     nl_24 (Nonlinearity, RELU)                                                  [b:1,h:1,h:1,w:1,c:96]                                     96                                                  eltwise_23   |                                   nl_oi8[27]                    
------ --------------------------------------------------------------------------- ------------------------------ ----------------- ------------ ----------------------------------------------------------- --- ------------- ------------------- ----------------------------- 
25     eltwise_25 (Eltwise, MUL)                                                   [b:1,h:14,h:14,w:14,c:96]                              18,816                                                    nl_19_nl   |                                   eltwise_integer/mul_oi8[28]   
                                                                                                                                                                                                       nl_24   | 
------ --------------------------------------------------------------------------- ------------------------------ ----------------- ------------ ----------------------------------------------------------- --- ------------- ------------------- ----------------------------- 
26     conv2d_26 (Conv2D, CONV_2D)                                                 [b:1,h:14,h:14,w:14,c:32]      3,104/3,200            602,144                                                  eltwise_25   |                                   conv2d_oi8[29]                
------ --------------------------------------------------------------------------- ------------------------------ ----------------- ------------ ----------------------------------------------------------- --- ------------- ------------------- ----------------------------- 
27     conv2d_27 (Conv2D, CONV_2D)                                                 [b:1,h:14,h:14,w:14,c:192]     6,336/6,912          1,204,416                                                   conv2d_26   |                                   conv2d_oi8[30]                
       nl_27_nl (Nonlinearity, CONV_2D)                                            [b:1,h:14,h:14,w:14,c:192]                             37,632                                                   conv2d_27   |               -37,632(-100.0%)    
------ --------------------------------------------------------------------------- ------------------------------ ----------------- ------------ ----------------------------------------------------------- --- ------------- ------------------- ----------------------------- 
28     conv2d_28 (Conv2D, DEPTHWISE_CONV_2D)                                       [b:1,h:14,h:14,w:14,c:192]     4,992/5,568            940,992                                                    nl_27_nl   |                                   conv2d_oi8[31]                
       nl_28_nl (Nonlinearity, DEPTHWISE_CONV_2D)                                  [b:1,h:14,h:14,w:14,c:192]                             37,632                                                   conv2d_28   |               -37,632(-100.0%)    
------ --------------------------------------------------------------------------- ------------------------------ ----------------- ------------ ----------------------------------------------------------- --- ------------- ------------------- ----------------------------- 
29     pool_29 (Pool, AVERAGE_POOL_2D)                                             [b:1,h:1,h:1,w:1,c:192]                                37,632                                                    nl_28_nl   |                                   pool_oi8[32]                  
------ --------------------------------------------------------------------------- ------------------------------ ----------------- ------------ ----------------------------------------------------------- --- ------------- ------------------- ----------------------------- 
30     conv2d_30 (Conv2D, CONV_2D)                                                 [b:1,h:1,h:1,w:1,c:48]         9,264/9,408              9,264                                                     pool_29   |                                   conv2d_oi8[33]                
       nl_30_nl (Nonlinearity, CONV_2D)                                            [b:1,h:1,h:1,w:1,c:48]                                     48                                                   conv2d_30   |               -48(-100.0%)        
------ --------------------------------------------------------------------------- ------------------------------ ----------------- ------------ ----------------------------------------------------------- --- ------------- ------------------- ----------------------------- 
31     conv2d_31 (Conv2D, CONV_2D)                                                 [b:1,h:1,h:1,w:1,c:192]        9,408/9,984              9,408                                                    nl_30_nl   |                                   conv2d_oi8[34]                
------ --------------------------------------------------------------------------- ------------------------------ ----------------- ------------ ----------------------------------------------------------- --- ------------- ------------------- ----------------------------- 
32     EmbeddedNetV1_width1_0_conv2d_14_clip_by_value_Minimum_y2 (Placeholder, )   []                             1/1                                                                                          | +3(+300.0%)   +192(+100.0%)       eltwise_integer/min_oi8[35]   
       eltwise_32 (Eltwise, MINIMUM)                                               [b:1,h:1,h:1,w:1,c:192]                                   192                                                   conv2d_31   |               -192(-100.0%)       
                                                                                                                                                   EmbeddedNetV1_width1_0_conv2d_14_clip_by_value_Minimum_y2   | 
------ --------------------------------------------------------------------------- ------------------------------ ----------------- ------------ ----------------------------------------------------------- --- ------------- ------------------- ----------------------------- 
33     nl_33 (Nonlinearity, RELU)                                                  [b:1,h:1,h:1,w:1,c:192]                                   192                                                  eltwise_32   |                                   nl_oi8[36]                    
------ --------------------------------------------------------------------------- ------------------------------ ----------------- ------------ ----------------------------------------------------------- --- ------------- ------------------- ----------------------------- 
34     eltwise_34 (Eltwise, MUL)                                                   [b:1,h:14,h:14,w:14,c:192]                             37,632                                                    nl_28_nl   |                                   eltwise_integer/mul_oi8[37]   
                                                                                                                                                                                                       nl_33   | 
------ --------------------------------------------------------------------------- ------------------------------ ----------------- ------------ ----------------------------------------------------------- --- ------------- ------------------- ----------------------------- 
35     conv2d_35 (Conv2D, CONV_2D)                                                 [b:1,h:14,h:14,w:14,c:32]      6,176/6,272          1,204,256                                                  eltwise_34   |                                   conv2d_oi8[38]                
------ --------------------------------------------------------------------------- ------------------------------ ----------------- ------------ ----------------------------------------------------------- --- ------------- ------------------- ----------------------------- 
36     eltwise_36 (Eltwise, ADD)                                                   [b:1,h:14,h:14,w:14,c:32]                               6,272                                                   conv2d_26   |                                   eltwise_integer/sum_oi8[39]   
                                                                                                                                                                                                   conv2d_35   | 
------ --------------------------------------------------------------------------- ------------------------------ ----------------- ------------ ----------------------------------------------------------- --- ------------- ------------------- ----------------------------- 
37     conv2d_37 (Conv2D, CONV_2D)                                                 [b:1,h:14,h:14,w:14,c:128]     4,224/4,608            802,944                                                  eltwise_36   |                                   conv2d_oi8[40]                
       nl_37_nl (Nonlinearity, CONV_2D)                                            [b:1,h:14,h:14,w:14,c:128]                             25,088                                                   conv2d_37   |               -25,088(-100.0%)    
------ --------------------------------------------------------------------------- ------------------------------ ----------------- ------------ ----------------------------------------------------------- --- ------------- ------------------- ----------------------------- 
38     conv2d_38 (Conv2D, DEPTHWISE_CONV_2D)                                       [b:1,h:14,h:14,w:14,c:128]     3,328/3,712            627,328                                                    nl_37_nl   |                                   conv2d_oi8[41]                
       nl_38_nl (Nonlinearity, DEPTHWISE_CONV_2D)                                  [b:1,h:14,h:14,w:14,c:128]                             25,088                                                   conv2d_38   |               -25,088(-100.0%)    
------ --------------------------------------------------------------------------- ------------------------------ ----------------- ------------ ----------------------------------------------------------- --- ------------- ------------------- ----------------------------- 
39     pool_39 (Pool, AVERAGE_POOL_2D)                                             [b:1,h:1,h:1,w:1,c:128]                                25,088                                                    nl_38_nl   |                                   pool_oi8[42]                  
------ --------------------------------------------------------------------------- ------------------------------ ----------------- ------------ ----------------------------------------------------------- --- ------------- ------------------- ----------------------------- 
40     conv2d_40 (Conv2D, CONV_2D)                                                 [b:1,h:1,h:1,w:1,c:32]         4,128/4,224              4,128                                                     pool_39   |                                   conv2d_oi8[43]                
       nl_40_nl (Nonlinearity, CONV_2D)                                            [b:1,h:1,h:1,w:1,c:32]                                     32                                                   conv2d_40   |               -32(-100.0%)        
------ --------------------------------------------------------------------------- ------------------------------ ----------------- ------------ ----------------------------------------------------------- --- ------------- ------------------- ----------------------------- 
41     conv2d_41 (Conv2D, CONV_2D)                                                 [b:1,h:1,h:1,w:1,c:128]        4,224/4,608              4,224                                                    nl_40_nl   |                                   conv2d_oi8[44]                
------ --------------------------------------------------------------------------- ------------------------------ ----------------- ------------ ----------------------------------------------------------- --- ------------- ------------------- ----------------------------- 
42     EmbeddedNetV1_width1_0_conv2d_14_clip_by_value_Minimum_y3 (Placeholder, )   []                             1/1                                                                                          | +3(+300.0%)   +128(+100.0%)       eltwise_integer/min_oi8[45]   
       eltwise_42 (Eltwise, MINIMUM)                                               [b:1,h:1,h:1,w:1,c:128]                                   128                                                   conv2d_41   |               -128(-100.0%)       
                                                                                                                                                   EmbeddedNetV1_width1_0_conv2d_14_clip_by_value_Minimum_y3   | 
------ --------------------------------------------------------------------------- ------------------------------ ----------------- ------------ ----------------------------------------------------------- --- ------------- ------------------- ----------------------------- 
43     nl_43 (Nonlinearity, RELU)                                                  [b:1,h:1,h:1,w:1,c:128]                                   128                                                  eltwise_42   |                                   nl_oi8[46]                    
------ --------------------------------------------------------------------------- ------------------------------ ----------------- ------------ ----------------------------------------------------------- --- ------------- ------------------- ----------------------------- 
44     eltwise_44 (Eltwise, MUL)                                                   [b:1,h:14,h:14,w:14,c:128]                             25,088                                                    nl_38_nl   |                                   eltwise_integer/mul_oi8[47]   
                                                                                                                                                                                                       nl_43   | 
------ --------------------------------------------------------------------------- ------------------------------ ----------------- ------------ ----------------------------------------------------------- --- ------------- ------------------- ----------------------------- 
45     conv2d_45 (Conv2D, CONV_2D)                                                 [b:1,h:14,h:14,w:14,c:32]      4,128/4,224            802,848                                                  eltwise_44   |                                   conv2d_oi8[48]                
------ --------------------------------------------------------------------------- ------------------------------ ----------------- ------------ ----------------------------------------------------------- --- ------------- ------------------- ----------------------------- 
46     eltwise_46 (Eltwise, ADD)                                                   [b:1,h:14,h:14,w:14,c:32]                               6,272                                                  eltwise_36   |                                   eltwise_integer/sum_oi8[49]   
                                                                                                                                                                                                   conv2d_45   | 
------ --------------------------------------------------------------------------- ------------------------------ ----------------- ------------ ----------------------------------------------------------- --- ------------- ------------------- ----------------------------- 
47     conv2d_47 (Conv2D, CONV_2D)                                                 [b:1,h:14,h:14,w:14,c:240]     7,920/8,640          1,505,520                                                  eltwise_46   |                                   conv2d_oi8[50]                
       nl_47_nl (Nonlinearity, CONV_2D)                                            [b:1,h:14,h:14,w:14,c:240]                             47,040                                                   conv2d_47   |               -47,040(-100.0%)    
------ --------------------------------------------------------------------------- ------------------------------ ----------------- ------------ ----------------------------------------------------------- --- ------------- ------------------- ----------------------------- 
48     conv2d_48 (Conv2D, DEPTHWISE_CONV_2D)                                       [b:1,h:7,h:7,w:7,c:240]        6,240/6,960            294,240                                                    nl_47_nl   |                                   conv2d_oi8[51]                
       nl_48_nl (Nonlinearity, DEPTHWISE_CONV_2D)                                  [b:1,h:7,h:7,w:7,c:240]                                11,760                                                   conv2d_48   |               -11,760(-100.0%)    
------ --------------------------------------------------------------------------- ------------------------------ ----------------- ------------ ----------------------------------------------------------- --- ------------- ------------------- ----------------------------- 
49     pool_49 (Pool, AVERAGE_POOL_2D)                                             [b:1,h:1,h:1,w:1,c:240]                                11,760                                                    nl_48_nl   |                                   pool_oi8[52]                  
------ --------------------------------------------------------------------------- ------------------------------ ----------------- ------------ ----------------------------------------------------------- --- ------------- ------------------- ----------------------------- 
50     conv2d_50 (Conv2D, CONV_2D)                                                 [b:1,h:1,h:1,w:1,c:60]         14,460/14,640           14,460                                                     pool_49   |                                   conv2d_oi8[53]                
       nl_50_nl (Nonlinearity, CONV_2D)                                            [b:1,h:1,h:1,w:1,c:60]                                     60                                                   conv2d_50   |               -60(-100.0%)        
------ --------------------------------------------------------------------------- ------------------------------ ----------------- ------------ ----------------------------------------------------------- --- ------------- ------------------- ----------------------------- 
51     conv2d_51 (Conv2D, CONV_2D)                                                 [b:1,h:1,h:1,w:1,c:240]        14,640/15,360           14,640                                                    nl_50_nl   |                                   conv2d_oi8[54]                
------ --------------------------------------------------------------------------- ------------------------------ ----------------- ------------ ----------------------------------------------------------- --- ------------- ------------------- ----------------------------- 
52     EmbeddedNetV1_width1_0_conv2d_14_clip_by_value_Minimum_y4 (Placeholder, )   []                             1/1                                                                                          | +3(+300.0%)   +240(+100.0%)       eltwise_integer/min_oi8[55]   
       eltwise_52 (Eltwise, MINIMUM)                                               [b:1,h:1,h:1,w:1,c:240]                                   240                                                   conv2d_51   |               -240(-100.0%)       
                                                                                                                                                   EmbeddedNetV1_width1_0_conv2d_14_clip_by_value_Minimum_y4   | 
------ --------------------------------------------------------------------------- ------------------------------ ----------------- ------------ ----------------------------------------------------------- --- ------------- ------------------- ----------------------------- 
53     nl_53 (Nonlinearity, RELU)                                                  [b:1,h:1,h:1,w:1,c:240]                                   240                                                  eltwise_52   |                                   nl_oi8[56]                    
------ --------------------------------------------------------------------------- ------------------------------ ----------------- ------------ ----------------------------------------------------------- --- ------------- ------------------- ----------------------------- 
54     eltwise_54 (Eltwise, MUL)                                                   [b:1,h:7,h:7,w:7,c:240]                                11,760                                                    nl_48_nl   |                                   eltwise_integer/mul_oi8[57]   
                                                                                                                                                                                                       nl_53   | 
------ --------------------------------------------------------------------------- ------------------------------ ----------------- ------------ ----------------------------------------------------------- --- ------------- ------------------- ----------------------------- 
55     conv2d_55 (Conv2D, CONV_2D)                                                 [b:1,h:7,h:7,w:7,c:80]         19,280/19,520          940,880                                                  eltwise_54   |                                   conv2d_oi8[58]                
------ --------------------------------------------------------------------------- ------------------------------ ----------------- ------------ ----------------------------------------------------------- --- ------------- ------------------- ----------------------------- 
56     conv2d_56 (Conv2D, CONV_2D)                                                 [b:1,h:7,h:7,w:7,c:320]        25,920/26,880        1,254,720                                                   conv2d_55   |                                   conv2d_oi8[59]                
       nl_56_nl (Nonlinearity, CONV_2D)                                            [b:1,h:7,h:7,w:7,c:320]                                15,680                                                   conv2d_56   |               -15,680(-100.0%)    
------ --------------------------------------------------------------------------- ------------------------------ ----------------- ------------ ----------------------------------------------------------- --- ------------- ------------------- ----------------------------- 
57     conv2d_57 (Conv2D, DEPTHWISE_CONV_2D)                                       [b:1,h:7,h:7,w:7,c:320]        8,320/9,280            392,320                                                    nl_56_nl   |                                   conv2d_oi8[60]                
       nl_57_nl (Nonlinearity, DEPTHWISE_CONV_2D)                                  [b:1,h:7,h:7,w:7,c:320]                                15,680                                                   conv2d_57   |               -15,680(-100.0%)    
------ --------------------------------------------------------------------------- ------------------------------ ----------------- ------------ ----------------------------------------------------------- --- ------------- ------------------- ----------------------------- 
58     pool_58 (Pool, AVERAGE_POOL_2D)                                             [b:1,h:1,h:1,w:1,c:320]                                15,680                                                    nl_57_nl   |                                   pool_oi8[61]                  
------ --------------------------------------------------------------------------- ------------------------------ ----------------- ------------ ----------------------------------------------------------- --- ------------- ------------------- ----------------------------- 
59     conv2d_59 (Conv2D, CONV_2D)                                                 [b:1,h:1,h:1,w:1,c:80]         25,680/25,920           25,680                                                     pool_58   |                                   conv2d_oi8[62]                
       nl_59_nl (Nonlinearity, CONV_2D)                                            [b:1,h:1,h:1,w:1,c:80]                                     80                                                   conv2d_59   |               -80(-100.0%)        
------ --------------------------------------------------------------------------- ------------------------------ ----------------- ------------ ----------------------------------------------------------- --- ------------- ------------------- ----------------------------- 
60     conv2d_60 (Conv2D, CONV_2D)                                                 [b:1,h:1,h:1,w:1,c:320]        25,920/26,880           25,920                                                    nl_59_nl   |                                   conv2d_oi8[63]                
------ --------------------------------------------------------------------------- ------------------------------ ----------------- ------------ ----------------------------------------------------------- --- ------------- ------------------- ----------------------------- 
61     EmbeddedNetV1_width1_0_conv2d_14_clip_by_value_Minimum_y5 (Placeholder, )   []                             1/1                                                                                          | +3(+300.0%)   +320(+100.0%)       eltwise_integer/min_oi8[64]   
       eltwise_61 (Eltwise, MINIMUM)                                               [b:1,h:1,h:1,w:1,c:320]                                   320                                                   conv2d_60   |               -320(-100.0%)       
                                                                                                                                                   EmbeddedNetV1_width1_0_conv2d_14_clip_by_value_Minimum_y5   | 
------ --------------------------------------------------------------------------- ------------------------------ ----------------- ------------ ----------------------------------------------------------- --- ------------- ------------------- ----------------------------- 
62     nl_62 (Nonlinearity, RELU)                                                  [b:1,h:1,h:1,w:1,c:320]                                   320                                                  eltwise_61   |                                   nl_oi8[65]                    
------ --------------------------------------------------------------------------- ------------------------------ ----------------- ------------ ----------------------------------------------------------- --- ------------- ------------------- ----------------------------- 
63     eltwise_63 (Eltwise, MUL)                                                   [b:1,h:7,h:7,w:7,c:320]                                15,680                                                    nl_57_nl   |                                   eltwise_integer/mul_oi8[66]   
                                                                                                                                                                                                       nl_62   | 
------ --------------------------------------------------------------------------- ------------------------------ ----------------- ------------ ----------------------------------------------------------- --- ------------- ------------------- ----------------------------- 
64     conv2d_64 (Conv2D, CONV_2D)                                                 [b:1,h:7,h:7,w:7,c:80]         25,680/25,920        1,254,480                                                  eltwise_63   |                                   conv2d_oi8[67]                
------ --------------------------------------------------------------------------- ------------------------------ ----------------- ------------ ----------------------------------------------------------- --- ------------- ------------------- ----------------------------- 
65     eltwise_65 (Eltwise, ADD)                                                   [b:1,h:7,h:7,w:7,c:80]                                  3,920                                                   conv2d_55   |                                   eltwise_integer/sum_oi8[68]   
                                                                                                                                                                                                   conv2d_64   | 
------ --------------------------------------------------------------------------- ------------------------------ ----------------- ------------ ----------------------------------------------------------- --- ------------- ------------------- ----------------------------- 
66     conv2d_66 (Conv2D, CONV_2D)                                                 [b:1,h:7,h:7,w:7,c:480]        38,880/40,320        1,882,080                                                  eltwise_65   |                                   conv2d_oi8[69]                
       nl_66_nl (Nonlinearity, CONV_2D)                                            [b:1,h:7,h:7,w:7,c:480]                                23,520                                                   conv2d_66   |               -23,520(-100.0%)    
------ --------------------------------------------------------------------------- ------------------------------ ----------------- ------------ ----------------------------------------------------------- --- ------------- ------------------- ----------------------------- 
67     conv2d_67 (Conv2D, DEPTHWISE_CONV_2D)                                       [b:1,h:7,h:7,w:7,c:480]        12,480/13,920          588,480                                                    nl_66_nl   |                                   conv2d_oi8[70]                
       nl_67_nl (Nonlinearity, DEPTHWISE_CONV_2D)                                  [b:1,h:7,h:7,w:7,c:480]                                23,520                                                   conv2d_67   |               -23,520(-100.0%)    
------ --------------------------------------------------------------------------- ------------------------------ ----------------- ------------ ----------------------------------------------------------- --- ------------- ------------------- ----------------------------- 
68     pool_68 (Pool, AVERAGE_POOL_2D)                                             [b:1,h:1,h:1,w:1,c:480]                                23,520                                                    nl_67_nl   |                                   pool_oi8[71]                  
------ --------------------------------------------------------------------------- ------------------------------ ----------------- ------------ ----------------------------------------------------------- --- ------------- ------------------- ----------------------------- 
69     conv2d_69 (Conv2D, CONV_2D)                                                 [b:1,h:1,h:1,w:1,c:120]        57,720/58,080           57,720                                                     pool_68   |                                   conv2d_oi8[72]                
       nl_69_nl (Nonlinearity, CONV_2D)                                            [b:1,h:1,h:1,w:1,c:120]                                   120                                                   conv2d_69   |               -120(-100.0%)       
------ --------------------------------------------------------------------------- ------------------------------ ----------------- ------------ ----------------------------------------------------------- --- ------------- ------------------- ----------------------------- 
70     conv2d_70 (Conv2D, CONV_2D)                                                 [b:1,h:1,h:1,w:1,c:480]        58,080/59,520           58,080                                                    nl_69_nl   |                                   conv2d_oi8[73]                
------ --------------------------------------------------------------------------- ------------------------------ ----------------- ------------ ----------------------------------------------------------- --- ------------- ------------------- ----------------------------- 
71     EmbeddedNetV1_width1_0_conv2d_14_clip_by_value_Minimum_y6 (Placeholder, )   []                             1/1                                                                                          | +3(+300.0%)   +480(+100.0%)       eltwise_integer/min_oi8[74]   
       eltwise_71 (Eltwise, MINIMUM)                                               [b:1,h:1,h:1,w:1,c:480]                                   480                                                   conv2d_70   |               -480(-100.0%)       
                                                                                                                                                   EmbeddedNetV1_width1_0_conv2d_14_clip_by_value_Minimum_y6   | 
------ --------------------------------------------------------------------------- ------------------------------ ----------------- ------------ ----------------------------------------------------------- --- ------------- ------------------- ----------------------------- 
72     nl_72 (Nonlinearity, RELU)                                                  [b:1,h:1,h:1,w:1,c:480]                                   480                                                  eltwise_71   |                                   nl_oi8[75]                    
------ --------------------------------------------------------------------------- ------------------------------ ----------------- ------------ ----------------------------------------------------------- --- ------------- ------------------- ----------------------------- 
73     eltwise_73 (Eltwise, MUL)                                                   [b:1,h:7,h:7,w:7,c:480]                                23,520                                                    nl_67_nl   |                                   eltwise_integer/mul_oi8[76]   
                                                                                                                                                                                                       nl_72   | 
------ --------------------------------------------------------------------------- ------------------------------ ----------------- ------------ ----------------------------------------------------------- --- ------------- ------------------- ----------------------------- 
74     conv2d_74 (Conv2D, CONV_2D)                                                 [b:1,h:7,h:7,w:7,c:80]         38,480/38,720        1,881,680                                                  eltwise_73   |                                   conv2d_oi8[77]                
------ --------------------------------------------------------------------------- ------------------------------ ----------------- ------------ ----------------------------------------------------------- --- ------------- ------------------- ----------------------------- 
75     eltwise_75 (Eltwise, ADD)                                                   [b:1,h:7,h:7,w:7,c:80]                                  3,920                                                  eltwise_65   |                                   eltwise_integer/sum_oi8[78]   
                                                                                                                                                                                                   conv2d_74   | 
------ --------------------------------------------------------------------------- ------------------------------ ----------------- ------------ ----------------------------------------------------------- --- ------------- ------------------- ----------------------------- 
76     conv2d_76 (Conv2D, CONV_2D)                                                 [b:1,h:7,h:7,w:7,c:480]        38,880/40,320        1,882,080                                                  eltwise_75   |                                   conv2d_oi8[79]                
       nl_76_nl (Nonlinearity, CONV_2D)                                            [b:1,h:7,h:7,w:7,c:480]                                23,520                                                   conv2d_76   |               -23,520(-100.0%)    
------ --------------------------------------------------------------------------- ------------------------------ ----------------- ------------ ----------------------------------------------------------- --- ------------- ------------------- ----------------------------- 
77     pool_77 (Pool, MEAN)                                                        [b:1,h:1,h:1,w:1,c:480]                                23,520                                                    nl_76_nl   |                                   pool_oi8[80]                  
------ --------------------------------------------------------------------------- ------------------------------ ----------------- ------------ ----------------------------------------------------------- --- ------------- ------------------- ----------------------------- 
78     conv2d_78 (Conv2D, CONV_2D)                                                 [b:1,h:1,h:1,w:1,c:960]        461,760/464,640        461,760                                                     pool_77   |                                   conv2d_oi8[81]                
       nl_78_nl (Nonlinearity, CONV_2D)                                            [b:1,h:1,h:1,w:1,c:960]                                   960                                                   conv2d_78   |               -960(-100.0%)       
------ --------------------------------------------------------------------------- ------------------------------ ----------------- ------------ ----------------------------------------------------------- --- ------------- ------------------- ----------------------------- 
79     conv2d_79 (Conv2D, CONV_2D)                                                 [b:1,h:1,h:1,w:1,c:5]          4,805/4,820              4,805                                                    nl_78_nl   |                                   conv2d_oi8[82]                
------ --------------------------------------------------------------------------- ------------------------------ ----------------- ------------ ----------------------------------------------------------- --- ------------- ------------------- ----------------------------- 
80     reshape_80 (Reshape, RESHAPE)                                               [b:1,c:5]                                                                                                       conv2d_79   |                                   
------ --------------------------------------------------------------------------- ------------------------------ ----------------- ------------ ----------------------------------------------------------- --- ------------- ------------------- ----------------------------- 
81     nl_81 (Nonlinearity, SOFTMAX)                                               [b:1,c:5]                                                  75                                                  reshape_80   |                                   nl_oi8[83]                    
------ --------------------------------------------------------------------------- ------------------------------ ----------------- ------------ ----------------------------------------------------------- --- ------------- ------------------- ----------------------------- 
82     conversion_82 (Conversion, DEQUANTIZE)                                      [b:1,c:5]                                                  10                                                       nl_81   |                                   converter_of32[o][84]         
------ --------------------------------------------------------------------------- ------------------------------ ----------------- ------------ ----------------------------------------------------------- --- ------------- ------------------- ----------------------------- 
model/c-model: macc=67,563,346/66,617,294 -946,052(-1.4%) weights=1,007,819/1,007,840 +21(+0.0%) activations=--/215,872 io=--/0



Generated C-graph summary
------------------------------------------------------------------------------------------------------------------------
model name            : quantized_model
c-name                : network
c-node #              : 85
c-array #             : 255
activations size      : 215872 (1 segment)
weights size          : 1007840 (1 segment)
macc                  : 66617294
inputs                : ['serving_default_input_10_output']
outputs               : ['conversion_82_output']

C-Arrays (255)
------ ----------------------------------------------------------- --------------- ------------------------- --------------- -------------- --------- 
c_id   name (*_array)                                              item/size       domain/mem-pool           c-type          fmt            comment   
------ ----------------------------------------------------------- --------------- ------------------------- --------------- -------------- --------- 
0      eltwise_32_output                                           192/192         activations/**default**   int8_t          sa8                      
1      conv2d_22_scratch0                                          1056/1056       activations/**default**   int8_t          s8                       
2      nl_33_output                                                192/192         activations/**default**   int8_t          sa8                      
3      eltwise_34_output                                           37632/37632     activations/**default**   int8_t          sa8                      
4      conv2d_35_output                                            6272/6272       activations/**default**   int8_t          sa8                      
5      conv2d_26_scratch0                                          704/704         activations/**default**   int8_t          s8                       
6      eltwise_36_output                                           6272/6272       activations/**default**   int8_t          sa8                      
7      conv2d_37_output                                            25088/25088     activations/**default**   int8_t          sa8                      
8      conv2d_38_output                                            25088/25088     activations/**default**   int8_t          sa8                      
9      conv2d_27_scratch0                                          2048/2048       activations/**default**   int8_t          s8                       
10     pool_39_output                                              128/128         activations/**default**   int8_t          sa8                      
11     conv2d_40_output                                            32/32           activations/**default**   int8_t          sa8                      
12     conv2d_27_scratch1                                          37632/37632     activations/**default**   int8_t          sa8                      
13     conv2d_41_output                                            128/128         activations/**default**   int8_t          sa8                      
14     eltwise_42_output                                           128/128         activations/**default**   int8_t          sa8                      
15     nl_43_output                                                128/128         activations/**default**   int8_t          sa8                      
16     conv2d_28_scratch0                                          16321/16321     activations/**default**   int8_t          s8                       
17     eltwise_44_output                                           25088/25088     activations/**default**   int8_t          sa8                      
18     conv2d_45_output                                            6272/6272       activations/**default**   int8_t          sa8                      
19     conv2d_28_scratch1                                          37632/37632     activations/**default**   int8_t          sa8                      
20     eltwise_46_output                                           6272/6272       activations/**default**   int8_t          sa8                      
21     conv2d_47_output                                            47040/47040     activations/**default**   int8_t          sa8                      
22     conv2d_48_output                                            11760/11760     activations/**default**   int8_t          sa8                      
23     conv2d_30_scratch0                                          1248/1248       activations/**default**   int8_t          s8                       
24     pool_49_output                                              240/240         activations/**default**   int8_t          sa8                      
25     conv2d_50_output                                            60/60           activations/**default**   int8_t          sa8                      
26     conv2d_30_scratch1                                          48/48           activations/**default**   int8_t          sa8                      
27     conv2d_51_output                                            240/240         activations/**default**   int8_t          sa8                      
28     eltwise_52_output                                           240/240         activations/**default**   int8_t          sa8                      
29     nl_53_output                                                240/240         activations/**default**   int8_t          sa8                      
30     conv2d_31_scratch0                                          2112/2112       activations/**default**   int8_t          s8                       
31     eltwise_54_output                                           11760/11760     activations/**default**   int8_t          sa8                      
32     conv2d_55_output                                            3920/3920       activations/**default**   int8_t          sa8                      
33     conv2d_56_output                                            15680/15680     activations/**default**   int8_t          sa8                      
34     conv2d_35_scratch0                                          1088/1088       activations/**default**   int8_t          s8                       
35     conv2d_57_output                                            15680/15680     activations/**default**   int8_t          sa8                      
36     pool_58_output                                              320/320         activations/**default**   int8_t          sa8                      
37     conv2d_59_output                                            80/80           activations/**default**   int8_t          sa8                      
38     conv2d_37_scratch0                                          1408/1408       activations/**default**   int8_t          s8                       
39     conv2d_60_output                                            320/320         activations/**default**   int8_t          sa8                      
40     eltwise_61_output                                           320/320         activations/**default**   int8_t          sa8                      
41     conv2d_37_scratch1                                          25088/25088     activations/**default**   int8_t          sa8                      
42     nl_62_output                                                320/320         activations/**default**   int8_t          sa8                      
43     eltwise_63_output                                           15680/15680     activations/**default**   int8_t          sa8                      
44     conv2d_64_output                                            3920/3920       activations/**default**   int8_t          sa8                      
45     conv2d_38_scratch0                                          10881/10881     activations/**default**   int8_t          s8                       
46     eltwise_65_output                                           3920/3920       activations/**default**   int8_t          sa8                      
47     conv2d_66_output                                            23520/23520     activations/**default**   int8_t          sa8                      
48     conv2d_38_scratch1                                          25088/25088     activations/**default**   int8_t          sa8                      
49     conv2d_67_output                                            23520/23520     activations/**default**   int8_t          sa8                      
50     pool_68_output                                              480/480         activations/**default**   int8_t          sa8                      
51     conv2d_69_output                                            120/120         activations/**default**   int8_t          sa8                      
52     conv2d_40_scratch0                                          832/832         activations/**default**   int8_t          s8                       
53     conv2d_70_output                                            480/480         activations/**default**   int8_t          sa8                      
54     eltwise_71_output                                           480/480         activations/**default**   int8_t          sa8                      
55     conv2d_40_scratch1                                          32/32           activations/**default**   int8_t          sa8                      
56     nl_72_output                                                480/480         activations/**default**   int8_t          sa8                      
57     eltwise_73_output                                           23520/23520     activations/**default**   int8_t          sa8                      
58     conv2d_74_output                                            3920/3920       activations/**default**   int8_t          sa8                      
59     conv2d_41_scratch0                                          1408/1408       activations/**default**   int8_t          s8                       
60     eltwise_75_output                                           3920/3920       activations/**default**   int8_t          sa8                      
61     conv2d_76_output                                            23520/23520     activations/**default**   int8_t          sa8                      
62     pool_77_output                                              480/480         activations/**default**   int8_t          sa8                      
63     conv2d_45_scratch0                                          832/832         activations/**default**   int8_t          s8                       
64     conv2d_78_output                                            960/960         activations/**default**   int8_t          sa8                      
65     conv2d_79_output                                            5/5             activations/**default**   int8_t          sa8                      
66     nl_81_output                                                5/5             activations/**default**   int8_t          sa8                      
67     conv2d_47_scratch0                                          2528/2528       activations/**default**   int8_t          s8                       
68     conversion_82_output                                        5/20            activations/**default**   float           float32        /output   
69     EmbeddedNetV1_width1_0_conv2d_14_clip_by_value_Minimum_y6   1/4             weights/weights           const int8_t    sa8                      
70     conv2d_47_scratch1                                          47040/47040     activations/**default**   int8_t          sa8                      
71     EmbeddedNetV1_width1_0_conv2d_14_clip_by_value_Minimum_y5   1/4             weights/weights           const int8_t    sa8                      
72     EmbeddedNetV1_width1_0_conv2d_14_clip_by_value_Minimum_y4   1/4             weights/weights           const int8_t    sa8                      
73     EmbeddedNetV1_width1_0_conv2d_14_clip_by_value_Minimum_y3   1/4             weights/weights           const int8_t    sa8                      
74     conv2d_48_scratch0                                          20401/20401     activations/**default**   int8_t          s8                       
75     EmbeddedNetV1_width1_0_conv2d_14_clip_by_value_Minimum_y2   1/4             weights/weights           const int8_t    sa8                      
76     EmbeddedNetV1_width1_0_conv2d_14_clip_by_value_Minimum_y1   1/4             weights/weights           const int8_t    sa8                      
77     conv2d_48_scratch1                                          11760/11760     activations/**default**   int8_t          sa8                      
78     EmbeddedNetV1_width1_0_conv2d_14_clip_by_value_Minimum_y    1/4             weights/weights           const int8_t    sa8                      
79     conv2d_1_weights                                            432/432         weights/weights           const int8_t    ss8/ch(16)               
80     conv2d_1_bias                                               16/64           weights/weights           const int32_t   ss32/ch(16)              
81     conv2d_50_scratch0                                          1560/1560       activations/**default**   int8_t          s8                       
82     conv2d_2_weights                                            4608/4608       weights/weights           const int8_t    ss8/ch(32)               
83     conv2d_50_scratch1                                          60/60           activations/**default**   int8_t          sa8                      
84     conv2d_2_bias                                               32/128          weights/weights           const int32_t   ss32/ch(32)              
85     conv2d_4_weights                                            256/256         weights/weights           const int8_t    ss8/ch(8)                
86     conv2d_51_scratch0                                          2640/2640       activations/**default**   int8_t          s8                       
87     conv2d_4_bias                                               8/32            weights/weights           const int32_t   ss32/ch(8)               
88     conv2d_5_weights                                            256/256         weights/weights           const int8_t    ss8/ch(32)               
89     conv2d_55_scratch0                                          1760/1760       activations/**default**   int8_t          s8                       
90     conv2d_5_bias                                               32/128          weights/weights           const int32_t   ss32/ch(32)              
91     conv2d_9_weights                                            1024/1024       weights/weights           const int8_t    ss8/ch(32)               
92     conv2d_56_scratch0                                          3520/3520       activations/**default**   int8_t          s8                       
93     conv2d_9_bias                                               32/128          weights/weights           const int32_t   ss32/ch(32)              
94     conv2d_56_scratch1                                          15680/15680     activations/**default**   int8_t          sa8                      
95     conv2d_10_weights                                           512/512         weights/weights           const int8_t    ss8/ch(16)               
96     conv2d_10_bias                                              16/64           weights/weights           const int32_t   ss32/ch(16)              
97     conv2d_57_scratch0                                          27201/27201     activations/**default**   int8_t          s8                       
98     conv2d_11_weights                                           9216/9216       weights/weights           const int8_t    ss8/ch(64)               
99     conv2d_11_bias                                              64/256          weights/weights           const int32_t   ss32/ch(64)              
100    conv2d_57_scratch1                                          15680/15680     activations/**default**   int8_t          sa8                      
101    conv2d_12_weights                                           2048/2048       weights/weights           const int8_t    ss8/ch(32)               
102    conv2d_12_bias                                              32/128          weights/weights           const int32_t   ss32/ch(32)              
103    conv2d_59_scratch0                                          2080/2080       activations/**default**   int8_t          s8                       
104    conv2d_13_weights                                           512/512         weights/weights           const int8_t    ss8/ch(16)               
105    conv2d_59_scratch1                                          80/80           activations/**default**   int8_t          sa8                      
106    conv2d_13_bias                                              16/64           weights/weights           const int32_t   ss32/ch(16)              
107    conv2d_14_weights                                           11520/11520     weights/weights           const int8_t    ss8/ch(80)               
108    conv2d_60_scratch0                                          3520/3520       activations/**default**   int8_t          s8                       
109    conv2d_14_bias                                              80/320          weights/weights           const int32_t   ss32/ch(80)              
110    conv2d_15_weights                                           2560/2560       weights/weights           const int8_t    ss8/ch(32)               
111    conv2d_64_scratch0                                          2080/2080       activations/**default**   int8_t          s8                       
112    conv2d_15_bias                                              32/128          weights/weights           const int32_t   ss32/ch(32)              
113    conv2d_16_weights                                           512/512         weights/weights           const int8_t    ss8/ch(16)               
114    conv2d_66_scratch0                                          5120/5120       activations/**default**   int8_t          s8                       
115    conv2d_16_bias                                              16/64           weights/weights           const int32_t   ss32/ch(16)              
116    conv2d_66_scratch1                                          23520/23520     activations/**default**   int8_t          sa8                      
117    conv2d_18_weights                                           1536/1536       weights/weights           const int8_t    ss8/ch(96)               
118    conv2d_18_bias                                              96/384          weights/weights           const int32_t   ss32/ch(96)              
119    conv2d_67_scratch0                                          40801/40801     activations/**default**   int8_t          s8                       
120    conv2d_19_weights                                           2400/2400       weights/weights           const int8_t    ss8/ch(96)               
121    conv2d_19_bias                                              96/384          weights/weights           const int32_t   ss32/ch(96)              
122    conv2d_67_scratch1                                          23520/23520     activations/**default**   int8_t          sa8                      
123    conv2d_21_weights                                           2304/2304       weights/weights           const int8_t    ss8/ch(24)               
124    conv2d_21_bias                                              24/96           weights/weights           const int32_t   ss32/ch(24)              
125    conv2d_69_scratch0                                          3120/3120       activations/**default**   int8_t          s8                       
126    conv2d_22_weights                                           2304/2304       weights/weights           const int8_t    ss8/ch(96)               
127    conv2d_69_scratch1                                          120/120         activations/**default**   int8_t          sa8                      
128    conv2d_22_bias                                              96/384          weights/weights           const int32_t   ss32/ch(96)              
129    conv2d_26_weights                                           3072/3072       weights/weights           const int8_t    ss8/ch(32)               
130    conv2d_70_scratch0                                          5280/5280       activations/**default**   int8_t          s8                       
131    conv2d_26_bias                                              32/128          weights/weights           const int32_t   ss32/ch(32)              
132    conv2d_27_weights                                           6144/6144       weights/weights           const int8_t    ss8/ch(192)              
133    conv2d_74_scratch0                                          2720/2720       activations/**default**   int8_t          s8                       
134    conv2d_27_bias                                              192/768         weights/weights           const int32_t   ss32/ch(192)             
135    conv2d_28_weights                                           4800/4800       weights/weights           const int8_t    ss8/ch(192)              
136    conv2d_76_scratch0                                          5120/5120       activations/**default**   int8_t          s8                       
137    conv2d_28_bias                                              192/768         weights/weights           const int32_t   ss32/ch(192)             
138    conv2d_76_scratch1                                          23520/23520     activations/**default**   int8_t          sa8                      
139    conv2d_30_weights                                           9216/9216       weights/weights           const int8_t    ss8/ch(48)               
140    conv2d_30_bias                                              48/192          weights/weights           const int32_t   ss32/ch(48)              
141    conv2d_78_scratch0                                          11520/11520     activations/**default**   int8_t          s8                       
142    conv2d_31_weights                                           9216/9216       weights/weights           const int8_t    ss8/ch(192)              
143    conv2d_31_bias                                              192/768         weights/weights           const int32_t   ss32/ch(192)             
144    conv2d_78_scratch1                                          960/960         activations/**default**   int8_t          sa8                      
145    conv2d_35_weights                                           6144/6144       weights/weights           const int8_t    ss8/ch(32)               
146    conv2d_35_bias                                              32/128          weights/weights           const int32_t   ss32/ch(32)              
147    conv2d_79_scratch0                                          3890/3890       activations/**default**   int8_t          s8                       
148    conv2d_37_weights                                           4096/4096       weights/weights           const int8_t    ss8/ch(128)              
149    conv2d_37_bias                                              128/512         weights/weights           const int32_t   ss32/ch(128)             
150    nl_81_scratch0                                              5/20            activations/**default**   int32_t         s32                      
151    conv2d_38_weights                                           3200/3200       weights/weights           const int8_t    ss8/ch(128)              
152    conv2d_38_bias                                              128/512         weights/weights           const int32_t   ss32/ch(128)             
153    conv2d_40_weights                                           4096/4096       weights/weights           const int8_t    ss8/ch(32)               
154    conv2d_40_bias                                              32/128          weights/weights           const int32_t   ss32/ch(32)              
155    conv2d_41_weights                                           4096/4096       weights/weights           const int8_t    ss8/ch(128)              
156    conv2d_41_bias                                              128/512         weights/weights           const int32_t   ss32/ch(128)             
157    conv2d_45_weights                                           4096/4096       weights/weights           const int8_t    ss8/ch(32)               
158    conv2d_45_bias                                              32/128          weights/weights           const int32_t   ss32/ch(32)              
159    conv2d_47_weights                                           7680/7680       weights/weights           const int8_t    ss8/ch(240)              
160    conv2d_47_bias                                              240/960         weights/weights           const int32_t   ss32/ch(240)             
161    conv2d_48_weights                                           6000/6000       weights/weights           const int8_t    ss8/ch(240)              
162    conv2d_48_bias                                              240/960         weights/weights           const int32_t   ss32/ch(240)             
163    conv2d_50_weights                                           14400/14400     weights/weights           const int8_t    ss8/ch(60)               
164    conv2d_50_bias                                              60/240          weights/weights           const int32_t   ss32/ch(60)              
165    conv2d_51_weights                                           14400/14400     weights/weights           const int8_t    ss8/ch(240)              
166    conv2d_51_bias                                              240/960         weights/weights           const int32_t   ss32/ch(240)             
167    conv2d_55_weights                                           19200/19200     weights/weights           const int8_t    ss8/ch(80)               
168    conv2d_55_bias                                              80/320          weights/weights           const int32_t   ss32/ch(80)              
169    conv2d_56_weights                                           25600/25600     weights/weights           const int8_t    ss8/ch(320)              
170    conv2d_56_bias                                              320/1280        weights/weights           const int32_t   ss32/ch(320)             
171    conv2d_57_weights                                           8000/8000       weights/weights           const int8_t    ss8/ch(320)              
172    conv2d_57_bias                                              320/1280        weights/weights           const int32_t   ss32/ch(320)             
173    conv2d_59_weights                                           25600/25600     weights/weights           const int8_t    ss8/ch(80)               
174    conv2d_59_bias                                              80/320          weights/weights           const int32_t   ss32/ch(80)              
175    conv2d_60_weights                                           25600/25600     weights/weights           const int8_t    ss8/ch(320)              
176    conv2d_60_bias                                              320/1280        weights/weights           const int32_t   ss32/ch(320)             
177    conv2d_64_weights                                           25600/25600     weights/weights           const int8_t    ss8/ch(80)               
178    conv2d_64_bias                                              80/320          weights/weights           const int32_t   ss32/ch(80)              
179    conv2d_66_weights                                           38400/38400     weights/weights           const int8_t    ss8/ch(480)              
180    conv2d_66_bias                                              480/1920        weights/weights           const int32_t   ss32/ch(480)             
181    conv2d_67_weights                                           12000/12000     weights/weights           const int8_t    ss8/ch(480)              
182    conv2d_67_bias                                              480/1920        weights/weights           const int32_t   ss32/ch(480)             
183    conv2d_69_weights                                           57600/57600     weights/weights           const int8_t    ss8/ch(120)              
184    conv2d_69_bias                                              120/480         weights/weights           const int32_t   ss32/ch(120)             
185    conv2d_70_weights                                           57600/57600     weights/weights           const int8_t    ss8/ch(480)              
186    conv2d_70_bias                                              480/1920        weights/weights           const int32_t   ss32/ch(480)             
187    conv2d_74_weights                                           38400/38400     weights/weights           const int8_t    ss8/ch(80)               
188    conv2d_74_bias                                              80/320          weights/weights           const int32_t   ss32/ch(80)              
189    conv2d_76_weights                                           38400/38400     weights/weights           const int8_t    ss8/ch(480)              
190    conv2d_76_bias                                              480/1920        weights/weights           const int32_t   ss32/ch(480)             
191    conv2d_78_weights                                           460800/460800   weights/weights           const int8_t    ss8/ch(960)              
192    conv2d_78_bias                                              960/3840        weights/weights           const int32_t   ss32/ch(960)             
193    conv2d_79_weights                                           4800/4800       weights/weights           const int8_t    ss8/ch(5)                
194    conv2d_79_bias                                              5/20            weights/weights           const int32_t   ss32/ch(5)               
195    conv2d_1_scratch0                                           1196/1196       activations/**default**   int8_t          s8                       
196    conv2d_1_scratch1                                           200704/200704   activations/**default**   int8_t          sa8                      
197    conv2d_2_scratch0                                           6144/6144       activations/**default**   int8_t          s8                       
198    conv2d_2_scratch1                                           100352/100352   activations/**default**   int8_t          sa8                      
199    conv2d_4_scratch0                                           208/208         activations/**default**   int8_t          s8                       
200    conv2d_4_scratch1                                           8/8             activations/**default**   int8_t          sa8                      
201    conv2d_5_scratch0                                           352/352         activations/**default**   int8_t          s8                       
202    conv2d_9_scratch0                                           448/448         activations/**default**   int8_t          s8                       
203    conv2d_10_scratch0                                          288/288         activations/**default**   int8_t          s8                       
204    conv2d_11_scratch0                                          6592/6592       activations/**default**   int8_t          s8                       
205    conv2d_11_scratch1                                          50176/50176     activations/**default**   int8_t          sa8                      
206    serving_default_input_10_output                             150528/150528   activations/**default**   uint8_t         ua8            /input    
207    conversion_0_output                                         150528/150529   activations/**default**   int8_t          sa8                      
208    conv2d_1_output                                             200704/200704   activations/**default**   int8_t          sa8                      
209    conv2d_12_scratch0                                          576/576         activations/**default**   int8_t          s8                       
210    conv2d_2_pad_before_output                                  207936/207936   activations/**default**   int8_t          sa8                      
211    conv2d_2_output                                             100352/100352   activations/**default**   int8_t          sa8                      
212    conv2d_12_scratch1                                          25088/25088     activations/**default**   int8_t          sa8                      
213    pool_3_output                                               32/32           activations/**default**   int8_t          sa8                      
214    conv2d_4_output                                             8/8             activations/**default**   int8_t          sa8                      
215    conv2d_5_output                                             32/32           activations/**default**   int8_t          sa8                      
216    conv2d_13_scratch0                                          288/288         activations/**default**   int8_t          s8                       
217    eltwise_6_output                                            32/32           activations/**default**   int8_t          sa8                      
218    nl_7_output                                                 32/32           activations/**default**   int8_t          sa8                      
219    eltwise_8_output                                            100352/100352   activations/**default**   int8_t          sa8                      
220    conv2d_14_scratch0                                          6816/6816       activations/**default**   int8_t          s8                       
221    conv2d_9_output                                             100352/100352   activations/**default**   int8_t          sa8                      
222    conv2d_10_output                                            50176/50176     activations/**default**   int8_t          sa8                      
223    conv2d_14_scratch1                                          62720/62720     activations/**default**   int8_t          sa8                      
224    conv2d_11_pad_before_output                                 53824/53824     activations/**default**   int8_t          sa8                      
225    conv2d_11_output                                            50176/50176     activations/**default**   int8_t          sa8                      
226    conv2d_12_output                                            25088/25088     activations/**default**   int8_t          sa8                      
227    conv2d_15_scratch0                                          640/640         activations/**default**   int8_t          s8                       
228    conv2d_13_output                                            12544/12544     activations/**default**   int8_t          ss8                      
229    conv2d_14_pad_before_output                                 14400/14400     activations/**default**   int8_t          ss8                      
230    conv2d_15_scratch1                                          25088/25088     activations/**default**   int8_t          sa8                      
231    conv2d_14_output                                            62720/62720     activations/**default**   int8_t          sa8                      
232    conv2d_15_output                                            25088/25088     activations/**default**   int8_t          sa8                      
233    conv2d_16_output                                            12544/12544     activations/**default**   int8_t          sa8                      
234    conv2d_16_scratch0                                          288/288         activations/**default**   int8_t          s8                       
235    eltwise_17_output                                           12544/12544     activations/**default**   int8_t          sa8                      
236    conv2d_18_output                                            75264/75264     activations/**default**   int8_t          sa8                      
237    conv2d_19_output                                            18816/18816     activations/**default**   int8_t          sa8                      
238    conv2d_18_scratch0                                          1024/1024       activations/**default**   int8_t          s8                       
239    pool_20_output                                              96/96           activations/**default**   int8_t          sa8                      
240    conv2d_21_output                                            24/24           activations/**default**   int8_t          sa8                      
241    conv2d_18_scratch1                                          75264/75264     activations/**default**   int8_t          sa8                      
242    conv2d_22_output                                            96/96           activations/**default**   int8_t          sa8                      
243    eltwise_23_output                                           96/96           activations/**default**   int8_t          sa8                      
244    nl_24_output                                                96/96           activations/**default**   int8_t          sa8                      
245    conv2d_19_scratch0                                          8161/8161       activations/**default**   int8_t          s8                       
246    eltwise_25_output                                           18816/18816     activations/**default**   int8_t          sa8                      
247    conv2d_26_output                                            6272/6272       activations/**default**   int8_t          sa8                      
248    conv2d_19_scratch1                                          18816/18816     activations/**default**   int8_t          sa8                      
249    conv2d_27_output                                            37632/37632     activations/**default**   int8_t          sa8                      
250    conv2d_28_output                                            37632/37632     activations/**default**   int8_t          sa8                      
251    pool_29_output                                              192/192         activations/**default**   int8_t          sa8                      
252    conv2d_21_scratch0                                          624/624         activations/**default**   int8_t          s8                       
253    conv2d_30_output                                            48/48           activations/**default**   int8_t          sa8                      
254    conv2d_31_output                                            192/192         activations/**default**   int8_t          sa8                      
------ ----------------------------------------------------------- --------------- ------------------------- --------------- -------------- --------- 

C-Layers (85)
------ ---------------------- ---- ---------------------- ---------- -------- -------------------------------------------------------------- ---------------------- 
c_id   name (*_layer)         id   layer_type             macc       rom      tensors                                                        shape (array id)       
------ ---------------------- ---- ---------------------- ---------- -------- -------------------------------------------------------------- ---------------------- 
0      conversion_0           0    converter              301056     0        I: serving_default_input_10_output                             (1,224,224,3) (206)    
                                                                              O: conversion_0_output                                         (1,224,224,3) (207)    
------ ---------------------- ---- ---------------------- ---------- -------- -------------------------------------------------------------- ---------------------- 
1      conv2d_1               1    optimized_conv2d       5419024    496      I: conversion_0_output                                         (1,224,224,3) (207)    
                                                                              S: conv2d_1_scratch0                                                                  
                                                                              S: conv2d_1_scratch1                                                                  
                                                                              W: conv2d_1_weights                                            (3,3,3,16) (79)        
                                                                              W: conv2d_1_bias                                               (16,) (80)             
                                                                              O: conv2d_1_output                                             (1,112,112,16) (208)   
------ ---------------------- ---- ---------------------- ---------- -------- -------------------------------------------------------------- ---------------------- 
2      conv2d_2_pad_before    2    pad                    0          0        I: conv2d_1_output                                             (1,112,112,16) (208)   
                                                                              O: conv2d_2_pad_before_output                                  (1,114,114,16) (210)   
------ ---------------------- ---- ---------------------- ---------- -------- -------------------------------------------------------------- ---------------------- 
3      conv2d_2               2    conv2d                 14450720   4736     I: conv2d_2_pad_before_output                                  (1,114,114,16) (210)   
                                                                              S: conv2d_2_scratch0                                                                  
                                                                              S: conv2d_2_scratch1                                                                  
                                                                              W: conv2d_2_weights                                            (16,3,3,32) (82)       
                                                                              W: conv2d_2_bias                                               (32,) (84)             
                                                                              O: conv2d_2_output                                             (1,56,56,32) (211)     
------ ---------------------- ---- ---------------------- ---------- -------- -------------------------------------------------------------- ---------------------- 
4      pool_3                 3    pool                   100352     0        I: conv2d_2_output                                             (1,56,56,32) (211)     
                                                                              O: pool_3_output                                               (1,1,1,32) (213)       
------ ---------------------- ---- ---------------------- ---------- -------- -------------------------------------------------------------- ---------------------- 
5      conv2d_4               4    conv2d                 264        288      I: pool_3_output                                               (1,1,1,32) (213)       
                                                                              S: conv2d_4_scratch0                                                                  
                                                                              S: conv2d_4_scratch1                                                                  
                                                                              W: conv2d_4_weights                                            (32,1,1,8) (85)        
                                                                              W: conv2d_4_bias                                               (8,) (87)              
                                                                              O: conv2d_4_output                                             (1,1,1,8) (214)        
------ ---------------------- ---- ---------------------- ---------- -------- -------------------------------------------------------------- ---------------------- 
6      conv2d_5               5    conv2d                 288        384      I: conv2d_4_output                                             (1,1,1,8) (214)        
                                                                              S: conv2d_5_scratch0                                                                  
                                                                              W: conv2d_5_weights                                            (8,1,1,32) (88)        
                                                                              W: conv2d_5_bias                                               (32,) (90)             
                                                                              O: conv2d_5_output                                             (1,1,1,32) (215)       
------ ---------------------- ---- ---------------------- ---------- -------- -------------------------------------------------------------- ---------------------- 
7      eltwise_6              6    eltwise_integer/min    32         4        I: conv2d_5_output                                             (1,1,1,32) (215)       
                                                                              I: EmbeddedNetV1_width1_0_conv2d_14_clip_by_value_Minimum_y    (1,1,1) (78)           
                                                                              O: eltwise_6_output                                            (1,1,1,32) (217)       
------ ---------------------- ---- ---------------------- ---------- -------- -------------------------------------------------------------- ---------------------- 
8      nl_7                   7    nl                     32         0        I: eltwise_6_output                                            (1,1,1,32) (217)       
                                                                              O: nl_7_output                                                 (1,1,1,32) (218)       
------ ---------------------- ---- ---------------------- ---------- -------- -------------------------------------------------------------- ---------------------- 
9      eltwise_8              8    eltwise_integer/mul    100352     0        I: conv2d_2_output                                             (1,56,56,32) (211)     
                                                                              I: nl_7_output                                                 (1,1,1,32) (218)       
                                                                              O: eltwise_8_output                                            (1,56,56,32) (219)     
------ ---------------------- ---- ---------------------- ---------- -------- -------------------------------------------------------------- ---------------------- 
10     conv2d_9               9    conv2d                 3211296    1152     I: eltwise_8_output                                            (1,56,56,32) (219)     
                                                                              S: conv2d_9_scratch0                                                                  
                                                                              W: conv2d_9_weights                                            (32,1,1,32) (91)       
                                                                              W: conv2d_9_bias                                               (32,) (93)             
                                                                              O: conv2d_9_output                                             (1,56,56,32) (221)     
------ ---------------------- ---- ---------------------- ---------- -------- -------------------------------------------------------------- ---------------------- 
11     conv2d_10              10   conv2d                 1605648    576      I: conv2d_9_output                                             (1,56,56,32) (221)     
                                                                              S: conv2d_10_scratch0                                                                 
                                                                              W: conv2d_10_weights                                           (32,1,1,16) (95)       
                                                                              W: conv2d_10_bias                                              (16,) (96)             
                                                                              O: conv2d_10_output                                            (1,56,56,16) (222)     
------ ---------------------- ---- ---------------------- ---------- -------- -------------------------------------------------------------- ---------------------- 
12     conv2d_11_pad_before   11   pad                    0          0        I: conv2d_10_output                                            (1,56,56,16) (222)     
                                                                              O: conv2d_11_pad_before_output                                 (1,58,58,16) (224)     
------ ---------------------- ---- ---------------------- ---------- -------- -------------------------------------------------------------- ---------------------- 
13     conv2d_11              11   conv2d                 7225408    9472     I: conv2d_11_pad_before_output                                 (1,58,58,16) (224)     
                                                                              S: conv2d_11_scratch0                                                                 
                                                                              S: conv2d_11_scratch1                                                                 
                                                                              W: conv2d_11_weights                                           (16,3,3,64) (98)       
                                                                              W: conv2d_11_bias                                              (64,) (99)             
                                                                              O: conv2d_11_output                                            (1,28,28,64) (225)     
------ ---------------------- ---- ---------------------- ---------- -------- -------------------------------------------------------------- ---------------------- 
14     conv2d_12              12   conv2d                 1605664    2176     I: conv2d_11_output                                            (1,28,28,64) (225)     
                                                                              S: conv2d_12_scratch0                                                                 
                                                                              S: conv2d_12_scratch1                                                                 
                                                                              W: conv2d_12_weights                                           (64,1,1,32) (101)      
                                                                              W: conv2d_12_bias                                              (32,) (102)            
                                                                              O: conv2d_12_output                                            (1,28,28,32) (226)     
------ ---------------------- ---- ---------------------- ---------- -------- -------------------------------------------------------------- ---------------------- 
15     conv2d_13              13   conv2d                 401424     576      I: conv2d_12_output                                            (1,28,28,32) (226)     
                                                                              S: conv2d_13_scratch0                                                                 
                                                                              W: conv2d_13_weights                                           (32,1,1,16) (104)      
                                                                              W: conv2d_13_bias                                              (16,) (106)            
                                                                              O: conv2d_13_output                                            (1,28,28,16) (228)     
------ ---------------------- ---- ---------------------- ---------- -------- -------------------------------------------------------------- ---------------------- 
16     conv2d_14_pad_before   14   pad                    0          0        I: conv2d_13_output                                            (1,28,28,16) (228)     
                                                                              O: conv2d_14_pad_before_output                                 (1,30,30,16) (229)     
------ ---------------------- ---- ---------------------- ---------- -------- -------------------------------------------------------------- ---------------------- 
17     conv2d_14              14   conv2d                 9031760    11840    I: conv2d_14_pad_before_output                                 (1,30,30,16) (229)     
                                                                              S: conv2d_14_scratch0                                                                 
                                                                              S: conv2d_14_scratch1                                                                 
                                                                              W: conv2d_14_weights                                           (16,3,3,80) (107)      
                                                                              W: conv2d_14_bias                                              (80,) (109)            
                                                                              O: conv2d_14_output                                            (1,28,28,80) (231)     
------ ---------------------- ---- ---------------------- ---------- -------- -------------------------------------------------------------- ---------------------- 
18     conv2d_15              15   conv2d                 2007072    2688     I: conv2d_14_output                                            (1,28,28,80) (231)     
                                                                              S: conv2d_15_scratch0                                                                 
                                                                              S: conv2d_15_scratch1                                                                 
                                                                              W: conv2d_15_weights                                           (80,1,1,32) (110)      
                                                                              W: conv2d_15_bias                                              (32,) (112)            
                                                                              O: conv2d_15_output                                            (1,28,28,32) (232)     
------ ---------------------- ---- ---------------------- ---------- -------- -------------------------------------------------------------- ---------------------- 
19     conv2d_16              16   conv2d                 401424     576      I: conv2d_15_output                                            (1,28,28,32) (232)     
                                                                              S: conv2d_16_scratch0                                                                 
                                                                              W: conv2d_16_weights                                           (32,1,1,16) (113)      
                                                                              W: conv2d_16_bias                                              (16,) (115)            
                                                                              O: conv2d_16_output                                            (1,28,28,16) (233)     
------ ---------------------- ---- ---------------------- ---------- -------- -------------------------------------------------------------- ---------------------- 
20     eltwise_17             17   eltwise_integer/sum    12544      0        I: conv2d_13_output                                            (1,28,28,16) (228)     
                                                                              I: conv2d_16_output                                            (1,28,28,16) (233)     
                                                                              O: eltwise_17_output                                           (1,28,28,16) (235)     
------ ---------------------- ---- ---------------------- ---------- -------- -------------------------------------------------------------- ---------------------- 
21     conv2d_18              18   conv2d                 1204320    1920     I: eltwise_17_output                                           (1,28,28,16) (235)     
                                                                              S: conv2d_18_scratch0                                                                 
                                                                              S: conv2d_18_scratch1                                                                 
                                                                              W: conv2d_18_weights                                           (16,1,1,96) (117)      
                                                                              W: conv2d_18_bias                                              (96,) (118)            
                                                                              O: conv2d_18_output                                            (1,28,28,96) (236)     
------ ---------------------- ---- ---------------------- ---------- -------- -------------------------------------------------------------- ---------------------- 
22     conv2d_19              19   conv2d                 470496     2784     I: conv2d_18_output                                            (1,28,28,96) (236)     
                                                                              S: conv2d_19_scratch0                                                                 
                                                                              S: conv2d_19_scratch1                                                                 
                                                                              W: conv2d_19_weights                                           (96,5,5,1) (120)       
                                                                              W: conv2d_19_bias                                              (96,) (121)            
                                                                              O: conv2d_19_output                                            (1,14,14,96) (237)     
------ ---------------------- ---- ---------------------- ---------- -------- -------------------------------------------------------------- ---------------------- 
23     pool_20                20   pool                   18816      0        I: conv2d_19_output                                            (1,14,14,96) (237)     
                                                                              O: pool_20_output                                              (1,1,1,96) (239)       
------ ---------------------- ---- ---------------------- ---------- -------- -------------------------------------------------------------- ---------------------- 
24     conv2d_21              21   conv2d                 2328       2400     I: pool_20_output                                              (1,1,1,96) (239)       
                                                                              S: conv2d_21_scratch0                                                                 
                                                                              W: conv2d_21_weights                                           (96,1,1,24) (123)      
                                                                              W: conv2d_21_bias                                              (24,) (124)            
                                                                              O: conv2d_21_output                                            (1,1,1,24) (240)       
------ ---------------------- ---- ---------------------- ---------- -------- -------------------------------------------------------------- ---------------------- 
25     conv2d_22              22   conv2d                 2400       2688     I: conv2d_21_output                                            (1,1,1,24) (240)       
                                                                              S: conv2d_22_scratch0                                                                 
                                                                              W: conv2d_22_weights                                           (24,1,1,96) (126)      
                                                                              W: conv2d_22_bias                                              (96,) (128)            
                                                                              O: conv2d_22_output                                            (1,1,1,96) (242)       
------ ---------------------- ---- ---------------------- ---------- -------- -------------------------------------------------------------- ---------------------- 
26     eltwise_23             23   eltwise_integer/min    96         4        I: conv2d_22_output                                            (1,1,1,96) (242)       
                                                                              I: EmbeddedNetV1_width1_0_conv2d_14_clip_by_value_Minimum_y1   (1,1,1) (76)           
                                                                              O: eltwise_23_output                                           (1,1,1,96) (243)       
------ ---------------------- ---- ---------------------- ---------- -------- -------------------------------------------------------------- ---------------------- 
27     nl_24                  24   nl                     96         0        I: eltwise_23_output                                           (1,1,1,96) (243)       
                                                                              O: nl_24_output                                                (1,1,1,96) (244)       
------ ---------------------- ---- ---------------------- ---------- -------- -------------------------------------------------------------- ---------------------- 
28     eltwise_25             25   eltwise_integer/mul    18816      0        I: conv2d_19_output                                            (1,14,14,96) (237)     
                                                                              I: nl_24_output                                                (1,1,1,96) (244)       
                                                                              O: eltwise_25_output                                           (1,14,14,96) (246)     
------ ---------------------- ---- ---------------------- ---------- -------- -------------------------------------------------------------- ---------------------- 
29     conv2d_26              26   conv2d                 602144     3200     I: eltwise_25_output                                           (1,14,14,96) (246)     
                                                                              S: conv2d_26_scratch0                                                                 
                                                                              W: conv2d_26_weights                                           (96,1,1,32) (129)      
                                                                              W: conv2d_26_bias                                              (32,) (131)            
                                                                              O: conv2d_26_output                                            (1,14,14,32) (247)     
------ ---------------------- ---- ---------------------- ---------- -------- -------------------------------------------------------------- ---------------------- 
30     conv2d_27              27   conv2d                 1204416    6912     I: conv2d_26_output                                            (1,14,14,32) (247)     
                                                                              S: conv2d_27_scratch0                                                                 
                                                                              S: conv2d_27_scratch1                                                                 
                                                                              W: conv2d_27_weights                                           (32,1,1,192) (132)     
                                                                              W: conv2d_27_bias                                              (192,) (134)           
                                                                              O: conv2d_27_output                                            (1,14,14,192) (249)    
------ ---------------------- ---- ---------------------- ---------- -------- -------------------------------------------------------------- ---------------------- 
31     conv2d_28              28   conv2d                 940992     5568     I: conv2d_27_output                                            (1,14,14,192) (249)    
                                                                              S: conv2d_28_scratch0                                                                 
                                                                              S: conv2d_28_scratch1                                                                 
                                                                              W: conv2d_28_weights                                           (192,5,5,1) (135)      
                                                                              W: conv2d_28_bias                                              (192,) (137)           
                                                                              O: conv2d_28_output                                            (1,14,14,192) (250)    
------ ---------------------- ---- ---------------------- ---------- -------- -------------------------------------------------------------- ---------------------- 
32     pool_29                29   pool                   37632      0        I: conv2d_28_output                                            (1,14,14,192) (250)    
                                                                              O: pool_29_output                                              (1,1,1,192) (251)      
------ ---------------------- ---- ---------------------- ---------- -------- -------------------------------------------------------------- ---------------------- 
33     conv2d_30              30   conv2d                 9264       9408     I: pool_29_output                                              (1,1,1,192) (251)      
                                                                              S: conv2d_30_scratch0                                                                 
                                                                              S: conv2d_30_scratch1                                                                 
                                                                              W: conv2d_30_weights                                           (192,1,1,48) (139)     
                                                                              W: conv2d_30_bias                                              (48,) (140)            
                                                                              O: conv2d_30_output                                            (1,1,1,48) (253)       
------ ---------------------- ---- ---------------------- ---------- -------- -------------------------------------------------------------- ---------------------- 
34     conv2d_31              31   conv2d                 9408       9984     I: conv2d_30_output                                            (1,1,1,48) (253)       
                                                                              S: conv2d_31_scratch0                                                                 
                                                                              W: conv2d_31_weights                                           (48,1,1,192) (142)     
                                                                              W: conv2d_31_bias                                              (192,) (143)           
                                                                              O: conv2d_31_output                                            (1,1,1,192) (254)      
------ ---------------------- ---- ---------------------- ---------- -------- -------------------------------------------------------------- ---------------------- 
35     eltwise_32             32   eltwise_integer/min    192        4        I: conv2d_31_output                                            (1,1,1,192) (254)      
                                                                              I: EmbeddedNetV1_width1_0_conv2d_14_clip_by_value_Minimum_y2   (1,1,1) (75)           
                                                                              O: eltwise_32_output                                           (1,1,1,192) (0)        
------ ---------------------- ---- ---------------------- ---------- -------- -------------------------------------------------------------- ---------------------- 
36     nl_33                  33   nl                     192        0        I: eltwise_32_output                                           (1,1,1,192) (0)        
                                                                              O: nl_33_output                                                (1,1,1,192) (2)        
------ ---------------------- ---- ---------------------- ---------- -------- -------------------------------------------------------------- ---------------------- 
37     eltwise_34             34   eltwise_integer/mul    37632      0        I: conv2d_28_output                                            (1,14,14,192) (250)    
                                                                              I: nl_33_output                                                (1,1,1,192) (2)        
                                                                              O: eltwise_34_output                                           (1,14,14,192) (3)      
------ ---------------------- ---- ---------------------- ---------- -------- -------------------------------------------------------------- ---------------------- 
38     conv2d_35              35   conv2d                 1204256    6272     I: eltwise_34_output                                           (1,14,14,192) (3)      
                                                                              S: conv2d_35_scratch0                                                                 
                                                                              W: conv2d_35_weights                                           (192,1,1,32) (145)     
                                                                              W: conv2d_35_bias                                              (32,) (146)            
                                                                              O: conv2d_35_output                                            (1,14,14,32) (4)       
------ ---------------------- ---- ---------------------- ---------- -------- -------------------------------------------------------------- ---------------------- 
39     eltwise_36             36   eltwise_integer/sum    6272       0        I: conv2d_26_output                                            (1,14,14,32) (247)     
                                                                              I: conv2d_35_output                                            (1,14,14,32) (4)       
                                                                              O: eltwise_36_output                                           (1,14,14,32) (6)       
------ ---------------------- ---- ---------------------- ---------- -------- -------------------------------------------------------------- ---------------------- 
40     conv2d_37              37   conv2d                 802944     4608     I: eltwise_36_output                                           (1,14,14,32) (6)       
                                                                              S: conv2d_37_scratch0                                                                 
                                                                              S: conv2d_37_scratch1                                                                 
                                                                              W: conv2d_37_weights                                           (32,1,1,128) (148)     
                                                                              W: conv2d_37_bias                                              (128,) (149)           
                                                                              O: conv2d_37_output                                            (1,14,14,128) (7)      
------ ---------------------- ---- ---------------------- ---------- -------- -------------------------------------------------------------- ---------------------- 
41     conv2d_38              38   conv2d                 627328     3712     I: conv2d_37_output                                            (1,14,14,128) (7)      
                                                                              S: conv2d_38_scratch0                                                                 
                                                                              S: conv2d_38_scratch1                                                                 
                                                                              W: conv2d_38_weights                                           (128,5,5,1) (151)      
                                                                              W: conv2d_38_bias                                              (128,) (152)           
                                                                              O: conv2d_38_output                                            (1,14,14,128) (8)      
------ ---------------------- ---- ---------------------- ---------- -------- -------------------------------------------------------------- ---------------------- 
42     pool_39                39   pool                   25088      0        I: conv2d_38_output                                            (1,14,14,128) (8)      
                                                                              O: pool_39_output                                              (1,1,1,128) (10)       
------ ---------------------- ---- ---------------------- ---------- -------- -------------------------------------------------------------- ---------------------- 
43     conv2d_40              40   conv2d                 4128       4224     I: pool_39_output                                              (1,1,1,128) (10)       
                                                                              S: conv2d_40_scratch0                                                                 
                                                                              S: conv2d_40_scratch1                                                                 
                                                                              W: conv2d_40_weights                                           (128,1,1,32) (153)     
                                                                              W: conv2d_40_bias                                              (32,) (154)            
                                                                              O: conv2d_40_output                                            (1,1,1,32) (11)        
------ ---------------------- ---- ---------------------- ---------- -------- -------------------------------------------------------------- ---------------------- 
44     conv2d_41              41   conv2d                 4224       4608     I: conv2d_40_output                                            (1,1,1,32) (11)        
                                                                              S: conv2d_41_scratch0                                                                 
                                                                              W: conv2d_41_weights                                           (32,1,1,128) (155)     
                                                                              W: conv2d_41_bias                                              (128,) (156)           
                                                                              O: conv2d_41_output                                            (1,1,1,128) (13)       
------ ---------------------- ---- ---------------------- ---------- -------- -------------------------------------------------------------- ---------------------- 
45     eltwise_42             42   eltwise_integer/min    128        4        I: conv2d_41_output                                            (1,1,1,128) (13)       
                                                                              I: EmbeddedNetV1_width1_0_conv2d_14_clip_by_value_Minimum_y3   (1,1,1) (73)           
                                                                              O: eltwise_42_output                                           (1,1,1,128) (14)       
------ ---------------------- ---- ---------------------- ---------- -------- -------------------------------------------------------------- ---------------------- 
46     nl_43                  43   nl                     128        0        I: eltwise_42_output                                           (1,1,1,128) (14)       
                                                                              O: nl_43_output                                                (1,1,1,128) (15)       
------ ---------------------- ---- ---------------------- ---------- -------- -------------------------------------------------------------- ---------------------- 
47     eltwise_44             44   eltwise_integer/mul    25088      0        I: conv2d_38_output                                            (1,14,14,128) (8)      
                                                                              I: nl_43_output                                                (1,1,1,128) (15)       
                                                                              O: eltwise_44_output                                           (1,14,14,128) (17)     
------ ---------------------- ---- ---------------------- ---------- -------- -------------------------------------------------------------- ---------------------- 
48     conv2d_45              45   conv2d                 802848     4224     I: eltwise_44_output                                           (1,14,14,128) (17)     
                                                                              S: conv2d_45_scratch0                                                                 
                                                                              W: conv2d_45_weights                                           (128,1,1,32) (157)     
                                                                              W: conv2d_45_bias                                              (32,) (158)            
                                                                              O: conv2d_45_output                                            (1,14,14,32) (18)      
------ ---------------------- ---- ---------------------- ---------- -------- -------------------------------------------------------------- ---------------------- 
49     eltwise_46             46   eltwise_integer/sum    6272       0        I: eltwise_36_output                                           (1,14,14,32) (6)       
                                                                              I: conv2d_45_output                                            (1,14,14,32) (18)      
                                                                              O: eltwise_46_output                                           (1,14,14,32) (20)      
------ ---------------------- ---- ---------------------- ---------- -------- -------------------------------------------------------------- ---------------------- 
50     conv2d_47              47   conv2d                 1505520    8640     I: eltwise_46_output                                           (1,14,14,32) (20)      
                                                                              S: conv2d_47_scratch0                                                                 
                                                                              S: conv2d_47_scratch1                                                                 
                                                                              W: conv2d_47_weights                                           (32,1,1,240) (159)     
                                                                              W: conv2d_47_bias                                              (240,) (160)           
                                                                              O: conv2d_47_output                                            (1,14,14,240) (21)     
------ ---------------------- ---- ---------------------- ---------- -------- -------------------------------------------------------------- ---------------------- 
51     conv2d_48              48   conv2d                 294240     6960     I: conv2d_47_output                                            (1,14,14,240) (21)     
                                                                              S: conv2d_48_scratch0                                                                 
                                                                              S: conv2d_48_scratch1                                                                 
                                                                              W: conv2d_48_weights                                           (240,5,5,1) (161)      
                                                                              W: conv2d_48_bias                                              (240,) (162)           
                                                                              O: conv2d_48_output                                            (1,7,7,240) (22)       
------ ---------------------- ---- ---------------------- ---------- -------- -------------------------------------------------------------- ---------------------- 
52     pool_49                49   pool                   11760      0        I: conv2d_48_output                                            (1,7,7,240) (22)       
                                                                              O: pool_49_output                                              (1,1,1,240) (24)       
------ ---------------------- ---- ---------------------- ---------- -------- -------------------------------------------------------------- ---------------------- 
53     conv2d_50              50   conv2d                 14460      14640    I: pool_49_output                                              (1,1,1,240) (24)       
                                                                              S: conv2d_50_scratch0                                                                 
                                                                              S: conv2d_50_scratch1                                                                 
                                                                              W: conv2d_50_weights                                           (240,1,1,60) (163)     
                                                                              W: conv2d_50_bias                                              (60,) (164)            
                                                                              O: conv2d_50_output                                            (1,1,1,60) (25)        
------ ---------------------- ---- ---------------------- ---------- -------- -------------------------------------------------------------- ---------------------- 
54     conv2d_51              51   conv2d                 14640      15360    I: conv2d_50_output                                            (1,1,1,60) (25)        
                                                                              S: conv2d_51_scratch0                                                                 
                                                                              W: conv2d_51_weights                                           (60,1,1,240) (165)     
                                                                              W: conv2d_51_bias                                              (240,) (166)           
                                                                              O: conv2d_51_output                                            (1,1,1,240) (27)       
------ ---------------------- ---- ---------------------- ---------- -------- -------------------------------------------------------------- ---------------------- 
55     eltwise_52             52   eltwise_integer/min    240        4        I: conv2d_51_output                                            (1,1,1,240) (27)       
                                                                              I: EmbeddedNetV1_width1_0_conv2d_14_clip_by_value_Minimum_y4   (1,1,1) (72)           
                                                                              O: eltwise_52_output                                           (1,1,1,240) (28)       
------ ---------------------- ---- ---------------------- ---------- -------- -------------------------------------------------------------- ---------------------- 
56     nl_53                  53   nl                     240        0        I: eltwise_52_output                                           (1,1,1,240) (28)       
                                                                              O: nl_53_output                                                (1,1,1,240) (29)       
------ ---------------------- ---- ---------------------- ---------- -------- -------------------------------------------------------------- ---------------------- 
57     eltwise_54             54   eltwise_integer/mul    11760      0        I: conv2d_48_output                                            (1,7,7,240) (22)       
                                                                              I: nl_53_output                                                (1,1,1,240) (29)       
                                                                              O: eltwise_54_output                                           (1,7,7,240) (31)       
------ ---------------------- ---- ---------------------- ---------- -------- -------------------------------------------------------------- ---------------------- 
58     conv2d_55              55   conv2d                 940880     19520    I: eltwise_54_output                                           (1,7,7,240) (31)       
                                                                              S: conv2d_55_scratch0                                                                 
                                                                              W: conv2d_55_weights                                           (240,1,1,80) (167)     
                                                                              W: conv2d_55_bias                                              (80,) (168)            
                                                                              O: conv2d_55_output                                            (1,7,7,80) (32)        
------ ---------------------- ---- ---------------------- ---------- -------- -------------------------------------------------------------- ---------------------- 
59     conv2d_56              56   conv2d                 1254720    26880    I: conv2d_55_output                                            (1,7,7,80) (32)        
                                                                              S: conv2d_56_scratch0                                                                 
                                                                              S: conv2d_56_scratch1                                                                 
                                                                              W: conv2d_56_weights                                           (80,1,1,320) (169)     
                                                                              W: conv2d_56_bias                                              (320,) (170)           
                                                                              O: conv2d_56_output                                            (1,7,7,320) (33)       
------ ---------------------- ---- ---------------------- ---------- -------- -------------------------------------------------------------- ---------------------- 
60     conv2d_57              57   conv2d                 392320     9280     I: conv2d_56_output                                            (1,7,7,320) (33)       
                                                                              S: conv2d_57_scratch0                                                                 
                                                                              S: conv2d_57_scratch1                                                                 
                                                                              W: conv2d_57_weights                                           (320,5,5,1) (171)      
                                                                              W: conv2d_57_bias                                              (320,) (172)           
                                                                              O: conv2d_57_output                                            (1,7,7,320) (35)       
------ ---------------------- ---- ---------------------- ---------- -------- -------------------------------------------------------------- ---------------------- 
61     pool_58                58   pool                   15680      0        I: conv2d_57_output                                            (1,7,7,320) (35)       
                                                                              O: pool_58_output                                              (1,1,1,320) (36)       
------ ---------------------- ---- ---------------------- ---------- -------- -------------------------------------------------------------- ---------------------- 
62     conv2d_59              59   conv2d                 25680      25920    I: pool_58_output                                              (1,1,1,320) (36)       
                                                                              S: conv2d_59_scratch0                                                                 
                                                                              S: conv2d_59_scratch1                                                                 
                                                                              W: conv2d_59_weights                                           (320,1,1,80) (173)     
                                                                              W: conv2d_59_bias                                              (80,) (174)            
                                                                              O: conv2d_59_output                                            (1,1,1,80) (37)        
------ ---------------------- ---- ---------------------- ---------- -------- -------------------------------------------------------------- ---------------------- 
63     conv2d_60              60   conv2d                 25920      26880    I: conv2d_59_output                                            (1,1,1,80) (37)        
                                                                              S: conv2d_60_scratch0                                                                 
                                                                              W: conv2d_60_weights                                           (80,1,1,320) (175)     
                                                                              W: conv2d_60_bias                                              (320,) (176)           
                                                                              O: conv2d_60_output                                            (1,1,1,320) (39)       
------ ---------------------- ---- ---------------------- ---------- -------- -------------------------------------------------------------- ---------------------- 
64     eltwise_61             61   eltwise_integer/min    320        4        I: conv2d_60_output                                            (1,1,1,320) (39)       
                                                                              I: EmbeddedNetV1_width1_0_conv2d_14_clip_by_value_Minimum_y5   (1,1,1) (71)           
                                                                              O: eltwise_61_output                                           (1,1,1,320) (40)       
------ ---------------------- ---- ---------------------- ---------- -------- -------------------------------------------------------------- ---------------------- 
65     nl_62                  62   nl                     320        0        I: eltwise_61_output                                           (1,1,1,320) (40)       
                                                                              O: nl_62_output                                                (1,1,1,320) (42)       
------ ---------------------- ---- ---------------------- ---------- -------- -------------------------------------------------------------- ---------------------- 
66     eltwise_63             63   eltwise_integer/mul    15680      0        I: conv2d_57_output                                            (1,7,7,320) (35)       
                                                                              I: nl_62_output                                                (1,1,1,320) (42)       
                                                                              O: eltwise_63_output                                           (1,7,7,320) (43)       
------ ---------------------- ---- ---------------------- ---------- -------- -------------------------------------------------------------- ---------------------- 
67     conv2d_64              64   conv2d                 1254480    25920    I: eltwise_63_output                                           (1,7,7,320) (43)       
                                                                              S: conv2d_64_scratch0                                                                 
                                                                              W: conv2d_64_weights                                           (320,1,1,80) (177)     
                                                                              W: conv2d_64_bias                                              (80,) (178)            
                                                                              O: conv2d_64_output                                            (1,7,7,80) (44)        
------ ---------------------- ---- ---------------------- ---------- -------- -------------------------------------------------------------- ---------------------- 
68     eltwise_65             65   eltwise_integer/sum    3920       0        I: conv2d_55_output                                            (1,7,7,80) (32)        
                                                                              I: conv2d_64_output                                            (1,7,7,80) (44)        
                                                                              O: eltwise_65_output                                           (1,7,7,80) (46)        
------ ---------------------- ---- ---------------------- ---------- -------- -------------------------------------------------------------- ---------------------- 
69     conv2d_66              66   conv2d                 1882080    40320    I: eltwise_65_output                                           (1,7,7,80) (46)        
                                                                              S: conv2d_66_scratch0                                                                 
                                                                              S: conv2d_66_scratch1                                                                 
                                                                              W: conv2d_66_weights                                           (80,1,1,480) (179)     
                                                                              W: conv2d_66_bias                                              (480,) (180)           
                                                                              O: conv2d_66_output                                            (1,7,7,480) (47)       
------ ---------------------- ---- ---------------------- ---------- -------- -------------------------------------------------------------- ---------------------- 
70     conv2d_67              67   conv2d                 588480     13920    I: conv2d_66_output                                            (1,7,7,480) (47)       
                                                                              S: conv2d_67_scratch0                                                                 
                                                                              S: conv2d_67_scratch1                                                                 
                                                                              W: conv2d_67_weights                                           (480,5,5,1) (181)      
                                                                              W: conv2d_67_bias                                              (480,) (182)           
                                                                              O: conv2d_67_output                                            (1,7,7,480) (49)       
------ ---------------------- ---- ---------------------- ---------- -------- -------------------------------------------------------------- ---------------------- 
71     pool_68                68   pool                   23520      0        I: conv2d_67_output                                            (1,7,7,480) (49)       
                                                                              O: pool_68_output                                              (1,1,1,480) (50)       
------ ---------------------- ---- ---------------------- ---------- -------- -------------------------------------------------------------- ---------------------- 
72     conv2d_69              69   conv2d                 57720      58080    I: pool_68_output                                              (1,1,1,480) (50)       
                                                                              S: conv2d_69_scratch0                                                                 
                                                                              S: conv2d_69_scratch1                                                                 
                                                                              W: conv2d_69_weights                                           (480,1,1,120) (183)    
                                                                              W: conv2d_69_bias                                              (120,) (184)           
                                                                              O: conv2d_69_output                                            (1,1,1,120) (51)       
------ ---------------------- ---- ---------------------- ---------- -------- -------------------------------------------------------------- ---------------------- 
73     conv2d_70              70   conv2d                 58080      59520    I: conv2d_69_output                                            (1,1,1,120) (51)       
                                                                              S: conv2d_70_scratch0                                                                 
                                                                              W: conv2d_70_weights                                           (120,1,1,480) (185)    
                                                                              W: conv2d_70_bias                                              (480,) (186)           
                                                                              O: conv2d_70_output                                            (1,1,1,480) (53)       
------ ---------------------- ---- ---------------------- ---------- -------- -------------------------------------------------------------- ---------------------- 
74     eltwise_71             71   eltwise_integer/min    480        4        I: conv2d_70_output                                            (1,1,1,480) (53)       
                                                                              I: EmbeddedNetV1_width1_0_conv2d_14_clip_by_value_Minimum_y6   (1,1,1) (69)           
                                                                              O: eltwise_71_output                                           (1,1,1,480) (54)       
------ ---------------------- ---- ---------------------- ---------- -------- -------------------------------------------------------------- ---------------------- 
75     nl_72                  72   nl                     480        0        I: eltwise_71_output                                           (1,1,1,480) (54)       
                                                                              O: nl_72_output                                                (1,1,1,480) (56)       
------ ---------------------- ---- ---------------------- ---------- -------- -------------------------------------------------------------- ---------------------- 
76     eltwise_73             73   eltwise_integer/mul    23520      0        I: conv2d_67_output                                            (1,7,7,480) (49)       
                                                                              I: nl_72_output                                                (1,1,1,480) (56)       
                                                                              O: eltwise_73_output                                           (1,7,7,480) (57)       
------ ---------------------- ---- ---------------------- ---------- -------- -------------------------------------------------------------- ---------------------- 
77     conv2d_74              74   conv2d                 1881680    38720    I: eltwise_73_output                                           (1,7,7,480) (57)       
                                                                              S: conv2d_74_scratch0                                                                 
                                                                              W: conv2d_74_weights                                           (480,1,1,80) (187)     
                                                                              W: conv2d_74_bias                                              (80,) (188)            
                                                                              O: conv2d_74_output                                            (1,7,7,80) (58)        
------ ---------------------- ---- ---------------------- ---------- -------- -------------------------------------------------------------- ---------------------- 
78     eltwise_75             75   eltwise_integer/sum    3920       0        I: eltwise_65_output                                           (1,7,7,80) (46)        
                                                                              I: conv2d_74_output                                            (1,7,7,80) (58)        
                                                                              O: eltwise_75_output                                           (1,7,7,80) (60)        
------ ---------------------- ---- ---------------------- ---------- -------- -------------------------------------------------------------- ---------------------- 
79     conv2d_76              76   conv2d                 1882080    40320    I: eltwise_75_output                                           (1,7,7,80) (60)        
                                                                              S: conv2d_76_scratch0                                                                 
                                                                              S: conv2d_76_scratch1                                                                 
                                                                              W: conv2d_76_weights                                           (80,1,1,480) (189)     
                                                                              W: conv2d_76_bias                                              (480,) (190)           
                                                                              O: conv2d_76_output                                            (1,7,7,480) (61)       
------ ---------------------- ---- ---------------------- ---------- -------- -------------------------------------------------------------- ---------------------- 
80     pool_77                77   pool                   23520      0        I: conv2d_76_output                                            (1,7,7,480) (61)       
                                                                              O: pool_77_output                                              (1,1,1,480) (62)       
------ ---------------------- ---- ---------------------- ---------- -------- -------------------------------------------------------------- ---------------------- 
81     conv2d_78              78   conv2d                 461760     464640   I: pool_77_output                                              (1,1,1,480) (62)       
                                                                              S: conv2d_78_scratch0                                                                 
                                                                              S: conv2d_78_scratch1                                                                 
                                                                              W: conv2d_78_weights                                           (480,1,1,960) (191)    
                                                                              W: conv2d_78_bias                                              (960,) (192)           
                                                                              O: conv2d_78_output                                            (1,1,1,960) (64)       
------ ---------------------- ---- ---------------------- ---------- -------- -------------------------------------------------------------- ---------------------- 
82     conv2d_79              79   conv2d                 4805       4820     I: conv2d_78_output                                            (1,1,1,960) (64)       
                                                                              S: conv2d_79_scratch0                                                                 
                                                                              W: conv2d_79_weights                                           (960,1,1,5) (193)      
                                                                              W: conv2d_79_bias                                              (5,) (194)             
                                                                              O: conv2d_79_output                                            (1,1,1,5) (65)         
------ ---------------------- ---- ---------------------- ---------- -------- -------------------------------------------------------------- ---------------------- 
83     nl_81                  81   nl                     75         0        I: conv2d_79_output                                            (1,1,1,5) (65)         
                                                                              S: nl_81_scratch0                                                                     
                                                                              O: nl_81_output                                                (1,5) (66)             
------ ---------------------- ---- ---------------------- ---------- -------- -------------------------------------------------------------- ---------------------- 
84     conversion_82          82   converter              10         0        I: nl_81_output                                                (1,5) (66)             
                                                                              O: conversion_82_output                                        (1,5) (68)             
------ ---------------------- ---- ---------------------- ---------- -------- -------------------------------------------------------------- ---------------------- 



Number of operations per c-layer
------- ------ ---------------------------------- ------------ ------------- --------- ---------- 
c_id    m_id   name (type)                                 #op          type    #param   sparsity 
------- ------ ---------------------------------- ------------ ------------- --------- ---------- 
0       0      conversion_0 (converter)                301,056    conv_u8_s8           
1       1      conv2d_1 (optimized_conv2d)           5,419,024    smul_s8_s8       448     0.0045 
2       2      conv2d_2_pad_before (pad)                     0    smul_s8_s8           
3       2      conv2d_2 (conv2d)                    14,450,720    smul_s8_s8     4,640     0.0067 
4       3      pool_3 (pool)                           100,352      op_s8_s8           
5       4      conv2d_4 (conv2d)                           264    smul_s8_s8       264     0.0341 
6       5      conv2d_5 (conv2d)                           288    smul_s8_s8       288     0.0069 
7       6      eltwise_6 (eltwise_integer/min)              32      op_s8_s8         1     0.0000 
8       7      nl_7 (nl)                                    32      op_s8_s8           
9       8      eltwise_8 (eltwise_integer/mul)         100,352      op_s8_s8           
10      9      conv2d_9 (conv2d)                     3,211,296    smul_s8_s8     1,056     0.0350 
11      10     conv2d_10 (conv2d)                    1,605,648    smul_s8_s8       528     0.0038 
12      11     conv2d_11_pad_before (pad)                    0    smul_s8_s8           
13      11     conv2d_11 (conv2d)                    7,225,408    smul_s8_s8     9,280     0.0099 
14      12     conv2d_12 (conv2d)                    1,605,664    smul_s8_s8     2,080     0.0188 
15      13     conv2d_13 (conv2d)                      401,424    smul_s8_s8       528     0.0019 
16      14     conv2d_14_pad_before (pad)                    0    smul_s8_s8           
17      14     conv2d_14 (conv2d)                    9,031,760    smul_s8_s8    11,600     0.0087 
18      15     conv2d_15 (conv2d)                    2,007,072    smul_s8_s8     2,592     0.0193 
19      16     conv2d_16 (conv2d)                      401,424    smul_s8_s8       528     0.0019 
20      17     eltwise_17 (eltwise_integer/sum)         12,544      op_s8_s8           
21      18     conv2d_18 (conv2d)                    1,204,320    smul_s8_s8     1,632     0.0061 
22      19     conv2d_19 (conv2d)                      470,496    smul_s8_s8     2,496     0.0040 
23      20     pool_20 (pool)                           18,816      op_s8_s8           
24      21     conv2d_21 (conv2d)                        2,328    smul_s8_s8     2,328     0.0150 
25      22     conv2d_22 (conv2d)                        2,400    smul_s8_s8     2,400     0.0042 
26      23     eltwise_23 (eltwise_integer/min)             96      op_s8_s8         1     0.0000 
27      24     nl_24 (nl)                                   96      op_s8_s8           
28      25     eltwise_25 (eltwise_integer/mul)         18,816      op_s8_s8           
29      26     conv2d_26 (conv2d)                      602,144    smul_s8_s8     3,104     0.0045 
30      27     conv2d_27 (conv2d)                    1,204,416    smul_s8_s8     6,336     0.0058 
31      28     conv2d_28 (conv2d)                      940,992    smul_s8_s8     4,992     0.0058 
32      29     pool_29 (pool)                           37,632      op_s8_s8           
33      30     conv2d_30 (conv2d)                        9,264    smul_s8_s8     9,264     0.0126 
34      31     conv2d_31 (conv2d)                        9,408    smul_s8_s8     9,408     0.0068 
35      32     eltwise_32 (eltwise_integer/min)            192      op_s8_s8         1     0.0000 
36      33     nl_33 (nl)                                  192      op_s8_s8           
37      34     eltwise_34 (eltwise_integer/mul)         37,632      op_s8_s8           
38      35     conv2d_35 (conv2d)                    1,204,256    smul_s8_s8     6,176     0.0086 
39      36     eltwise_36 (eltwise_integer/sum)          6,272      op_s8_s8           
40      37     conv2d_37 (conv2d)                      802,944    smul_s8_s8     4,224     0.0038 
41      38     conv2d_38 (conv2d)                      627,328    smul_s8_s8     3,328     0.0060 
42      39     pool_39 (pool)                           25,088      op_s8_s8           
43      40     conv2d_40 (conv2d)                        4,128    smul_s8_s8     4,128     0.0109 
44      41     conv2d_41 (conv2d)                        4,224    smul_s8_s8     4,224     0.0071 
45      42     eltwise_42 (eltwise_integer/min)            128      op_s8_s8         1     0.0000 
46      43     nl_43 (nl)                                  128      op_s8_s8           
47      44     eltwise_44 (eltwise_integer/mul)         25,088      op_s8_s8           
48      45     conv2d_45 (conv2d)                      802,848    smul_s8_s8     4,128     0.0029 
49      46     eltwise_46 (eltwise_integer/sum)          6,272      op_s8_s8           
50      47     conv2d_47 (conv2d)                    1,505,520    smul_s8_s8     7,920     0.0044 
51      48     conv2d_48 (conv2d)                      294,240    smul_s8_s8     6,240     0.0050 
52      49     pool_49 (pool)                           11,760      op_s8_s8           
53      50     conv2d_50 (conv2d)                       14,460    smul_s8_s8    14,460     0.0107 
54      51     conv2d_51 (conv2d)                       14,640    smul_s8_s8    14,640     0.0064 
55      52     eltwise_52 (eltwise_integer/min)            240      op_s8_s8         1     0.0000 
56      53     nl_53 (nl)                                  240      op_s8_s8           
57      54     eltwise_54 (eltwise_integer/mul)         11,760      op_s8_s8           
58      55     conv2d_55 (conv2d)                      940,880    smul_s8_s8    19,280     0.0066 
59      56     conv2d_56 (conv2d)                    1,254,720    smul_s8_s8    25,920     0.0053 
60      57     conv2d_57 (conv2d)                      392,320    smul_s8_s8     8,320     0.0061 
61      58     pool_58 (pool)                           15,680      op_s8_s8           
62      59     conv2d_59 (conv2d)                       25,680    smul_s8_s8    25,680     0.0088 
63      60     conv2d_60 (conv2d)                       25,920    smul_s8_s8    25,920     0.0066 
64      61     eltwise_61 (eltwise_integer/min)            320      op_s8_s8         1     0.0000 
65      62     nl_62 (nl)                                  320      op_s8_s8           
66      63     eltwise_63 (eltwise_integer/mul)         15,680      op_s8_s8           
67      64     conv2d_64 (conv2d)                    1,254,480    smul_s8_s8    25,680     0.0063 
68      65     eltwise_65 (eltwise_integer/sum)          3,920      op_s8_s8           
69      66     conv2d_66 (conv2d)                    1,882,080    smul_s8_s8    38,880     0.0059 
70      67     conv2d_67 (conv2d)                      588,480    smul_s8_s8    12,480     0.0073 
71      68     pool_68 (pool)                           23,520      op_s8_s8           
72      69     conv2d_69 (conv2d)                       57,720    smul_s8_s8    57,720     0.0081 
73      70     conv2d_70 (conv2d)                       58,080    smul_s8_s8    58,080     0.0062 
74      71     eltwise_71 (eltwise_integer/min)            480      op_s8_s8         1     0.0000 
75      72     nl_72 (nl)                                  480      op_s8_s8           
76      73     eltwise_73 (eltwise_integer/mul)         23,520      op_s8_s8           
77      74     conv2d_74 (conv2d)                    1,881,680    smul_s8_s8    38,480     0.0078 
78      75     eltwise_75 (eltwise_integer/sum)          3,920      op_s8_s8           
79      76     conv2d_76 (conv2d)                    1,882,080    smul_s8_s8    38,880     0.0062 
80      77     pool_77 (pool)                           23,520      op_s8_s8           
81      78     conv2d_78 (conv2d)                      461,760    smul_s8_s8   461,760     0.0087 
82      79     conv2d_79 (conv2d)                        4,805    smul_s8_s8     4,805     0.0135 
83      81     nl_81 (nl)                                   75      op_s8_s8           
84      82     conversion_82 (converter)                    10   conv_s8_f32           
------- ------ ---------------------------------- ------------ ------------- --------- ---------- 
total                                               66,617,294                 987,152     0.0079 

Number of operation types
---------------- ------------ ----------- 
operation type              #           % 
---------------- ------------ ----------- 
conv_u8_s8            301,056        0.5% 
smul_s8_s8         65,791,033       98.8% 
op_s8_s8              525,195        0.8% 
conv_s8_f32                10        0.0% 

Complexity report (model)
------ ----------------------------------------------------------- ------------------------- ------------------------- ---------- 
m_id   name                                                        c_macc                    c_rom                     c_id       
------ ----------------------------------------------------------- ------------------------- ------------------------- ---------- 
0      serving_default_input_10                                    |                  0.5%   |                  0.0%   [0]        
1      conv2d_1                                                    ||||||             8.1%   |                  0.0%   [1]        
2      conv2d_2                                                    ||||||||||||||||  21.7%   |                  0.5%   [2, 3]     
3      pool_3                                                      |                  0.2%   |                  0.0%   [4]        
4      conv2d_4                                                    |                  0.0%   |                  0.0%   [5]        
5      conv2d_5                                                    |                  0.0%   |                  0.0%   [6]        
6      EmbeddedNetV1_width1_0_conv2d_14_clip_by_value_Minimum_y    |                  0.0%   |                  0.0%   [7]        
7      nl_7                                                        |                  0.0%   |                  0.0%   [8]        
8      eltwise_8                                                   |                  0.2%   |                  0.0%   [9]        
9      conv2d_9                                                    ||||               4.8%   |                  0.1%   [10]       
10     conv2d_10                                                   ||                 2.4%   |                  0.1%   [11]       
11     conv2d_11                                                   ||||||||          10.8%   |                  0.9%   [12, 13]   
12     conv2d_12                                                   ||                 2.4%   |                  0.2%   [14]       
13     conv2d_13                                                   |                  0.6%   |                  0.1%   [15]       
14     conv2d_14                                                   ||||||||||        13.6%   |                  1.2%   [16, 17]   
15     conv2d_15                                                   |||                3.0%   |                  0.3%   [18]       
16     conv2d_16                                                   |                  0.6%   |                  0.1%   [19]       
17     eltwise_17                                                  |                  0.0%   |                  0.0%   [20]       
18     conv2d_18                                                   ||                 1.8%   |                  0.2%   [21]       
19     conv2d_19                                                   |                  0.7%   |                  0.3%   [22]       
20     pool_20                                                     |                  0.0%   |                  0.0%   [23]       
21     conv2d_21                                                   |                  0.0%   |                  0.2%   [24]       
22     conv2d_22                                                   |                  0.0%   |                  0.3%   [25]       
23     EmbeddedNetV1_width1_0_conv2d_14_clip_by_value_Minimum_y1   |                  0.0%   |                  0.0%   [26]       
24     nl_24                                                       |                  0.0%   |                  0.0%   [27]       
25     eltwise_25                                                  |                  0.0%   |                  0.0%   [28]       
26     conv2d_26                                                   |                  0.9%   |                  0.3%   [29]       
27     conv2d_27                                                   ||                 1.8%   |                  0.7%   [30]       
28     conv2d_28                                                   |                  1.4%   |                  0.6%   [31]       
29     pool_29                                                     |                  0.1%   |                  0.0%   [32]       
30     conv2d_30                                                   |                  0.0%   |                  0.9%   [33]       
31     conv2d_31                                                   |                  0.0%   |                  1.0%   [34]       
32     EmbeddedNetV1_width1_0_conv2d_14_clip_by_value_Minimum_y2   |                  0.0%   |                  0.0%   [35]       
33     nl_33                                                       |                  0.0%   |                  0.0%   [36]       
34     eltwise_34                                                  |                  0.1%   |                  0.0%   [37]       
35     conv2d_35                                                   ||                 1.8%   |                  0.6%   [38]       
36     eltwise_36                                                  |                  0.0%   |                  0.0%   [39]       
37     conv2d_37                                                   |                  1.2%   |                  0.5%   [40]       
38     conv2d_38                                                   |                  0.9%   |                  0.4%   [41]       
39     pool_39                                                     |                  0.0%   |                  0.0%   [42]       
40     conv2d_40                                                   |                  0.0%   |                  0.4%   [43]       
41     conv2d_41                                                   |                  0.0%   |                  0.5%   [44]       
42     EmbeddedNetV1_width1_0_conv2d_14_clip_by_value_Minimum_y3   |                  0.0%   |                  0.0%   [45]       
43     nl_43                                                       |                  0.0%   |                  0.0%   [46]       
44     eltwise_44                                                  |                  0.0%   |                  0.0%   [47]       
45     conv2d_45                                                   |                  1.2%   |                  0.4%   [48]       
46     eltwise_46                                                  |                  0.0%   |                  0.0%   [49]       
47     conv2d_47                                                   ||                 2.3%   |                  0.9%   [50]       
48     conv2d_48                                                   |                  0.4%   |                  0.7%   [51]       
49     pool_49                                                     |                  0.0%   |                  0.0%   [52]       
50     conv2d_50                                                   |                  0.0%   |                  1.5%   [53]       
51     conv2d_51                                                   |                  0.0%   |                  1.5%   [54]       
52     EmbeddedNetV1_width1_0_conv2d_14_clip_by_value_Minimum_y4   |                  0.0%   |                  0.0%   [55]       
53     nl_53                                                       |                  0.0%   |                  0.0%   [56]       
54     eltwise_54                                                  |                  0.0%   |                  0.0%   [57]       
55     conv2d_55                                                   |                  1.4%   |                  1.9%   [58]       
56     conv2d_56                                                   ||                 1.9%   |                  2.7%   [59]       
57     conv2d_57                                                   |                  0.6%   |                  0.9%   [60]       
58     pool_58                                                     |                  0.0%   |                  0.0%   [61]       
59     conv2d_59                                                   |                  0.0%   |                  2.6%   [62]       
60     conv2d_60                                                   |                  0.0%   |                  2.7%   [63]       
61     EmbeddedNetV1_width1_0_conv2d_14_clip_by_value_Minimum_y5   |                  0.0%   |                  0.0%   [64]       
62     nl_62                                                       |                  0.0%   |                  0.0%   [65]       
63     eltwise_63                                                  |                  0.0%   |                  0.0%   [66]       
64     conv2d_64                                                   ||                 1.9%   |                  2.6%   [67]       
65     eltwise_65                                                  |                  0.0%   |                  0.0%   [68]       
66     conv2d_66                                                   ||                 2.8%   ||                 4.0%   [69]       
67     conv2d_67                                                   |                  0.9%   |                  1.4%   [70]       
68     pool_68                                                     |                  0.0%   |                  0.0%   [71]       
69     conv2d_69                                                   |                  0.1%   ||                 5.8%   [72]       
70     conv2d_70                                                   |                  0.1%   ||                 5.9%   [73]       
71     EmbeddedNetV1_width1_0_conv2d_14_clip_by_value_Minimum_y6   |                  0.0%   |                  0.0%   [74]       
72     nl_72                                                       |                  0.0%   |                  0.0%   [75]       
73     eltwise_73                                                  |                  0.0%   |                  0.0%   [76]       
74     conv2d_74                                                   ||                 2.8%   ||                 3.8%   [77]       
75     eltwise_75                                                  |                  0.0%   |                  0.0%   [78]       
76     conv2d_76                                                   ||                 2.8%   ||                 4.0%   [79]       
77     pool_77                                                     |                  0.0%   |                  0.0%   [80]       
78     conv2d_78                                                   |                  0.7%   ||||||||||||||||  46.1%   [81]       
79     conv2d_79                                                   |                  0.0%   |                  0.5%   [82]       
81     nl_81                                                       |                  0.0%   |                  0.0%   [83]       
82     conversion_82                                               |                  0.0%   |                  0.0%   [84]       
------ ----------------------------------------------------------- ------------------------- ------------------------- ---------- 
macc=66,617,294 weights=1,007,840 act=215,872 ram_io=0

Generated files (7)
--------------------------------------------------------------------------------------------------------------------------------------- 
C:\Users\User\Documents\CODE_SPACE\stm32ai-modelzoo-2.0.0\experiments_outputs\2025_04_09_12_28_02\stm32ai_files\network_config.h        
C:\Users\User\Documents\CODE_SPACE\stm32ai-modelzoo-2.0.0\experiments_outputs\2025_04_09_12_28_02\stm32ai_files\network.h               
C:\Users\User\Documents\CODE_SPACE\stm32ai-modelzoo-2.0.0\experiments_outputs\2025_04_09_12_28_02\stm32ai_files\network.c               
C:\Users\User\Documents\CODE_SPACE\stm32ai-modelzoo-2.0.0\experiments_outputs\2025_04_09_12_28_02\stm32ai_files\network_data_params.h   
C:\Users\User\Documents\CODE_SPACE\stm32ai-modelzoo-2.0.0\experiments_outputs\2025_04_09_12_28_02\stm32ai_files\network_data_params.c   
C:\Users\User\Documents\CODE_SPACE\stm32ai-modelzoo-2.0.0\experiments_outputs\2025_04_09_12_28_02\stm32ai_files\network_data.h          
C:\Users\User\Documents\CODE_SPACE\stm32ai-modelzoo-2.0.0\experiments_outputs\2025_04_09_12_28_02\stm32ai_files\network_data.c          
