Neural Network Tools for STM32 family v1.7.0 (stm.ai v8.1.0-19520)
Created date          : 2025-01-13 14:34:10
Parameters            : generate -m E:\hjTan\Documents\CODE_SPACE\stm32ai-modelzoo-2.0.0\experiments_outputs\2025_01_13_14_20_25\quantized_models\quantized_model.tflite -v 0 --allocate-inputs --allocate-outputs --output E:\hjTan\Documents\CODE_SPACE\stm32ai-modelzoo-2.0.0\experiments_outputs\2025_01_13_14_20_25/stm32ai_files --workspace E:\hjTan\Documents\CODE_SPACE\stm32ai-modelzoo-2.0.0\experiments_outputs\2025_01_13_14_20_25/stm32ai_files --optimization balanced

Exec/report summary (generate)
--------------------------------------------------------------------------------------------------------------------------------------------------------------
model file         :   E:\hjTan\Documents\CODE_SPACE\stm32ai-modelzoo-2.0.0\experiments_outputs\2025_01_13_14_20_25\quantized_models\quantized_model.tflite   
type               :   tflite                                                                                                                                 
c_name             :   network                                                                                                                                
compression        :   lossless                                                                                                                               
options            :   allocate-inputs, allocate-outputs                                                                                                      
optimization       :   balanced                                                                                                                               
workspace dir      :   E:\hjTan\Documents\CODE_SPACE\stm32ai-modelzoo-2.0.0\experiments_outputs\2025_01_13_14_20_25\stm32ai_files                             
output dir         :   E:\hjTan\Documents\CODE_SPACE\stm32ai-modelzoo-2.0.0\experiments_outputs\2025_01_13_14_20_25\stm32ai_files                             
model_fmt          :   ss/sa per channel                                                                                                                      
model_name         :   quantized_model                                                                                                                        
model_hash         :   1bcfa6a094bf0909b4c91a6ed26d79fa                                                                                                       
params #           :   258,926 items (262.96 KiB)                                                                                                             
--------------------------------------------------------------------------------------------------------------------------------------------------------------
input 1/1          :   'serving_default_input_10' (domain:activations/**default**)                                                                            
                   :   150528 items, 147.00 KiB, ai_u8, s=0.00784314, zp=127, (1,224,224,3)                                                                   
output 1/1         :   'conversion_82' (domain:activations/**default**)                                                                                       
                   :   5 items, 20 B, ai_float, float, (1,5)                                                                                                  
macc               :   19,197,236                                                                                                                             
weights (ro)       :   269,288 B (262.98 KiB) (1 segment) / -766,416(-74.0%) vs float model                                                                   
activations (rw)   :   156,600 B (152.93 KiB) (1 segment) *                                                                                                   
ram (total)        :   156,600 B (152.93 KiB) = 156,600 + 0 + 0                                                                                               
--------------------------------------------------------------------------------------------------------------------------------------------------------------
(*) 'input'/'output' buffers can be used from the activations buffer

Model name - quantized_model ['serving_default_input_10'] ['conversion_82']
------ --------------------------------------------------------------------------- ----------------------------- ----------------- ----------- ----------------------------------------------------------- --- ------------- ------------------- ----------------------------- 
m_id   layer (type,original)                                                       oshape                        param/size               macc                                                connected to   | c_size        c_macc              c_type                        
------ --------------------------------------------------------------------------- ----------------------------- ----------------- ----------- ----------------------------------------------------------- --- ------------- ------------------- ----------------------------- 
0      serving_default_input_10 (Input, )                                          [b:1,h:224,h:224,w:224,c:3]                                                                                               |               +301,056(+100.0%)   converter_oi8[0]              
       conversion_0 (Conversion, QUANTIZE)                                         [b:1,h:224,h:224,w:224,c:3]                         301,056                                    serving_default_input_10   |               -301,056(-100.0%)   
------ --------------------------------------------------------------------------- ----------------------------- ----------------- ----------- ----------------------------------------------------------- --- ------------- ------------------- ----------------------------- 
1      conv2d_1 (Conv2D, CONV_2D)                                                  [b:1,h:112,h:112,w:112,c:8]   224/248             2,709,512                                                conversion_0   |                                   optimized_conv2d_oi8[1]       
       nl_1_nl (Nonlinearity, CONV_2D)                                             [b:1,h:112,h:112,w:112,c:8]                         100,352                                                    conv2d_1   |               -100,352(-100.0%)   
------ --------------------------------------------------------------------------- ----------------------------- ----------------- ----------- ----------------------------------------------------------- --- ------------- ------------------- ----------------------------- 
2      conv2d_2 (Conv2D, CONV_2D)                                                  [b:1,h:56,h:56,w:56,c:16]     1,168/1,216         3,612,688                                                     nl_1_nl   |                                   pad_oi8/conv2d_oi8[2, 3]      
       nl_2_nl (Nonlinearity, CONV_2D)                                             [b:1,h:56,h:56,w:56,c:16]                            50,176                                                    conv2d_2   |               -50,176(-100.0%)    
------ --------------------------------------------------------------------------- ----------------------------- ----------------- ----------- ----------------------------------------------------------- --- ------------- ------------------- ----------------------------- 
3      pool_3 (Pool, AVERAGE_POOL_2D)                                              [b:1,h:1,h:1,w:1,c:16]                               50,176                                                     nl_2_nl   |                                   pool_oi8[4]                   
------ --------------------------------------------------------------------------- ----------------------------- ----------------- ----------- ----------------------------------------------------------- --- ------------- ------------------- ----------------------------- 
4      conv2d_4 (Conv2D, CONV_2D)                                                  [b:1,h:1,h:1,w:1,c:4]         68/80                      68                                                      pool_3   |                                   conv2d_oi8[5]                 
       nl_4_nl (Nonlinearity, CONV_2D)                                             [b:1,h:1,h:1,w:1,c:4]                                     4                                                    conv2d_4   |               -4(-100.0%)         
------ --------------------------------------------------------------------------- ----------------------------- ----------------- ----------- ----------------------------------------------------------- --- ------------- ------------------- ----------------------------- 
5      conv2d_5 (Conv2D, CONV_2D)                                                  [b:1,h:1,h:1,w:1,c:16]        80/128                     80                                                     nl_4_nl   |                                   conv2d_oi8[6]                 
------ --------------------------------------------------------------------------- ----------------------------- ----------------- ----------- ----------------------------------------------------------- --- ------------- ------------------- ----------------------------- 
6      EmbeddedNetV1_width0_5_conv2d_14_clip_by_value_Minimum_y (Placeholder, )    []                            1/1                                                                                         | +3(+300.0%)   +16(+100.0%)        eltwise_integer/min_oi8[7]    
       eltwise_6 (Eltwise, MINIMUM)                                                [b:1,h:1,h:1,w:1,c:16]                                   16                                                    conv2d_5   |               -16(-100.0%)        
                                                                                                                                                  EmbeddedNetV1_width0_5_conv2d_14_clip_by_value_Minimum_y   | 
------ --------------------------------------------------------------------------- ----------------------------- ----------------- ----------- ----------------------------------------------------------- --- ------------- ------------------- ----------------------------- 
7      nl_7 (Nonlinearity, RELU)                                                   [b:1,h:1,h:1,w:1,c:16]                                   16                                                   eltwise_6   |                                   nl_oi8[8]                     
------ --------------------------------------------------------------------------- ----------------------------- ----------------- ----------- ----------------------------------------------------------- --- ------------- ------------------- ----------------------------- 
8      eltwise_8 (Eltwise, MUL)                                                    [b:1,h:56,h:56,w:56,c:16]                            50,176                                                     nl_2_nl   |                                   eltwise_integer/mul_oi8[9]    
                                                                                                                                                                                                      nl_7   | 
------ --------------------------------------------------------------------------- ----------------------------- ----------------- ----------- ----------------------------------------------------------- --- ------------- ------------------- ----------------------------- 
9      conv2d_9 (Conv2D, CONV_2D)                                                  [b:1,h:56,h:56,w:56,c:16]     272/320               802,832                                                   eltwise_8   |                                   conv2d_oi8[10]                
       nl_9_nl (Nonlinearity, CONV_2D)                                             [b:1,h:56,h:56,w:56,c:16]                            50,176                                                    conv2d_9   |               -50,176(-100.0%)    
------ --------------------------------------------------------------------------- ----------------------------- ----------------- ----------- ----------------------------------------------------------- --- ------------- ------------------- ----------------------------- 
10     conv2d_10 (Conv2D, CONV_2D)                                                 [b:1,h:56,h:56,w:56,c:8]      136/160               401,416                                                     nl_9_nl   |                                   conv2d_oi8[11]                
------ --------------------------------------------------------------------------- ----------------------------- ----------------- ----------- ----------------------------------------------------------- --- ------------- ------------------- ----------------------------- 
11     conv2d_11 (Conv2D, CONV_2D)                                                 [b:1,h:28,h:28,w:28,c:32]     2,336/2,432         1,806,368                                                   conv2d_10   |                                   pad_oi8/conv2d_oi8[12, 13]    
       nl_11_nl (Nonlinearity, CONV_2D)                                            [b:1,h:28,h:28,w:28,c:32]                            25,088                                                   conv2d_11   |               -25,088(-100.0%)    
------ --------------------------------------------------------------------------- ----------------------------- ----------------- ----------- ----------------------------------------------------------- --- ------------- ------------------- ----------------------------- 
12     conv2d_12 (Conv2D, CONV_2D)                                                 [b:1,h:28,h:28,w:28,c:16]     528/576               401,424                                                    nl_11_nl   |                                   conv2d_oi8[14]                
       nl_12_nl (Nonlinearity, CONV_2D)                                            [b:1,h:28,h:28,w:28,c:16]                            12,544                                                   conv2d_12   |               -12,544(-100.0%)    
------ --------------------------------------------------------------------------- ----------------------------- ----------------- ----------- ----------------------------------------------------------- --- ------------- ------------------- ----------------------------- 
13     conv2d_13 (Conv2D, CONV_2D)                                                 [b:1,h:28,h:28,w:28,c:8]      136/160               100,360                                                    nl_12_nl   |                                   conv2d_oi8[15]                
------ --------------------------------------------------------------------------- ----------------------------- ----------------- ----------- ----------------------------------------------------------- --- ------------- ------------------- ----------------------------- 
14     conv2d_14 (Conv2D, CONV_2D)                                                 [b:1,h:28,h:28,w:28,c:40]     2,920/3,040         2,257,960                                                   conv2d_13   |                                   pad_oi8/conv2d_oi8[16, 17]    
       nl_14_nl (Nonlinearity, CONV_2D)                                            [b:1,h:28,h:28,w:28,c:40]                            31,360                                                   conv2d_14   |               -31,360(-100.0%)    
------ --------------------------------------------------------------------------- ----------------------------- ----------------- ----------- ----------------------------------------------------------- --- ------------- ------------------- ----------------------------- 
15     conv2d_15 (Conv2D, CONV_2D)                                                 [b:1,h:28,h:28,w:28,c:16]     656/704               501,776                                                    nl_14_nl   |                                   conv2d_oi8[18]                
       nl_15_nl (Nonlinearity, CONV_2D)                                            [b:1,h:28,h:28,w:28,c:16]                            12,544                                                   conv2d_15   |               -12,544(-100.0%)    
------ --------------------------------------------------------------------------- ----------------------------- ----------------- ----------- ----------------------------------------------------------- --- ------------- ------------------- ----------------------------- 
16     conv2d_16 (Conv2D, CONV_2D)                                                 [b:1,h:28,h:28,w:28,c:8]      136/160               100,360                                                    nl_15_nl   |                                   conv2d_oi8[19]                
------ --------------------------------------------------------------------------- ----------------------------- ----------------- ----------- ----------------------------------------------------------- --- ------------- ------------------- ----------------------------- 
17     eltwise_17 (Eltwise, ADD)                                                   [b:1,h:28,h:28,w:28,c:8]                              6,272                                                   conv2d_13   |                                   eltwise_integer/sum_oi8[20]   
                                                                                                                                                                                                 conv2d_16   | 
------ --------------------------------------------------------------------------- ----------------------------- ----------------- ----------- ----------------------------------------------------------- --- ------------- ------------------- ----------------------------- 
18     conv2d_18 (Conv2D, CONV_2D)                                                 [b:1,h:28,h:28,w:28,c:48]     432/576               301,104                                                  eltwise_17   |                                   conv2d_oi8[21]                
       nl_18_nl (Nonlinearity, CONV_2D)                                            [b:1,h:28,h:28,w:28,c:48]                            37,632                                                   conv2d_18   |               -37,632(-100.0%)    
------ --------------------------------------------------------------------------- ----------------------------- ----------------- ----------- ----------------------------------------------------------- --- ------------- ------------------- ----------------------------- 
19     conv2d_19 (Conv2D, DEPTHWISE_CONV_2D)                                       [b:1,h:14,h:14,w:14,c:48]     1,248/1,392           235,248                                                    nl_18_nl   |                                   conv2d_oi8[22]                
       nl_19_nl (Nonlinearity, DEPTHWISE_CONV_2D)                                  [b:1,h:14,h:14,w:14,c:48]                             9,408                                                   conv2d_19   |               -9,408(-100.0%)     
------ --------------------------------------------------------------------------- ----------------------------- ----------------- ----------- ----------------------------------------------------------- --- ------------- ------------------- ----------------------------- 
20     pool_20 (Pool, AVERAGE_POOL_2D)                                             [b:1,h:1,h:1,w:1,c:48]                                9,408                                                    nl_19_nl   |                                   pool_oi8[23]                  
------ --------------------------------------------------------------------------- ----------------------------- ----------------- ----------- ----------------------------------------------------------- --- ------------- ------------------- ----------------------------- 
21     conv2d_21 (Conv2D, CONV_2D)                                                 [b:1,h:1,h:1,w:1,c:12]        588/624                   588                                                     pool_20   |                                   conv2d_oi8[24]                
       nl_21_nl (Nonlinearity, CONV_2D)                                            [b:1,h:1,h:1,w:1,c:12]                                   12                                                   conv2d_21   |               -12(-100.0%)        
------ --------------------------------------------------------------------------- ----------------------------- ----------------- ----------- ----------------------------------------------------------- --- ------------- ------------------- ----------------------------- 
22     conv2d_22 (Conv2D, CONV_2D)                                                 [b:1,h:1,h:1,w:1,c:48]        624/768                   624                                                    nl_21_nl   |                                   conv2d_oi8[25]                
------ --------------------------------------------------------------------------- ----------------------------- ----------------- ----------- ----------------------------------------------------------- --- ------------- ------------------- ----------------------------- 
23     EmbeddedNetV1_width0_5_conv2d_14_clip_by_value_Minimum_y1 (Placeholder, )   []                            1/1                                                                                         | +3(+300.0%)   +48(+100.0%)        eltwise_integer/min_oi8[26]   
       eltwise_23 (Eltwise, MINIMUM)                                               [b:1,h:1,h:1,w:1,c:48]                                   48                                                   conv2d_22   |               -48(-100.0%)        
                                                                                                                                                 EmbeddedNetV1_width0_5_conv2d_14_clip_by_value_Minimum_y1   | 
------ --------------------------------------------------------------------------- ----------------------------- ----------------- ----------- ----------------------------------------------------------- --- ------------- ------------------- ----------------------------- 
24     nl_24 (Nonlinearity, RELU)                                                  [b:1,h:1,h:1,w:1,c:48]                                   48                                                  eltwise_23   |                                   nl_oi8[27]                    
------ --------------------------------------------------------------------------- ----------------------------- ----------------- ----------- ----------------------------------------------------------- --- ------------- ------------------- ----------------------------- 
25     eltwise_25 (Eltwise, MUL)                                                   [b:1,h:14,h:14,w:14,c:48]                             9,408                                                    nl_19_nl   |                                   eltwise_integer/mul_oi8[28]   
                                                                                                                                                                                                     nl_24   | 
------ --------------------------------------------------------------------------- ----------------------------- ----------------- ----------- ----------------------------------------------------------- --- ------------- ------------------- ----------------------------- 
26     conv2d_26 (Conv2D, CONV_2D)                                                 [b:1,h:14,h:14,w:14,c:16]     784/832               150,544                                                  eltwise_25   |                                   conv2d_oi8[29]                
------ --------------------------------------------------------------------------- ----------------------------- ----------------- ----------- ----------------------------------------------------------- --- ------------- ------------------- ----------------------------- 
27     conv2d_27 (Conv2D, CONV_2D)                                                 [b:1,h:14,h:14,w:14,c:96]     1,632/1,920           301,152                                                   conv2d_26   |                                   conv2d_oi8[30]                
       nl_27_nl (Nonlinearity, CONV_2D)                                            [b:1,h:14,h:14,w:14,c:96]                            18,816                                                   conv2d_27   |               -18,816(-100.0%)    
------ --------------------------------------------------------------------------- ----------------------------- ----------------- ----------- ----------------------------------------------------------- --- ------------- ------------------- ----------------------------- 
28     conv2d_28 (Conv2D, DEPTHWISE_CONV_2D)                                       [b:1,h:14,h:14,w:14,c:96]     2,496/2,784           470,496                                                    nl_27_nl   |                                   conv2d_oi8[31]                
       nl_28_nl (Nonlinearity, DEPTHWISE_CONV_2D)                                  [b:1,h:14,h:14,w:14,c:96]                            18,816                                                   conv2d_28   |               -18,816(-100.0%)    
------ --------------------------------------------------------------------------- ----------------------------- ----------------- ----------- ----------------------------------------------------------- --- ------------- ------------------- ----------------------------- 
29     pool_29 (Pool, AVERAGE_POOL_2D)                                             [b:1,h:1,h:1,w:1,c:96]                               18,816                                                    nl_28_nl   |                                   pool_oi8[32]                  
------ --------------------------------------------------------------------------- ----------------------------- ----------------- ----------- ----------------------------------------------------------- --- ------------- ------------------- ----------------------------- 
30     conv2d_30 (Conv2D, CONV_2D)                                                 [b:1,h:1,h:1,w:1,c:24]        2,328/2,400             2,328                                                     pool_29   |                                   conv2d_oi8[33]                
       nl_30_nl (Nonlinearity, CONV_2D)                                            [b:1,h:1,h:1,w:1,c:24]                                   24                                                   conv2d_30   |               -24(-100.0%)        
------ --------------------------------------------------------------------------- ----------------------------- ----------------- ----------- ----------------------------------------------------------- --- ------------- ------------------- ----------------------------- 
31     conv2d_31 (Conv2D, CONV_2D)                                                 [b:1,h:1,h:1,w:1,c:96]        2,400/2,688             2,400                                                    nl_30_nl   |                                   conv2d_oi8[34]                
------ --------------------------------------------------------------------------- ----------------------------- ----------------- ----------- ----------------------------------------------------------- --- ------------- ------------------- ----------------------------- 
32     EmbeddedNetV1_width0_5_conv2d_14_clip_by_value_Minimum_y2 (Placeholder, )   []                            1/1                                                                                         | +3(+300.0%)   +96(+100.0%)        eltwise_integer/min_oi8[35]   
       eltwise_32 (Eltwise, MINIMUM)                                               [b:1,h:1,h:1,w:1,c:96]                                   96                                                   conv2d_31   |               -96(-100.0%)        
                                                                                                                                                 EmbeddedNetV1_width0_5_conv2d_14_clip_by_value_Minimum_y2   | 
------ --------------------------------------------------------------------------- ----------------------------- ----------------- ----------- ----------------------------------------------------------- --- ------------- ------------------- ----------------------------- 
33     nl_33 (Nonlinearity, RELU)                                                  [b:1,h:1,h:1,w:1,c:96]                                   96                                                  eltwise_32   |                                   nl_oi8[36]                    
------ --------------------------------------------------------------------------- ----------------------------- ----------------- ----------- ----------------------------------------------------------- --- ------------- ------------------- ----------------------------- 
34     eltwise_34 (Eltwise, MUL)                                                   [b:1,h:14,h:14,w:14,c:96]                            18,816                                                    nl_28_nl   |                                   eltwise_integer/mul_oi8[37]   
                                                                                                                                                                                                     nl_33   | 
------ --------------------------------------------------------------------------- ----------------------------- ----------------- ----------- ----------------------------------------------------------- --- ------------- ------------------- ----------------------------- 
35     conv2d_35 (Conv2D, CONV_2D)                                                 [b:1,h:14,h:14,w:14,c:16]     1,552/1,600           301,072                                                  eltwise_34   |                                   conv2d_oi8[38]                
------ --------------------------------------------------------------------------- ----------------------------- ----------------- ----------- ----------------------------------------------------------- --- ------------- ------------------- ----------------------------- 
36     eltwise_36 (Eltwise, ADD)                                                   [b:1,h:14,h:14,w:14,c:16]                             3,136                                                   conv2d_26   |                                   eltwise_integer/sum_oi8[39]   
                                                                                                                                                                                                 conv2d_35   | 
------ --------------------------------------------------------------------------- ----------------------------- ----------------- ----------- ----------------------------------------------------------- --- ------------- ------------------- ----------------------------- 
37     conv2d_37 (Conv2D, CONV_2D)                                                 [b:1,h:14,h:14,w:14,c:64]     1,088/1,280           200,768                                                  eltwise_36   |                                   conv2d_oi8[40]                
       nl_37_nl (Nonlinearity, CONV_2D)                                            [b:1,h:14,h:14,w:14,c:64]                            12,544                                                   conv2d_37   |               -12,544(-100.0%)    
------ --------------------------------------------------------------------------- ----------------------------- ----------------- ----------- ----------------------------------------------------------- --- ------------- ------------------- ----------------------------- 
38     conv2d_38 (Conv2D, DEPTHWISE_CONV_2D)                                       [b:1,h:14,h:14,w:14,c:64]     1,664/1,856           313,664                                                    nl_37_nl   |                                   conv2d_oi8[41]                
       nl_38_nl (Nonlinearity, DEPTHWISE_CONV_2D)                                  [b:1,h:14,h:14,w:14,c:64]                            12,544                                                   conv2d_38   |               -12,544(-100.0%)    
------ --------------------------------------------------------------------------- ----------------------------- ----------------- ----------- ----------------------------------------------------------- --- ------------- ------------------- ----------------------------- 
39     pool_39 (Pool, AVERAGE_POOL_2D)                                             [b:1,h:1,h:1,w:1,c:64]                               12,544                                                    nl_38_nl   |                                   pool_oi8[42]                  
------ --------------------------------------------------------------------------- ----------------------------- ----------------- ----------- ----------------------------------------------------------- --- ------------- ------------------- ----------------------------- 
40     conv2d_40 (Conv2D, CONV_2D)                                                 [b:1,h:1,h:1,w:1,c:16]        1,040/1,088             1,040                                                     pool_39   |                                   conv2d_oi8[43]                
       nl_40_nl (Nonlinearity, CONV_2D)                                            [b:1,h:1,h:1,w:1,c:16]                                   16                                                   conv2d_40   |               -16(-100.0%)        
------ --------------------------------------------------------------------------- ----------------------------- ----------------- ----------- ----------------------------------------------------------- --- ------------- ------------------- ----------------------------- 
41     conv2d_41 (Conv2D, CONV_2D)                                                 [b:1,h:1,h:1,w:1,c:64]        1,088/1,280             1,088                                                    nl_40_nl   |                                   conv2d_oi8[44]                
------ --------------------------------------------------------------------------- ----------------------------- ----------------- ----------- ----------------------------------------------------------- --- ------------- ------------------- ----------------------------- 
42     EmbeddedNetV1_width0_5_conv2d_14_clip_by_value_Minimum_y3 (Placeholder, )   []                            1/1                                                                                         | +3(+300.0%)   +64(+100.0%)        eltwise_integer/min_oi8[45]   
       eltwise_42 (Eltwise, MINIMUM)                                               [b:1,h:1,h:1,w:1,c:64]                                   64                                                   conv2d_41   |               -64(-100.0%)        
                                                                                                                                                 EmbeddedNetV1_width0_5_conv2d_14_clip_by_value_Minimum_y3   | 
------ --------------------------------------------------------------------------- ----------------------------- ----------------- ----------- ----------------------------------------------------------- --- ------------- ------------------- ----------------------------- 
43     nl_43 (Nonlinearity, RELU)                                                  [b:1,h:1,h:1,w:1,c:64]                                   64                                                  eltwise_42   |                                   nl_oi8[46]                    
------ --------------------------------------------------------------------------- ----------------------------- ----------------- ----------- ----------------------------------------------------------- --- ------------- ------------------- ----------------------------- 
44     eltwise_44 (Eltwise, MUL)                                                   [b:1,h:14,h:14,w:14,c:64]                            12,544                                                    nl_38_nl   |                                   eltwise_integer/mul_oi8[47]   
                                                                                                                                                                                                     nl_43   | 
------ --------------------------------------------------------------------------- ----------------------------- ----------------- ----------- ----------------------------------------------------------- --- ------------- ------------------- ----------------------------- 
45     conv2d_45 (Conv2D, CONV_2D)                                                 [b:1,h:14,h:14,w:14,c:16]     1,040/1,088           200,720                                                  eltwise_44   |                                   conv2d_oi8[48]                
------ --------------------------------------------------------------------------- ----------------------------- ----------------- ----------- ----------------------------------------------------------- --- ------------- ------------------- ----------------------------- 
46     eltwise_46 (Eltwise, ADD)                                                   [b:1,h:14,h:14,w:14,c:16]                             3,136                                                  eltwise_36   |                                   eltwise_integer/sum_oi8[49]   
                                                                                                                                                                                                 conv2d_45   | 
------ --------------------------------------------------------------------------- ----------------------------- ----------------- ----------- ----------------------------------------------------------- --- ------------- ------------------- ----------------------------- 
47     conv2d_47 (Conv2D, CONV_2D)                                                 [b:1,h:14,h:14,w:14,c:120]    2,040/2,400           376,440                                                  eltwise_46   |                                   conv2d_oi8[50]                
       nl_47_nl (Nonlinearity, CONV_2D)                                            [b:1,h:14,h:14,w:14,c:120]                           23,520                                                   conv2d_47   |               -23,520(-100.0%)    
------ --------------------------------------------------------------------------- ----------------------------- ----------------- ----------- ----------------------------------------------------------- --- ------------- ------------------- ----------------------------- 
48     conv2d_48 (Conv2D, DEPTHWISE_CONV_2D)                                       [b:1,h:7,h:7,w:7,c:120]       3,120/3,480           147,120                                                    nl_47_nl   |                                   conv2d_oi8[51]                
       nl_48_nl (Nonlinearity, DEPTHWISE_CONV_2D)                                  [b:1,h:7,h:7,w:7,c:120]                               5,880                                                   conv2d_48   |               -5,880(-100.0%)     
------ --------------------------------------------------------------------------- ----------------------------- ----------------- ----------- ----------------------------------------------------------- --- ------------- ------------------- ----------------------------- 
49     pool_49 (Pool, AVERAGE_POOL_2D)                                             [b:1,h:1,h:1,w:1,c:120]                               5,880                                                    nl_48_nl   |                                   pool_oi8[52]                  
------ --------------------------------------------------------------------------- ----------------------------- ----------------- ----------- ----------------------------------------------------------- --- ------------- ------------------- ----------------------------- 
50     conv2d_50 (Conv2D, CONV_2D)                                                 [b:1,h:1,h:1,w:1,c:30]        3,630/3,720             3,630                                                     pool_49   |                                   conv2d_oi8[53]                
       nl_50_nl (Nonlinearity, CONV_2D)                                            [b:1,h:1,h:1,w:1,c:30]                                   30                                                   conv2d_50   |               -30(-100.0%)        
------ --------------------------------------------------------------------------- ----------------------------- ----------------- ----------- ----------------------------------------------------------- --- ------------- ------------------- ----------------------------- 
51     conv2d_51 (Conv2D, CONV_2D)                                                 [b:1,h:1,h:1,w:1,c:120]       3,720/4,080             3,720                                                    nl_50_nl   |                                   conv2d_oi8[54]                
------ --------------------------------------------------------------------------- ----------------------------- ----------------- ----------- ----------------------------------------------------------- --- ------------- ------------------- ----------------------------- 
52     EmbeddedNetV1_width0_5_conv2d_14_clip_by_value_Minimum_y4 (Placeholder, )   []                            1/1                                                                                         | +3(+300.0%)   +120(+100.0%)       eltwise_integer/min_oi8[55]   
       eltwise_52 (Eltwise, MINIMUM)                                               [b:1,h:1,h:1,w:1,c:120]                                 120                                                   conv2d_51   |               -120(-100.0%)       
                                                                                                                                                 EmbeddedNetV1_width0_5_conv2d_14_clip_by_value_Minimum_y4   | 
------ --------------------------------------------------------------------------- ----------------------------- ----------------- ----------- ----------------------------------------------------------- --- ------------- ------------------- ----------------------------- 
53     nl_53 (Nonlinearity, RELU)                                                  [b:1,h:1,h:1,w:1,c:120]                                 120                                                  eltwise_52   |                                   nl_oi8[56]                    
------ --------------------------------------------------------------------------- ----------------------------- ----------------- ----------- ----------------------------------------------------------- --- ------------- ------------------- ----------------------------- 
54     eltwise_54 (Eltwise, MUL)                                                   [b:1,h:7,h:7,w:7,c:120]                               5,880                                                    nl_48_nl   |                                   eltwise_integer/mul_oi8[57]   
                                                                                                                                                                                                     nl_53   | 
------ --------------------------------------------------------------------------- ----------------------------- ----------------- ----------- ----------------------------------------------------------- --- ------------- ------------------- ----------------------------- 
55     conv2d_55 (Conv2D, CONV_2D)                                                 [b:1,h:7,h:7,w:7,c:40]        4,840/4,960           235,240                                                  eltwise_54   |                                   conv2d_oi8[58]                
------ --------------------------------------------------------------------------- ----------------------------- ----------------- ----------- ----------------------------------------------------------- --- ------------- ------------------- ----------------------------- 
56     conv2d_56 (Conv2D, CONV_2D)                                                 [b:1,h:7,h:7,w:7,c:160]       6,560/7,040           313,760                                                   conv2d_55   |                                   conv2d_oi8[59]                
       nl_56_nl (Nonlinearity, CONV_2D)                                            [b:1,h:7,h:7,w:7,c:160]                               7,840                                                   conv2d_56   |               -7,840(-100.0%)     
------ --------------------------------------------------------------------------- ----------------------------- ----------------- ----------- ----------------------------------------------------------- --- ------------- ------------------- ----------------------------- 
57     conv2d_57 (Conv2D, DEPTHWISE_CONV_2D)                                       [b:1,h:7,h:7,w:7,c:160]       4,160/4,640           196,160                                                    nl_56_nl   |                                   conv2d_oi8[60]                
       nl_57_nl (Nonlinearity, DEPTHWISE_CONV_2D)                                  [b:1,h:7,h:7,w:7,c:160]                               7,840                                                   conv2d_57   |               -7,840(-100.0%)     
------ --------------------------------------------------------------------------- ----------------------------- ----------------- ----------- ----------------------------------------------------------- --- ------------- ------------------- ----------------------------- 
58     pool_58 (Pool, AVERAGE_POOL_2D)                                             [b:1,h:1,h:1,w:1,c:160]                               7,840                                                    nl_57_nl   |                                   pool_oi8[61]                  
------ --------------------------------------------------------------------------- ----------------------------- ----------------- ----------- ----------------------------------------------------------- --- ------------- ------------------- ----------------------------- 
59     conv2d_59 (Conv2D, CONV_2D)                                                 [b:1,h:1,h:1,w:1,c:40]        6,440/6,560             6,440                                                     pool_58   |                                   conv2d_oi8[62]                
       nl_59_nl (Nonlinearity, CONV_2D)                                            [b:1,h:1,h:1,w:1,c:40]                                   40                                                   conv2d_59   |               -40(-100.0%)        
------ --------------------------------------------------------------------------- ----------------------------- ----------------- ----------- ----------------------------------------------------------- --- ------------- ------------------- ----------------------------- 
60     conv2d_60 (Conv2D, CONV_2D)                                                 [b:1,h:1,h:1,w:1,c:160]       6,560/7,040             6,560                                                    nl_59_nl   |                                   conv2d_oi8[63]                
------ --------------------------------------------------------------------------- ----------------------------- ----------------- ----------- ----------------------------------------------------------- --- ------------- ------------------- ----------------------------- 
61     EmbeddedNetV1_width0_5_conv2d_14_clip_by_value_Minimum_y5 (Placeholder, )   []                            1/1                                                                                         | +3(+300.0%)   +160(+100.0%)       eltwise_integer/min_oi8[64]   
       eltwise_61 (Eltwise, MINIMUM)                                               [b:1,h:1,h:1,w:1,c:160]                                 160                                                   conv2d_60   |               -160(-100.0%)       
                                                                                                                                                 EmbeddedNetV1_width0_5_conv2d_14_clip_by_value_Minimum_y5   | 
------ --------------------------------------------------------------------------- ----------------------------- ----------------- ----------- ----------------------------------------------------------- --- ------------- ------------------- ----------------------------- 
62     nl_62 (Nonlinearity, RELU)                                                  [b:1,h:1,h:1,w:1,c:160]                                 160                                                  eltwise_61   |                                   nl_oi8[65]                    
------ --------------------------------------------------------------------------- ----------------------------- ----------------- ----------- ----------------------------------------------------------- --- ------------- ------------------- ----------------------------- 
63     eltwise_63 (Eltwise, MUL)                                                   [b:1,h:7,h:7,w:7,c:160]                               7,840                                                    nl_57_nl   |                                   eltwise_integer/mul_oi8[66]   
                                                                                                                                                                                                     nl_62   | 
------ --------------------------------------------------------------------------- ----------------------------- ----------------- ----------- ----------------------------------------------------------- --- ------------- ------------------- ----------------------------- 
64     conv2d_64 (Conv2D, CONV_2D)                                                 [b:1,h:7,h:7,w:7,c:40]        6,440/6,560           313,640                                                  eltwise_63   |                                   conv2d_oi8[67]                
------ --------------------------------------------------------------------------- ----------------------------- ----------------- ----------- ----------------------------------------------------------- --- ------------- ------------------- ----------------------------- 
65     eltwise_65 (Eltwise, ADD)                                                   [b:1,h:7,h:7,w:7,c:40]                                1,960                                                   conv2d_55   |                                   eltwise_integer/sum_oi8[68]   
                                                                                                                                                                                                 conv2d_64   | 
------ --------------------------------------------------------------------------- ----------------------------- ----------------- ----------- ----------------------------------------------------------- --- ------------- ------------------- ----------------------------- 
66     conv2d_66 (Conv2D, CONV_2D)                                                 [b:1,h:7,h:7,w:7,c:240]       9,840/10,560          470,640                                                  eltwise_65   |                                   conv2d_oi8[69]                
       nl_66_nl (Nonlinearity, CONV_2D)                                            [b:1,h:7,h:7,w:7,c:240]                              11,760                                                   conv2d_66   |               -11,760(-100.0%)    
------ --------------------------------------------------------------------------- ----------------------------- ----------------- ----------- ----------------------------------------------------------- --- ------------- ------------------- ----------------------------- 
67     conv2d_67 (Conv2D, DEPTHWISE_CONV_2D)                                       [b:1,h:7,h:7,w:7,c:240]       6,240/6,960           294,240                                                    nl_66_nl   |                                   conv2d_oi8[70]                
       nl_67_nl (Nonlinearity, DEPTHWISE_CONV_2D)                                  [b:1,h:7,h:7,w:7,c:240]                              11,760                                                   conv2d_67   |               -11,760(-100.0%)    
------ --------------------------------------------------------------------------- ----------------------------- ----------------- ----------- ----------------------------------------------------------- --- ------------- ------------------- ----------------------------- 
68     pool_68 (Pool, AVERAGE_POOL_2D)                                             [b:1,h:1,h:1,w:1,c:240]                              11,760                                                    nl_67_nl   |                                   pool_oi8[71]                  
------ --------------------------------------------------------------------------- ----------------------------- ----------------- ----------- ----------------------------------------------------------- --- ------------- ------------------- ----------------------------- 
69     conv2d_69 (Conv2D, CONV_2D)                                                 [b:1,h:1,h:1,w:1,c:60]        14,460/14,640          14,460                                                     pool_68   |                                   conv2d_oi8[72]                
       nl_69_nl (Nonlinearity, CONV_2D)                                            [b:1,h:1,h:1,w:1,c:60]                                   60                                                   conv2d_69   |               -60(-100.0%)        
------ --------------------------------------------------------------------------- ----------------------------- ----------------- ----------- ----------------------------------------------------------- --- ------------- ------------------- ----------------------------- 
70     conv2d_70 (Conv2D, CONV_2D)                                                 [b:1,h:1,h:1,w:1,c:240]       14,640/15,360          14,640                                                    nl_69_nl   |                                   conv2d_oi8[73]                
------ --------------------------------------------------------------------------- ----------------------------- ----------------- ----------- ----------------------------------------------------------- --- ------------- ------------------- ----------------------------- 
71     EmbeddedNetV1_width0_5_conv2d_14_clip_by_value_Minimum_y6 (Placeholder, )   []                            1/1                                                                                         | +3(+300.0%)   +240(+100.0%)       eltwise_integer/min_oi8[74]   
       eltwise_71 (Eltwise, MINIMUM)                                               [b:1,h:1,h:1,w:1,c:240]                                 240                                                   conv2d_70   |               -240(-100.0%)       
                                                                                                                                                 EmbeddedNetV1_width0_5_conv2d_14_clip_by_value_Minimum_y6   | 
------ --------------------------------------------------------------------------- ----------------------------- ----------------- ----------- ----------------------------------------------------------- --- ------------- ------------------- ----------------------------- 
72     nl_72 (Nonlinearity, RELU)                                                  [b:1,h:1,h:1,w:1,c:240]                                 240                                                  eltwise_71   |                                   nl_oi8[75]                    
------ --------------------------------------------------------------------------- ----------------------------- ----------------- ----------- ----------------------------------------------------------- --- ------------- ------------------- ----------------------------- 
73     eltwise_73 (Eltwise, MUL)                                                   [b:1,h:7,h:7,w:7,c:240]                              11,760                                                    nl_67_nl   |                                   eltwise_integer/mul_oi8[76]   
                                                                                                                                                                                                     nl_72   | 
------ --------------------------------------------------------------------------- ----------------------------- ----------------- ----------- ----------------------------------------------------------- --- ------------- ------------------- ----------------------------- 
74     conv2d_74 (Conv2D, CONV_2D)                                                 [b:1,h:7,h:7,w:7,c:40]        9,640/9,760           470,440                                                  eltwise_73   |                                   conv2d_oi8[77]                
------ --------------------------------------------------------------------------- ----------------------------- ----------------- ----------- ----------------------------------------------------------- --- ------------- ------------------- ----------------------------- 
75     eltwise_75 (Eltwise, ADD)                                                   [b:1,h:7,h:7,w:7,c:40]                                1,960                                                  eltwise_65   |                                   eltwise_integer/sum_oi8[78]   
                                                                                                                                                                                                 conv2d_74   | 
------ --------------------------------------------------------------------------- ----------------------------- ----------------- ----------- ----------------------------------------------------------- --- ------------- ------------------- ----------------------------- 
76     conv2d_76 (Conv2D, CONV_2D)                                                 [b:1,h:7,h:7,w:7,c:240]       9,840/10,560          470,640                                                  eltwise_75   |                                   conv2d_oi8[79]                
       nl_76_nl (Nonlinearity, CONV_2D)                                            [b:1,h:7,h:7,w:7,c:240]                              11,760                                                   conv2d_76   |               -11,760(-100.0%)    
------ --------------------------------------------------------------------------- ----------------------------- ----------------- ----------- ----------------------------------------------------------- --- ------------- ------------------- ----------------------------- 
77     pool_77 (Pool, MEAN)                                                        [b:1,h:1,h:1,w:1,c:240]                              11,760                                                    nl_76_nl   |                                   pool_oi8[80]                  
------ --------------------------------------------------------------------------- ----------------------------- ----------------- ----------- ----------------------------------------------------------- --- ------------- ------------------- ----------------------------- 
78     conv2d_78 (Conv2D, CONV_2D)                                                 [b:1,h:1,h:1,w:1,c:480]       115,680/117,120       115,680                                                     pool_77   |                                   conv2d_oi8[81]                
       nl_78_nl (Nonlinearity, CONV_2D)                                            [b:1,h:1,h:1,w:1,c:480]                                 480                                                   conv2d_78   |               -480(-100.0%)       
------ --------------------------------------------------------------------------- ----------------------------- ----------------- ----------- ----------------------------------------------------------- --- ------------- ------------------- ----------------------------- 
79     conv2d_79 (Conv2D, CONV_2D)                                                 [b:1,h:1,h:1,w:1,c:5]         2,405/2,420             2,405                                                    nl_78_nl   |                                   conv2d_oi8[82]                
------ --------------------------------------------------------------------------- ----------------------------- ----------------- ----------- ----------------------------------------------------------- --- ------------- ------------------- ----------------------------- 
80     reshape_80 (Reshape, RESHAPE)                                               [b:1,c:5]                                                                                                     conv2d_79   |                                   
------ --------------------------------------------------------------------------- ----------------------------- ----------------- ----------- ----------------------------------------------------------- --- ------------- ------------------- ----------------------------- 
81     nl_81 (Nonlinearity, SOFTMAX)                                               [b:1,c:5]                                                75                                                  reshape_80   |                                   nl_oi8[83]                    
------ --------------------------------------------------------------------------- ----------------------------- ----------------- ----------- ----------------------------------------------------------- --- ------------- ------------------- ----------------------------- 
82     conversion_82 (Conversion, DEQUANTIZE)                                      [b:1,c:5]                                                10                                                       nl_81   |                                   converter_of32[o][84]         
------ --------------------------------------------------------------------------- ----------------------------- ----------------- ----------- ----------------------------------------------------------- --- ------------- ------------------- ----------------------------- 
model/c-model: macc=19,670,262/19,197,236 -473,026(-2.4%) weights=269,267/269,288 +21(+0.0%) activations=--/156,600 io=--/0



Generated C-graph summary
------------------------------------------------------------------------------------------------------------------------
model name            : quantized_model
c-name                : network
c-node #              : 85
c-array #             : 256
activations size      : 156600 (1 segment)
weights size          : 269288 (1 segment)
macc                  : 19197236
inputs                : ['serving_default_input_10_output']
outputs               : ['conversion_82_output']

C-Arrays (256)
------ ----------------------------------------------------------- --------------- ------------------------- --------------- -------------- --------- 
c_id   name (*_array)                                              item/size       domain/mem-pool           c-type          fmt            comment   
------ ----------------------------------------------------------- --------------- ------------------------- --------------- -------------- --------- 
0      conv2d_21_scratch1                                          12/12           activations/**default**   int8_t          sa8                      
1      eltwise_32_output                                           96/96           activations/**default**   int8_t          sa8                      
2      nl_33_output                                                96/96           activations/**default**   int8_t          sa8                      
3      eltwise_34_output                                           18816/18816     activations/**default**   int8_t          sa8                      
4      conv2d_22_scratch0                                          528/528         activations/**default**   int8_t          s8                       
5      conv2d_35_output                                            3136/3136       activations/**default**   int8_t          sa8                      
6      eltwise_36_output                                           3136/3136       activations/**default**   int8_t          ss8                      
7      conv2d_37_output                                            12544/12544     activations/**default**   int8_t          sa8                      
8      conv2d_26_scratch0                                          352/352         activations/**default**   int8_t          s8                       
9      conv2d_38_output                                            12544/12544     activations/**default**   int8_t          sa8                      
10     pool_39_output                                              64/64           activations/**default**   int8_t          sa8                      
11     conv2d_40_output                                            16/16           activations/**default**   int8_t          sa8                      
12     conv2d_27_scratch0                                          1024/1024       activations/**default**   int8_t          s8                       
13     conv2d_41_output                                            64/64           activations/**default**   int8_t          sa8                      
14     eltwise_42_output                                           64/64           activations/**default**   int8_t          sa8                      
15     conv2d_27_scratch1                                          18816/18816     activations/**default**   int8_t          sa8                      
16     nl_43_output                                                64/64           activations/**default**   int8_t          sa8                      
17     eltwise_44_output                                           12544/12544     activations/**default**   int8_t          sa8                      
18     conv2d_45_output                                            3136/3136       activations/**default**   int8_t          sa8                      
19     conv2d_28_scratch0                                          8161/8161       activations/**default**   int8_t          s8                       
20     eltwise_46_output                                           3136/3136       activations/**default**   int8_t          ss8                      
21     conv2d_47_output                                            23520/23520     activations/**default**   int8_t          sa8                      
22     conv2d_28_scratch1                                          18816/18816     activations/**default**   int8_t          sa8                      
23     conv2d_48_output                                            5880/5880       activations/**default**   int8_t          sa8                      
24     pool_49_output                                              120/120         activations/**default**   int8_t          sa8                      
25     conv2d_50_output                                            30/30           activations/**default**   int8_t          sa8                      
26     conv2d_30_scratch0                                          624/624         activations/**default**   int8_t          s8                       
27     conv2d_51_output                                            120/120         activations/**default**   int8_t          sa8                      
28     eltwise_52_output                                           120/120         activations/**default**   int8_t          sa8                      
29     conv2d_30_scratch1                                          24/24           activations/**default**   int8_t          sa8                      
30     nl_53_output                                                120/120         activations/**default**   int8_t          sa8                      
31     eltwise_54_output                                           5880/5880       activations/**default**   int8_t          sa8                      
32     conv2d_55_output                                            1960/1960       activations/**default**   int8_t          sa8                      
33     conv2d_31_scratch0                                          1056/1056       activations/**default**   int8_t          s8                       
34     conv2d_56_output                                            7840/7840       activations/**default**   int8_t          sa8                      
35     conv2d_57_output                                            7840/7840       activations/**default**   int8_t          sa8                      
36     pool_58_output                                              160/160         activations/**default**   int8_t          sa8                      
37     conv2d_35_scratch0                                          544/544         activations/**default**   int8_t          s8                       
38     conv2d_59_output                                            40/40           activations/**default**   int8_t          sa8                      
39     conv2d_60_output                                            160/160         activations/**default**   int8_t          sa8                      
40     eltwise_61_output                                           160/160         activations/**default**   int8_t          sa8                      
41     conv2d_37_scratch0                                          704/704         activations/**default**   int8_t          s8                       
42     nl_62_output                                                160/160         activations/**default**   int8_t          sa8                      
43     eltwise_63_output                                           7840/7840       activations/**default**   int8_t          sa8                      
44     conv2d_37_scratch1                                          12544/12544     activations/**default**   int8_t          sa8                      
45     conv2d_64_output                                            1960/1960       activations/**default**   int8_t          sa8                      
46     eltwise_65_output                                           1960/1960       activations/**default**   int8_t          ss8                      
47     conv2d_66_output                                            11760/11760     activations/**default**   int8_t          sa8                      
48     conv2d_38_scratch0                                          5441/5441       activations/**default**   int8_t          s8                       
49     conv2d_67_output                                            11760/11760     activations/**default**   int8_t          sa8                      
50     pool_68_output                                              240/240         activations/**default**   int8_t          sa8                      
51     conv2d_38_scratch1                                          12544/12544     activations/**default**   int8_t          sa8                      
52     conv2d_69_output                                            60/60           activations/**default**   int8_t          sa8                      
53     conv2d_70_output                                            240/240         activations/**default**   int8_t          sa8                      
54     eltwise_71_output                                           240/240         activations/**default**   int8_t          sa8                      
55     conv2d_40_scratch0                                          416/416         activations/**default**   int8_t          s8                       
56     nl_72_output                                                240/240         activations/**default**   int8_t          sa8                      
57     eltwise_73_output                                           11760/11760     activations/**default**   int8_t          sa8                      
58     conv2d_40_scratch1                                          16/16           activations/**default**   int8_t          sa8                      
59     conv2d_74_output                                            1960/1960       activations/**default**   int8_t          sa8                      
60     eltwise_75_output                                           1960/1960       activations/**default**   int8_t          sa8                      
61     conv2d_76_output                                            11760/11760     activations/**default**   int8_t          sa8                      
62     conv2d_41_scratch0                                          704/704         activations/**default**   int8_t          s8                       
63     pool_77_output                                              240/240         activations/**default**   int8_t          sa8                      
64     conv2d_78_output                                            480/480         activations/**default**   int8_t          sa8                      
65     conv2d_79_output                                            5/5             activations/**default**   int8_t          sa8                      
66     conv2d_45_scratch0                                          416/416         activations/**default**   int8_t          s8                       
67     nl_81_output                                                5/5             activations/**default**   int8_t          sa8                      
68     conversion_82_output                                        5/20            activations/**default**   float           float32        /output   
69     EmbeddedNetV1_width0_5_conv2d_14_clip_by_value_Minimum_y6   1/4             weights/weights           const int8_t    sa8                      
70     conv2d_47_scratch0                                          1264/1264       activations/**default**   int8_t          s8                       
71     EmbeddedNetV1_width0_5_conv2d_14_clip_by_value_Minimum_y5   1/4             weights/weights           const int8_t    sa8                      
72     EmbeddedNetV1_width0_5_conv2d_14_clip_by_value_Minimum_y4   1/4             weights/weights           const int8_t    sa8                      
73     conv2d_47_scratch1                                          23520/23520     activations/**default**   int8_t          sa8                      
74     EmbeddedNetV1_width0_5_conv2d_14_clip_by_value_Minimum_y3   1/4             weights/weights           const int8_t    sa8                      
75     EmbeddedNetV1_width0_5_conv2d_14_clip_by_value_Minimum_y2   1/4             weights/weights           const int8_t    sa8                      
76     EmbeddedNetV1_width0_5_conv2d_14_clip_by_value_Minimum_y1   1/4             weights/weights           const int8_t    sa8                      
77     conv2d_48_scratch0                                          10201/10201     activations/**default**   int8_t          s8                       
78     EmbeddedNetV1_width0_5_conv2d_14_clip_by_value_Minimum_y    1/4             weights/weights           const int8_t    sa8                      
79     conv2d_1_weights                                            216/216         weights/weights           const int8_t    ss8/ch(8)                
80     conv2d_48_scratch1                                          5880/5880       activations/**default**   int8_t          sa8                      
81     conv2d_1_bias                                               8/32            weights/weights           const int32_t   ss32/ch(8)               
82     conv2d_2_weights                                            1152/1152       weights/weights           const int8_t    ss8/ch(16)               
83     conv2d_50_scratch0                                          780/780         activations/**default**   int8_t          s8                       
84     conv2d_2_bias                                               16/64           weights/weights           const int32_t   ss32/ch(16)              
85     conv2d_50_scratch1                                          30/30           activations/**default**   int8_t          sa8                      
86     conv2d_4_weights                                            64/64           weights/weights           const int8_t    ss8/ch(4)                
87     conv2d_4_bias                                               4/16            weights/weights           const int32_t   ss32/ch(4)               
88     conv2d_51_scratch0                                          1320/1320       activations/**default**   int8_t          s8                       
89     conv2d_5_weights                                            64/64           weights/weights           const int8_t    ss8/ch(16)               
90     conv2d_5_bias                                               16/64           weights/weights           const int32_t   ss32/ch(16)              
91     conv2d_55_scratch0                                          880/880         activations/**default**   int8_t          s8                       
92     conv2d_9_weights                                            256/256         weights/weights           const int8_t    ss8/ch(16)               
93     conv2d_9_bias                                               16/64           weights/weights           const int32_t   ss32/ch(16)              
94     conv2d_56_scratch0                                          1760/1760       activations/**default**   int8_t          s8                       
95     conv2d_10_weights                                           128/128         weights/weights           const int8_t    ss8/ch(8)                
96     conv2d_10_bias                                              8/32            weights/weights           const int32_t   ss32/ch(8)               
97     conv2d_56_scratch1                                          7840/7840       activations/**default**   int8_t          sa8                      
98     conv2d_11_weights                                           2304/2304       weights/weights           const int8_t    ss8/ch(32)               
99     conv2d_11_bias                                              32/128          weights/weights           const int32_t   ss32/ch(32)              
100    conv2d_57_scratch0                                          13601/13601     activations/**default**   int8_t          s8                       
101    conv2d_12_weights                                           512/512         weights/weights           const int8_t    ss8/ch(16)               
102    conv2d_57_scratch1                                          7840/7840       activations/**default**   int8_t          sa8                      
103    conv2d_12_bias                                              16/64           weights/weights           const int32_t   ss32/ch(16)              
104    conv2d_13_weights                                           128/128         weights/weights           const int8_t    ss8/ch(8)                
105    conv2d_59_scratch0                                          1040/1040       activations/**default**   int8_t          s8                       
106    conv2d_13_bias                                              8/32            weights/weights           const int32_t   ss32/ch(8)               
107    conv2d_59_scratch1                                          40/40           activations/**default**   int8_t          sa8                      
108    conv2d_14_weights                                           2880/2880       weights/weights           const int8_t    ss8/ch(40)               
109    conv2d_14_bias                                              40/160          weights/weights           const int32_t   ss32/ch(40)              
110    conv2d_60_scratch0                                          1760/1760       activations/**default**   int8_t          s8                       
111    conv2d_15_weights                                           640/640         weights/weights           const int8_t    ss8/ch(16)               
112    conv2d_15_bias                                              16/64           weights/weights           const int32_t   ss32/ch(16)              
113    conv2d_64_scratch0                                          1040/1040       activations/**default**   int8_t          s8                       
114    conv2d_16_weights                                           128/128         weights/weights           const int8_t    ss8/ch(8)                
115    conv2d_16_bias                                              8/32            weights/weights           const int32_t   ss32/ch(8)               
116    conv2d_66_scratch0                                          2560/2560       activations/**default**   int8_t          s8                       
117    conv2d_18_weights                                           384/384         weights/weights           const int8_t    ss8/ch(48)               
118    conv2d_18_bias                                              48/192          weights/weights           const int32_t   ss32/ch(48)              
119    conv2d_66_scratch1                                          11760/11760     activations/**default**   int8_t          sa8                      
120    conv2d_19_weights                                           1200/1200       weights/weights           const int8_t    ss8/ch(48)               
121    conv2d_19_bias                                              48/192          weights/weights           const int32_t   ss32/ch(48)              
122    conv2d_67_scratch0                                          20401/20401     activations/**default**   int8_t          s8                       
123    conv2d_21_weights                                           576/576         weights/weights           const int8_t    ss8/ch(12)               
124    conv2d_67_scratch1                                          11760/11760     activations/**default**   int8_t          sa8                      
125    conv2d_21_bias                                              12/48           weights/weights           const int32_t   ss32/ch(12)              
126    conv2d_22_weights                                           576/576         weights/weights           const int8_t    ss8/ch(48)               
127    conv2d_69_scratch0                                          1560/1560       activations/**default**   int8_t          s8                       
128    conv2d_22_bias                                              48/192          weights/weights           const int32_t   ss32/ch(48)              
129    conv2d_69_scratch1                                          60/60           activations/**default**   int8_t          sa8                      
130    conv2d_26_weights                                           768/768         weights/weights           const int8_t    ss8/ch(16)               
131    conv2d_26_bias                                              16/64           weights/weights           const int32_t   ss32/ch(16)              
132    conv2d_70_scratch0                                          2640/2640       activations/**default**   int8_t          s8                       
133    conv2d_27_weights                                           1536/1536       weights/weights           const int8_t    ss8/ch(96)               
134    conv2d_27_bias                                              96/384          weights/weights           const int32_t   ss32/ch(96)              
135    conv2d_74_scratch0                                          1360/1360       activations/**default**   int8_t          s8                       
136    conv2d_28_weights                                           2400/2400       weights/weights           const int8_t    ss8/ch(96)               
137    conv2d_28_bias                                              96/384          weights/weights           const int32_t   ss32/ch(96)              
138    conv2d_76_scratch0                                          2560/2560       activations/**default**   int8_t          s8                       
139    conv2d_30_weights                                           2304/2304       weights/weights           const int8_t    ss8/ch(24)               
140    conv2d_30_bias                                              24/96           weights/weights           const int32_t   ss32/ch(24)              
141    conv2d_76_scratch1                                          11760/11760     activations/**default**   int8_t          sa8                      
142    conv2d_31_weights                                           2304/2304       weights/weights           const int8_t    ss8/ch(96)               
143    conv2d_31_bias                                              96/384          weights/weights           const int32_t   ss32/ch(96)              
144    conv2d_78_scratch0                                          5760/5760       activations/**default**   int8_t          s8                       
145    conv2d_35_weights                                           1536/1536       weights/weights           const int8_t    ss8/ch(16)               
146    conv2d_78_scratch1                                          480/480         activations/**default**   int8_t          sa8                      
147    conv2d_35_bias                                              16/64           weights/weights           const int32_t   ss32/ch(16)              
148    conv2d_37_weights                                           1024/1024       weights/weights           const int8_t    ss8/ch(64)               
149    conv2d_79_scratch0                                          1970/1970       activations/**default**   int8_t          s8                       
150    conv2d_37_bias                                              64/256          weights/weights           const int32_t   ss32/ch(64)              
151    conv2d_38_weights                                           1600/1600       weights/weights           const int8_t    ss8/ch(64)               
152    nl_81_scratch0                                              5/20            activations/**default**   int32_t         s32                      
153    conv2d_38_bias                                              64/256          weights/weights           const int32_t   ss32/ch(64)              
154    conv2d_40_weights                                           1024/1024       weights/weights           const int8_t    ss8/ch(16)               
155    conv2d_40_bias                                              16/64           weights/weights           const int32_t   ss32/ch(16)              
156    conv2d_41_weights                                           1024/1024       weights/weights           const int8_t    ss8/ch(64)               
157    conv2d_41_bias                                              64/256          weights/weights           const int32_t   ss32/ch(64)              
158    conv2d_45_weights                                           1024/1024       weights/weights           const int8_t    ss8/ch(16)               
159    conv2d_45_bias                                              16/64           weights/weights           const int32_t   ss32/ch(16)              
160    conv2d_47_weights                                           1920/1920       weights/weights           const int8_t    ss8/ch(120)              
161    conv2d_47_bias                                              120/480         weights/weights           const int32_t   ss32/ch(120)             
162    conv2d_48_weights                                           3000/3000       weights/weights           const int8_t    ss8/ch(120)              
163    conv2d_48_bias                                              120/480         weights/weights           const int32_t   ss32/ch(120)             
164    conv2d_50_weights                                           3600/3600       weights/weights           const int8_t    ss8/ch(30)               
165    conv2d_50_bias                                              30/120          weights/weights           const int32_t   ss32/ch(30)              
166    conv2d_51_weights                                           3600/3600       weights/weights           const int8_t    ss8/ch(120)              
167    conv2d_51_bias                                              120/480         weights/weights           const int32_t   ss32/ch(120)             
168    conv2d_55_weights                                           4800/4800       weights/weights           const int8_t    ss8/ch(40)               
169    conv2d_55_bias                                              40/160          weights/weights           const int32_t   ss32/ch(40)              
170    conv2d_56_weights                                           6400/6400       weights/weights           const int8_t    ss8/ch(160)              
171    conv2d_56_bias                                              160/640         weights/weights           const int32_t   ss32/ch(160)             
172    conv2d_57_weights                                           4000/4000       weights/weights           const int8_t    ss8/ch(160)              
173    conv2d_57_bias                                              160/640         weights/weights           const int32_t   ss32/ch(160)             
174    conv2d_59_weights                                           6400/6400       weights/weights           const int8_t    ss8/ch(40)               
175    conv2d_59_bias                                              40/160          weights/weights           const int32_t   ss32/ch(40)              
176    conv2d_60_weights                                           6400/6400       weights/weights           const int8_t    ss8/ch(160)              
177    conv2d_60_bias                                              160/640         weights/weights           const int32_t   ss32/ch(160)             
178    conv2d_64_weights                                           6400/6400       weights/weights           const int8_t    ss8/ch(40)               
179    conv2d_64_bias                                              40/160          weights/weights           const int32_t   ss32/ch(40)              
180    conv2d_66_weights                                           9600/9600       weights/weights           const int8_t    ss8/ch(240)              
181    conv2d_66_bias                                              240/960         weights/weights           const int32_t   ss32/ch(240)             
182    conv2d_67_weights                                           6000/6000       weights/weights           const int8_t    ss8/ch(240)              
183    conv2d_67_bias                                              240/960         weights/weights           const int32_t   ss32/ch(240)             
184    conv2d_69_weights                                           14400/14400     weights/weights           const int8_t    ss8/ch(60)               
185    conv2d_69_bias                                              60/240          weights/weights           const int32_t   ss32/ch(60)              
186    conv2d_70_weights                                           14400/14400     weights/weights           const int8_t    ss8/ch(240)              
187    conv2d_70_bias                                              240/960         weights/weights           const int32_t   ss32/ch(240)             
188    conv2d_74_weights                                           9600/9600       weights/weights           const int8_t    ss8/ch(40)               
189    conv2d_74_bias                                              40/160          weights/weights           const int32_t   ss32/ch(40)              
190    conv2d_76_weights                                           9600/9600       weights/weights           const int8_t    ss8/ch(240)              
191    conv2d_76_bias                                              240/960         weights/weights           const int32_t   ss32/ch(240)             
192    conv2d_78_weights                                           115200/115200   weights/weights           const int8_t    ss8/ch(480)              
193    conv2d_78_bias                                              480/1920        weights/weights           const int32_t   ss32/ch(480)             
194    conv2d_79_weights                                           2400/2400       weights/weights           const int8_t    ss8/ch(5)                
195    conv2d_79_bias                                              5/20            weights/weights           const int32_t   ss32/ch(5)               
196    conv2d_1_scratch0                                           652/652         activations/**default**   int8_t          s8                       
197    conv2d_1_scratch1                                           100352/100352   activations/**default**   int8_t          sa8                      
198    conv2d_2_scratch0                                           2816/2816       activations/**default**   int8_t          s8                       
199    conv2d_2_scratch1                                           50176/50176     activations/**default**   int8_t          sa8                      
200    conv2d_4_scratch0                                           104/104         activations/**default**   int8_t          s8                       
201    conv2d_4_scratch1                                           4/4             activations/**default**   int8_t          sa8                      
202    conv2d_5_scratch0                                           176/176         activations/**default**   int8_t          s8                       
203    conv2d_9_scratch0                                           224/224         activations/**default**   int8_t          s8                       
204    conv2d_10_scratch0                                          144/144         activations/**default**   int8_t          s8                       
205    conv2d_11_scratch0                                          5344/5344       activations/**default**   int8_t          s8                       
206    conv2d_11_scratch1                                          25088/25088     activations/**default**   int8_t          sa8                      
207    serving_default_input_10_output                             150528/150528   activations/**default**   uint8_t         ua8            /input    
208    conversion_0_output                                         150528/150529   activations/**default**   int8_t          sa8                      
209    conv2d_1_output                                             100352/100352   activations/**default**   int8_t          sa8                      
210    conv2d_12_scratch0                                          288/288         activations/**default**   int8_t          s8                       
211    conv2d_2_pad_before_output                                  103968/103968   activations/**default**   int8_t          sa8                      
212    conv2d_2_output                                             50176/50176     activations/**default**   int8_t          sa8                      
213    conv2d_12_scratch1                                          12544/12544     activations/**default**   int8_t          sa8                      
214    pool_3_output                                               16/16           activations/**default**   int8_t          sa8                      
215    conv2d_4_output                                             4/4             activations/**default**   int8_t          sa8                      
216    conv2d_5_output                                             16/16           activations/**default**   int8_t          sa8                      
217    conv2d_13_scratch0                                          144/144         activations/**default**   int8_t          s8                       
218    eltwise_6_output                                            16/16           activations/**default**   int8_t          sa8                      
219    nl_7_output                                                 16/16           activations/**default**   int8_t          sa8                      
220    eltwise_8_output                                            50176/50176     activations/**default**   int8_t          sa8                      
221    conv2d_14_scratch0                                          5968/5968       activations/**default**   int8_t          s8                       
222    conv2d_9_output                                             50176/50176     activations/**default**   int8_t          sa8                      
223    conv2d_10_output                                            25088/25088     activations/**default**   int8_t          sa8                      
224    conv2d_14_scratch1                                          31360/31360     activations/**default**   int8_t          sa8                      
225    conv2d_11_pad_before_output                                 26912/26912     activations/**default**   int8_t          sa8                      
226    conv2d_11_output                                            25088/25088     activations/**default**   int8_t          sa8                      
227    conv2d_12_output                                            12544/12544     activations/**default**   int8_t          sa8                      
228    conv2d_15_scratch0                                          320/320         activations/**default**   int8_t          s8                       
229    conv2d_13_output                                            6272/6272       activations/**default**   int8_t          sa8                      
230    conv2d_14_pad_before_output                                 7200/7200       activations/**default**   int8_t          sa8                      
231    conv2d_15_scratch1                                          12544/12544     activations/**default**   int8_t          sa8                      
232    conv2d_14_output                                            31360/31360     activations/**default**   int8_t          sa8                      
233    conv2d_15_output                                            12544/12544     activations/**default**   int8_t          sa8                      
234    conv2d_16_output                                            6272/6272       activations/**default**   int8_t          sa8                      
235    conv2d_16_scratch0                                          144/144         activations/**default**   int8_t          s8                       
236    eltwise_17_output                                           6272/6272       activations/**default**   int8_t          sa8                      
237    conv2d_18_output                                            37632/37632     activations/**default**   int8_t          sa8                      
238    conv2d_19_output                                            9408/9408       activations/**default**   int8_t          sa8                      
239    conv2d_18_scratch0                                          512/512         activations/**default**   int8_t          s8                       
240    pool_20_output                                              48/48           activations/**default**   int8_t          sa8                      
241    conv2d_21_output                                            12/12           activations/**default**   int8_t          sa8                      
242    conv2d_18_scratch1                                          37632/37632     activations/**default**   int8_t          sa8                      
243    conv2d_22_output                                            48/48           activations/**default**   int8_t          sa8                      
244    eltwise_23_output                                           48/48           activations/**default**   int8_t          sa8                      
245    nl_24_output                                                48/48           activations/**default**   int8_t          sa8                      
246    conv2d_19_scratch0                                          4081/4081       activations/**default**   int8_t          s8                       
247    eltwise_25_output                                           9408/9408       activations/**default**   int8_t          sa8                      
248    conv2d_26_output                                            3136/3136       activations/**default**   int8_t          sa8                      
249    conv2d_19_scratch1                                          9408/9408       activations/**default**   int8_t          sa8                      
250    conv2d_27_output                                            18816/18816     activations/**default**   int8_t          sa8                      
251    conv2d_28_output                                            18816/18816     activations/**default**   int8_t          sa8                      
252    pool_29_output                                              96/96           activations/**default**   int8_t          sa8                      
253    conv2d_21_scratch0                                          312/312         activations/**default**   int8_t          s8                       
254    conv2d_30_output                                            24/24           activations/**default**   int8_t          sa8                      
255    conv2d_31_output                                            96/96           activations/**default**   int8_t          sa8                      
------ ----------------------------------------------------------- --------------- ------------------------- --------------- -------------- --------- 

C-Layers (85)
------ ---------------------- ---- ---------------------- --------- -------- -------------------------------------------------------------- --------------------- 
c_id   name (*_layer)         id   layer_type             macc      rom      tensors                                                        shape (array id)      
------ ---------------------- ---- ---------------------- --------- -------- -------------------------------------------------------------- --------------------- 
0      conversion_0           0    converter              301056    0        I: serving_default_input_10_output                             (1,224,224,3) (207)   
                                                                             O: conversion_0_output                                         (1,224,224,3) (208)   
------ ---------------------- ---- ---------------------- --------- -------- -------------------------------------------------------------- --------------------- 
1      conv2d_1               1    optimized_conv2d       2709512   248      I: conversion_0_output                                         (1,224,224,3) (208)   
                                                                             S: conv2d_1_scratch0                                                                 
                                                                             S: conv2d_1_scratch1                                                                 
                                                                             W: conv2d_1_weights                                            (3,3,3,8) (79)        
                                                                             W: conv2d_1_bias                                               (8,) (81)             
                                                                             O: conv2d_1_output                                             (1,112,112,8) (209)   
------ ---------------------- ---- ---------------------- --------- -------- -------------------------------------------------------------- --------------------- 
2      conv2d_2_pad_before    2    pad                    0         0        I: conv2d_1_output                                             (1,112,112,8) (209)   
                                                                             O: conv2d_2_pad_before_output                                  (1,114,114,8) (211)   
------ ---------------------- ---- ---------------------- --------- -------- -------------------------------------------------------------- --------------------- 
3      conv2d_2               2    conv2d                 3612688   1216     I: conv2d_2_pad_before_output                                  (1,114,114,8) (211)   
                                                                             S: conv2d_2_scratch0                                                                 
                                                                             S: conv2d_2_scratch1                                                                 
                                                                             W: conv2d_2_weights                                            (8,3,3,16) (82)       
                                                                             W: conv2d_2_bias                                               (16,) (84)            
                                                                             O: conv2d_2_output                                             (1,56,56,16) (212)    
------ ---------------------- ---- ---------------------- --------- -------- -------------------------------------------------------------- --------------------- 
4      pool_3                 3    pool                   50176     0        I: conv2d_2_output                                             (1,56,56,16) (212)    
                                                                             O: pool_3_output                                               (1,1,1,16) (214)      
------ ---------------------- ---- ---------------------- --------- -------- -------------------------------------------------------------- --------------------- 
5      conv2d_4               4    conv2d                 68        80       I: pool_3_output                                               (1,1,1,16) (214)      
                                                                             S: conv2d_4_scratch0                                                                 
                                                                             S: conv2d_4_scratch1                                                                 
                                                                             W: conv2d_4_weights                                            (16,1,1,4) (86)       
                                                                             W: conv2d_4_bias                                               (4,) (87)             
                                                                             O: conv2d_4_output                                             (1,1,1,4) (215)       
------ ---------------------- ---- ---------------------- --------- -------- -------------------------------------------------------------- --------------------- 
6      conv2d_5               5    conv2d                 80        128      I: conv2d_4_output                                             (1,1,1,4) (215)       
                                                                             S: conv2d_5_scratch0                                                                 
                                                                             W: conv2d_5_weights                                            (4,1,1,16) (89)       
                                                                             W: conv2d_5_bias                                               (16,) (90)            
                                                                             O: conv2d_5_output                                             (1,1,1,16) (216)      
------ ---------------------- ---- ---------------------- --------- -------- -------------------------------------------------------------- --------------------- 
7      eltwise_6              6    eltwise_integer/min    16        4        I: conv2d_5_output                                             (1,1,1,16) (216)      
                                                                             I: EmbeddedNetV1_width0_5_conv2d_14_clip_by_value_Minimum_y    (1,1,1) (78)          
                                                                             O: eltwise_6_output                                            (1,1,1,16) (218)      
------ ---------------------- ---- ---------------------- --------- -------- -------------------------------------------------------------- --------------------- 
8      nl_7                   7    nl                     16        0        I: eltwise_6_output                                            (1,1,1,16) (218)      
                                                                             O: nl_7_output                                                 (1,1,1,16) (219)      
------ ---------------------- ---- ---------------------- --------- -------- -------------------------------------------------------------- --------------------- 
9      eltwise_8              8    eltwise_integer/mul    50176     0        I: conv2d_2_output                                             (1,56,56,16) (212)    
                                                                             I: nl_7_output                                                 (1,1,1,16) (219)      
                                                                             O: eltwise_8_output                                            (1,56,56,16) (220)    
------ ---------------------- ---- ---------------------- --------- -------- -------------------------------------------------------------- --------------------- 
10     conv2d_9               9    conv2d                 802832    320      I: eltwise_8_output                                            (1,56,56,16) (220)    
                                                                             S: conv2d_9_scratch0                                                                 
                                                                             W: conv2d_9_weights                                            (16,1,1,16) (92)      
                                                                             W: conv2d_9_bias                                               (16,) (93)            
                                                                             O: conv2d_9_output                                             (1,56,56,16) (222)    
------ ---------------------- ---- ---------------------- --------- -------- -------------------------------------------------------------- --------------------- 
11     conv2d_10              10   conv2d                 401416    160      I: conv2d_9_output                                             (1,56,56,16) (222)    
                                                                             S: conv2d_10_scratch0                                                                
                                                                             W: conv2d_10_weights                                           (16,1,1,8) (95)       
                                                                             W: conv2d_10_bias                                              (8,) (96)             
                                                                             O: conv2d_10_output                                            (1,56,56,8) (223)     
------ ---------------------- ---- ---------------------- --------- -------- -------------------------------------------------------------- --------------------- 
12     conv2d_11_pad_before   11   pad                    0         0        I: conv2d_10_output                                            (1,56,56,8) (223)     
                                                                             O: conv2d_11_pad_before_output                                 (1,58,58,8) (225)     
------ ---------------------- ---- ---------------------- --------- -------- -------------------------------------------------------------- --------------------- 
13     conv2d_11              11   conv2d                 1806368   2432     I: conv2d_11_pad_before_output                                 (1,58,58,8) (225)     
                                                                             S: conv2d_11_scratch0                                                                
                                                                             S: conv2d_11_scratch1                                                                
                                                                             W: conv2d_11_weights                                           (8,3,3,32) (98)       
                                                                             W: conv2d_11_bias                                              (32,) (99)            
                                                                             O: conv2d_11_output                                            (1,28,28,32) (226)    
------ ---------------------- ---- ---------------------- --------- -------- -------------------------------------------------------------- --------------------- 
14     conv2d_12              12   conv2d                 401424    576      I: conv2d_11_output                                            (1,28,28,32) (226)    
                                                                             S: conv2d_12_scratch0                                                                
                                                                             S: conv2d_12_scratch1                                                                
                                                                             W: conv2d_12_weights                                           (32,1,1,16) (101)     
                                                                             W: conv2d_12_bias                                              (16,) (103)           
                                                                             O: conv2d_12_output                                            (1,28,28,16) (227)    
------ ---------------------- ---- ---------------------- --------- -------- -------------------------------------------------------------- --------------------- 
15     conv2d_13              13   conv2d                 100360    160      I: conv2d_12_output                                            (1,28,28,16) (227)    
                                                                             S: conv2d_13_scratch0                                                                
                                                                             W: conv2d_13_weights                                           (16,1,1,8) (104)      
                                                                             W: conv2d_13_bias                                              (8,) (106)            
                                                                             O: conv2d_13_output                                            (1,28,28,8) (229)     
------ ---------------------- ---- ---------------------- --------- -------- -------------------------------------------------------------- --------------------- 
16     conv2d_14_pad_before   14   pad                    0         0        I: conv2d_13_output                                            (1,28,28,8) (229)     
                                                                             O: conv2d_14_pad_before_output                                 (1,30,30,8) (230)     
------ ---------------------- ---- ---------------------- --------- -------- -------------------------------------------------------------- --------------------- 
17     conv2d_14              14   conv2d                 2257960   3040     I: conv2d_14_pad_before_output                                 (1,30,30,8) (230)     
                                                                             S: conv2d_14_scratch0                                                                
                                                                             S: conv2d_14_scratch1                                                                
                                                                             W: conv2d_14_weights                                           (8,3,3,40) (108)      
                                                                             W: conv2d_14_bias                                              (40,) (109)           
                                                                             O: conv2d_14_output                                            (1,28,28,40) (232)    
------ ---------------------- ---- ---------------------- --------- -------- -------------------------------------------------------------- --------------------- 
18     conv2d_15              15   conv2d                 501776    704      I: conv2d_14_output                                            (1,28,28,40) (232)    
                                                                             S: conv2d_15_scratch0                                                                
                                                                             S: conv2d_15_scratch1                                                                
                                                                             W: conv2d_15_weights                                           (40,1,1,16) (111)     
                                                                             W: conv2d_15_bias                                              (16,) (112)           
                                                                             O: conv2d_15_output                                            (1,28,28,16) (233)    
------ ---------------------- ---- ---------------------- --------- -------- -------------------------------------------------------------- --------------------- 
19     conv2d_16              16   conv2d                 100360    160      I: conv2d_15_output                                            (1,28,28,16) (233)    
                                                                             S: conv2d_16_scratch0                                                                
                                                                             W: conv2d_16_weights                                           (16,1,1,8) (114)      
                                                                             W: conv2d_16_bias                                              (8,) (115)            
                                                                             O: conv2d_16_output                                            (1,28,28,8) (234)     
------ ---------------------- ---- ---------------------- --------- -------- -------------------------------------------------------------- --------------------- 
20     eltwise_17             17   eltwise_integer/sum    6272      0        I: conv2d_13_output                                            (1,28,28,8) (229)     
                                                                             I: conv2d_16_output                                            (1,28,28,8) (234)     
                                                                             O: eltwise_17_output                                           (1,28,28,8) (236)     
------ ---------------------- ---- ---------------------- --------- -------- -------------------------------------------------------------- --------------------- 
21     conv2d_18              18   conv2d                 301104    576      I: eltwise_17_output                                           (1,28,28,8) (236)     
                                                                             S: conv2d_18_scratch0                                                                
                                                                             S: conv2d_18_scratch1                                                                
                                                                             W: conv2d_18_weights                                           (8,1,1,48) (117)      
                                                                             W: conv2d_18_bias                                              (48,) (118)           
                                                                             O: conv2d_18_output                                            (1,28,28,48) (237)    
------ ---------------------- ---- ---------------------- --------- -------- -------------------------------------------------------------- --------------------- 
22     conv2d_19              19   conv2d                 235248    1392     I: conv2d_18_output                                            (1,28,28,48) (237)    
                                                                             S: conv2d_19_scratch0                                                                
                                                                             S: conv2d_19_scratch1                                                                
                                                                             W: conv2d_19_weights                                           (48,5,5,1) (120)      
                                                                             W: conv2d_19_bias                                              (48,) (121)           
                                                                             O: conv2d_19_output                                            (1,14,14,48) (238)    
------ ---------------------- ---- ---------------------- --------- -------- -------------------------------------------------------------- --------------------- 
23     pool_20                20   pool                   9408      0        I: conv2d_19_output                                            (1,14,14,48) (238)    
                                                                             O: pool_20_output                                              (1,1,1,48) (240)      
------ ---------------------- ---- ---------------------- --------- -------- -------------------------------------------------------------- --------------------- 
24     conv2d_21              21   conv2d                 588       624      I: pool_20_output                                              (1,1,1,48) (240)      
                                                                             S: conv2d_21_scratch0                                                                
                                                                             S: conv2d_21_scratch1                                                                
                                                                             W: conv2d_21_weights                                           (48,1,1,12) (123)     
                                                                             W: conv2d_21_bias                                              (12,) (125)           
                                                                             O: conv2d_21_output                                            (1,1,1,12) (241)      
------ ---------------------- ---- ---------------------- --------- -------- -------------------------------------------------------------- --------------------- 
25     conv2d_22              22   conv2d                 624       768      I: conv2d_21_output                                            (1,1,1,12) (241)      
                                                                             S: conv2d_22_scratch0                                                                
                                                                             W: conv2d_22_weights                                           (12,1,1,48) (126)     
                                                                             W: conv2d_22_bias                                              (48,) (128)           
                                                                             O: conv2d_22_output                                            (1,1,1,48) (243)      
------ ---------------------- ---- ---------------------- --------- -------- -------------------------------------------------------------- --------------------- 
26     eltwise_23             23   eltwise_integer/min    48        4        I: conv2d_22_output                                            (1,1,1,48) (243)      
                                                                             I: EmbeddedNetV1_width0_5_conv2d_14_clip_by_value_Minimum_y1   (1,1,1) (76)          
                                                                             O: eltwise_23_output                                           (1,1,1,48) (244)      
------ ---------------------- ---- ---------------------- --------- -------- -------------------------------------------------------------- --------------------- 
27     nl_24                  24   nl                     48        0        I: eltwise_23_output                                           (1,1,1,48) (244)      
                                                                             O: nl_24_output                                                (1,1,1,48) (245)      
------ ---------------------- ---- ---------------------- --------- -------- -------------------------------------------------------------- --------------------- 
28     eltwise_25             25   eltwise_integer/mul    9408      0        I: conv2d_19_output                                            (1,14,14,48) (238)    
                                                                             I: nl_24_output                                                (1,1,1,48) (245)      
                                                                             O: eltwise_25_output                                           (1,14,14,48) (247)    
------ ---------------------- ---- ---------------------- --------- -------- -------------------------------------------------------------- --------------------- 
29     conv2d_26              26   conv2d                 150544    832      I: eltwise_25_output                                           (1,14,14,48) (247)    
                                                                             S: conv2d_26_scratch0                                                                
                                                                             W: conv2d_26_weights                                           (48,1,1,16) (130)     
                                                                             W: conv2d_26_bias                                              (16,) (131)           
                                                                             O: conv2d_26_output                                            (1,14,14,16) (248)    
------ ---------------------- ---- ---------------------- --------- -------- -------------------------------------------------------------- --------------------- 
30     conv2d_27              27   conv2d                 301152    1920     I: conv2d_26_output                                            (1,14,14,16) (248)    
                                                                             S: conv2d_27_scratch0                                                                
                                                                             S: conv2d_27_scratch1                                                                
                                                                             W: conv2d_27_weights                                           (16,1,1,96) (133)     
                                                                             W: conv2d_27_bias                                              (96,) (134)           
                                                                             O: conv2d_27_output                                            (1,14,14,96) (250)    
------ ---------------------- ---- ---------------------- --------- -------- -------------------------------------------------------------- --------------------- 
31     conv2d_28              28   conv2d                 470496    2784     I: conv2d_27_output                                            (1,14,14,96) (250)    
                                                                             S: conv2d_28_scratch0                                                                
                                                                             S: conv2d_28_scratch1                                                                
                                                                             W: conv2d_28_weights                                           (96,5,5,1) (136)      
                                                                             W: conv2d_28_bias                                              (96,) (137)           
                                                                             O: conv2d_28_output                                            (1,14,14,96) (251)    
------ ---------------------- ---- ---------------------- --------- -------- -------------------------------------------------------------- --------------------- 
32     pool_29                29   pool                   18816     0        I: conv2d_28_output                                            (1,14,14,96) (251)    
                                                                             O: pool_29_output                                              (1,1,1,96) (252)      
------ ---------------------- ---- ---------------------- --------- -------- -------------------------------------------------------------- --------------------- 
33     conv2d_30              30   conv2d                 2328      2400     I: pool_29_output                                              (1,1,1,96) (252)      
                                                                             S: conv2d_30_scratch0                                                                
                                                                             S: conv2d_30_scratch1                                                                
                                                                             W: conv2d_30_weights                                           (96,1,1,24) (139)     
                                                                             W: conv2d_30_bias                                              (24,) (140)           
                                                                             O: conv2d_30_output                                            (1,1,1,24) (254)      
------ ---------------------- ---- ---------------------- --------- -------- -------------------------------------------------------------- --------------------- 
34     conv2d_31              31   conv2d                 2400      2688     I: conv2d_30_output                                            (1,1,1,24) (254)      
                                                                             S: conv2d_31_scratch0                                                                
                                                                             W: conv2d_31_weights                                           (24,1,1,96) (142)     
                                                                             W: conv2d_31_bias                                              (96,) (143)           
                                                                             O: conv2d_31_output                                            (1,1,1,96) (255)      
------ ---------------------- ---- ---------------------- --------- -------- -------------------------------------------------------------- --------------------- 
35     eltwise_32             32   eltwise_integer/min    96        4        I: conv2d_31_output                                            (1,1,1,96) (255)      
                                                                             I: EmbeddedNetV1_width0_5_conv2d_14_clip_by_value_Minimum_y2   (1,1,1) (75)          
                                                                             O: eltwise_32_output                                           (1,1,1,96) (1)        
------ ---------------------- ---- ---------------------- --------- -------- -------------------------------------------------------------- --------------------- 
36     nl_33                  33   nl                     96        0        I: eltwise_32_output                                           (1,1,1,96) (1)        
                                                                             O: nl_33_output                                                (1,1,1,96) (2)        
------ ---------------------- ---- ---------------------- --------- -------- -------------------------------------------------------------- --------------------- 
37     eltwise_34             34   eltwise_integer/mul    18816     0        I: conv2d_28_output                                            (1,14,14,96) (251)    
                                                                             I: nl_33_output                                                (1,1,1,96) (2)        
                                                                             O: eltwise_34_output                                           (1,14,14,96) (3)      
------ ---------------------- ---- ---------------------- --------- -------- -------------------------------------------------------------- --------------------- 
38     conv2d_35              35   conv2d                 301072    1600     I: eltwise_34_output                                           (1,14,14,96) (3)      
                                                                             S: conv2d_35_scratch0                                                                
                                                                             W: conv2d_35_weights                                           (96,1,1,16) (145)     
                                                                             W: conv2d_35_bias                                              (16,) (147)           
                                                                             O: conv2d_35_output                                            (1,14,14,16) (5)      
------ ---------------------- ---- ---------------------- --------- -------- -------------------------------------------------------------- --------------------- 
39     eltwise_36             36   eltwise_integer/sum    3136      0        I: conv2d_26_output                                            (1,14,14,16) (248)    
                                                                             I: conv2d_35_output                                            (1,14,14,16) (5)      
                                                                             O: eltwise_36_output                                           (1,14,14,16) (6)      
------ ---------------------- ---- ---------------------- --------- -------- -------------------------------------------------------------- --------------------- 
40     conv2d_37              37   conv2d                 200768    1280     I: eltwise_36_output                                           (1,14,14,16) (6)      
                                                                             S: conv2d_37_scratch0                                                                
                                                                             S: conv2d_37_scratch1                                                                
                                                                             W: conv2d_37_weights                                           (16,1,1,64) (148)     
                                                                             W: conv2d_37_bias                                              (64,) (150)           
                                                                             O: conv2d_37_output                                            (1,14,14,64) (7)      
------ ---------------------- ---- ---------------------- --------- -------- -------------------------------------------------------------- --------------------- 
41     conv2d_38              38   conv2d                 313664    1856     I: conv2d_37_output                                            (1,14,14,64) (7)      
                                                                             S: conv2d_38_scratch0                                                                
                                                                             S: conv2d_38_scratch1                                                                
                                                                             W: conv2d_38_weights                                           (64,5,5,1) (151)      
                                                                             W: conv2d_38_bias                                              (64,) (153)           
                                                                             O: conv2d_38_output                                            (1,14,14,64) (9)      
------ ---------------------- ---- ---------------------- --------- -------- -------------------------------------------------------------- --------------------- 
42     pool_39                39   pool                   12544     0        I: conv2d_38_output                                            (1,14,14,64) (9)      
                                                                             O: pool_39_output                                              (1,1,1,64) (10)       
------ ---------------------- ---- ---------------------- --------- -------- -------------------------------------------------------------- --------------------- 
43     conv2d_40              40   conv2d                 1040      1088     I: pool_39_output                                              (1,1,1,64) (10)       
                                                                             S: conv2d_40_scratch0                                                                
                                                                             S: conv2d_40_scratch1                                                                
                                                                             W: conv2d_40_weights                                           (64,1,1,16) (154)     
                                                                             W: conv2d_40_bias                                              (16,) (155)           
                                                                             O: conv2d_40_output                                            (1,1,1,16) (11)       
------ ---------------------- ---- ---------------------- --------- -------- -------------------------------------------------------------- --------------------- 
44     conv2d_41              41   conv2d                 1088      1280     I: conv2d_40_output                                            (1,1,1,16) (11)       
                                                                             S: conv2d_41_scratch0                                                                
                                                                             W: conv2d_41_weights                                           (16,1,1,64) (156)     
                                                                             W: conv2d_41_bias                                              (64,) (157)           
                                                                             O: conv2d_41_output                                            (1,1,1,64) (13)       
------ ---------------------- ---- ---------------------- --------- -------- -------------------------------------------------------------- --------------------- 
45     eltwise_42             42   eltwise_integer/min    64        4        I: conv2d_41_output                                            (1,1,1,64) (13)       
                                                                             I: EmbeddedNetV1_width0_5_conv2d_14_clip_by_value_Minimum_y3   (1,1,1) (74)          
                                                                             O: eltwise_42_output                                           (1,1,1,64) (14)       
------ ---------------------- ---- ---------------------- --------- -------- -------------------------------------------------------------- --------------------- 
46     nl_43                  43   nl                     64        0        I: eltwise_42_output                                           (1,1,1,64) (14)       
                                                                             O: nl_43_output                                                (1,1,1,64) (16)       
------ ---------------------- ---- ---------------------- --------- -------- -------------------------------------------------------------- --------------------- 
47     eltwise_44             44   eltwise_integer/mul    12544     0        I: conv2d_38_output                                            (1,14,14,64) (9)      
                                                                             I: nl_43_output                                                (1,1,1,64) (16)       
                                                                             O: eltwise_44_output                                           (1,14,14,64) (17)     
------ ---------------------- ---- ---------------------- --------- -------- -------------------------------------------------------------- --------------------- 
48     conv2d_45              45   conv2d                 200720    1088     I: eltwise_44_output                                           (1,14,14,64) (17)     
                                                                             S: conv2d_45_scratch0                                                                
                                                                             W: conv2d_45_weights                                           (64,1,1,16) (158)     
                                                                             W: conv2d_45_bias                                              (16,) (159)           
                                                                             O: conv2d_45_output                                            (1,14,14,16) (18)     
------ ---------------------- ---- ---------------------- --------- -------- -------------------------------------------------------------- --------------------- 
49     eltwise_46             46   eltwise_integer/sum    3136      0        I: eltwise_36_output                                           (1,14,14,16) (6)      
                                                                             I: conv2d_45_output                                            (1,14,14,16) (18)     
                                                                             O: eltwise_46_output                                           (1,14,14,16) (20)     
------ ---------------------- ---- ---------------------- --------- -------- -------------------------------------------------------------- --------------------- 
50     conv2d_47              47   conv2d                 376440    2400     I: eltwise_46_output                                           (1,14,14,16) (20)     
                                                                             S: conv2d_47_scratch0                                                                
                                                                             S: conv2d_47_scratch1                                                                
                                                                             W: conv2d_47_weights                                           (16,1,1,120) (160)    
                                                                             W: conv2d_47_bias                                              (120,) (161)          
                                                                             O: conv2d_47_output                                            (1,14,14,120) (21)    
------ ---------------------- ---- ---------------------- --------- -------- -------------------------------------------------------------- --------------------- 
51     conv2d_48              48   conv2d                 147120    3480     I: conv2d_47_output                                            (1,14,14,120) (21)    
                                                                             S: conv2d_48_scratch0                                                                
                                                                             S: conv2d_48_scratch1                                                                
                                                                             W: conv2d_48_weights                                           (120,5,5,1) (162)     
                                                                             W: conv2d_48_bias                                              (120,) (163)          
                                                                             O: conv2d_48_output                                            (1,7,7,120) (23)      
------ ---------------------- ---- ---------------------- --------- -------- -------------------------------------------------------------- --------------------- 
52     pool_49                49   pool                   5880      0        I: conv2d_48_output                                            (1,7,7,120) (23)      
                                                                             O: pool_49_output                                              (1,1,1,120) (24)      
------ ---------------------- ---- ---------------------- --------- -------- -------------------------------------------------------------- --------------------- 
53     conv2d_50              50   conv2d                 3630      3720     I: pool_49_output                                              (1,1,1,120) (24)      
                                                                             S: conv2d_50_scratch0                                                                
                                                                             S: conv2d_50_scratch1                                                                
                                                                             W: conv2d_50_weights                                           (120,1,1,30) (164)    
                                                                             W: conv2d_50_bias                                              (30,) (165)           
                                                                             O: conv2d_50_output                                            (1,1,1,30) (25)       
------ ---------------------- ---- ---------------------- --------- -------- -------------------------------------------------------------- --------------------- 
54     conv2d_51              51   conv2d                 3720      4080     I: conv2d_50_output                                            (1,1,1,30) (25)       
                                                                             S: conv2d_51_scratch0                                                                
                                                                             W: conv2d_51_weights                                           (30,1,1,120) (166)    
                                                                             W: conv2d_51_bias                                              (120,) (167)          
                                                                             O: conv2d_51_output                                            (1,1,1,120) (27)      
------ ---------------------- ---- ---------------------- --------- -------- -------------------------------------------------------------- --------------------- 
55     eltwise_52             52   eltwise_integer/min    120       4        I: conv2d_51_output                                            (1,1,1,120) (27)      
                                                                             I: EmbeddedNetV1_width0_5_conv2d_14_clip_by_value_Minimum_y4   (1,1,1) (72)          
                                                                             O: eltwise_52_output                                           (1,1,1,120) (28)      
------ ---------------------- ---- ---------------------- --------- -------- -------------------------------------------------------------- --------------------- 
56     nl_53                  53   nl                     120       0        I: eltwise_52_output                                           (1,1,1,120) (28)      
                                                                             O: nl_53_output                                                (1,1,1,120) (30)      
------ ---------------------- ---- ---------------------- --------- -------- -------------------------------------------------------------- --------------------- 
57     eltwise_54             54   eltwise_integer/mul    5880      0        I: conv2d_48_output                                            (1,7,7,120) (23)      
                                                                             I: nl_53_output                                                (1,1,1,120) (30)      
                                                                             O: eltwise_54_output                                           (1,7,7,120) (31)      
------ ---------------------- ---- ---------------------- --------- -------- -------------------------------------------------------------- --------------------- 
58     conv2d_55              55   conv2d                 235240    4960     I: eltwise_54_output                                           (1,7,7,120) (31)      
                                                                             S: conv2d_55_scratch0                                                                
                                                                             W: conv2d_55_weights                                           (120,1,1,40) (168)    
                                                                             W: conv2d_55_bias                                              (40,) (169)           
                                                                             O: conv2d_55_output                                            (1,7,7,40) (32)       
------ ---------------------- ---- ---------------------- --------- -------- -------------------------------------------------------------- --------------------- 
59     conv2d_56              56   conv2d                 313760    7040     I: conv2d_55_output                                            (1,7,7,40) (32)       
                                                                             S: conv2d_56_scratch0                                                                
                                                                             S: conv2d_56_scratch1                                                                
                                                                             W: conv2d_56_weights                                           (40,1,1,160) (170)    
                                                                             W: conv2d_56_bias                                              (160,) (171)          
                                                                             O: conv2d_56_output                                            (1,7,7,160) (34)      
------ ---------------------- ---- ---------------------- --------- -------- -------------------------------------------------------------- --------------------- 
60     conv2d_57              57   conv2d                 196160    4640     I: conv2d_56_output                                            (1,7,7,160) (34)      
                                                                             S: conv2d_57_scratch0                                                                
                                                                             S: conv2d_57_scratch1                                                                
                                                                             W: conv2d_57_weights                                           (160,5,5,1) (172)     
                                                                             W: conv2d_57_bias                                              (160,) (173)          
                                                                             O: conv2d_57_output                                            (1,7,7,160) (35)      
------ ---------------------- ---- ---------------------- --------- -------- -------------------------------------------------------------- --------------------- 
61     pool_58                58   pool                   7840      0        I: conv2d_57_output                                            (1,7,7,160) (35)      
                                                                             O: pool_58_output                                              (1,1,1,160) (36)      
------ ---------------------- ---- ---------------------- --------- -------- -------------------------------------------------------------- --------------------- 
62     conv2d_59              59   conv2d                 6440      6560     I: pool_58_output                                              (1,1,1,160) (36)      
                                                                             S: conv2d_59_scratch0                                                                
                                                                             S: conv2d_59_scratch1                                                                
                                                                             W: conv2d_59_weights                                           (160,1,1,40) (174)    
                                                                             W: conv2d_59_bias                                              (40,) (175)           
                                                                             O: conv2d_59_output                                            (1,1,1,40) (38)       
------ ---------------------- ---- ---------------------- --------- -------- -------------------------------------------------------------- --------------------- 
63     conv2d_60              60   conv2d                 6560      7040     I: conv2d_59_output                                            (1,1,1,40) (38)       
                                                                             S: conv2d_60_scratch0                                                                
                                                                             W: conv2d_60_weights                                           (40,1,1,160) (176)    
                                                                             W: conv2d_60_bias                                              (160,) (177)          
                                                                             O: conv2d_60_output                                            (1,1,1,160) (39)      
------ ---------------------- ---- ---------------------- --------- -------- -------------------------------------------------------------- --------------------- 
64     eltwise_61             61   eltwise_integer/min    160       4        I: conv2d_60_output                                            (1,1,1,160) (39)      
                                                                             I: EmbeddedNetV1_width0_5_conv2d_14_clip_by_value_Minimum_y5   (1,1,1) (71)          
                                                                             O: eltwise_61_output                                           (1,1,1,160) (40)      
------ ---------------------- ---- ---------------------- --------- -------- -------------------------------------------------------------- --------------------- 
65     nl_62                  62   nl                     160       0        I: eltwise_61_output                                           (1,1,1,160) (40)      
                                                                             O: nl_62_output                                                (1,1,1,160) (42)      
------ ---------------------- ---- ---------------------- --------- -------- -------------------------------------------------------------- --------------------- 
66     eltwise_63             63   eltwise_integer/mul    7840      0        I: conv2d_57_output                                            (1,7,7,160) (35)      
                                                                             I: nl_62_output                                                (1,1,1,160) (42)      
                                                                             O: eltwise_63_output                                           (1,7,7,160) (43)      
------ ---------------------- ---- ---------------------- --------- -------- -------------------------------------------------------------- --------------------- 
67     conv2d_64              64   conv2d                 313640    6560     I: eltwise_63_output                                           (1,7,7,160) (43)      
                                                                             S: conv2d_64_scratch0                                                                
                                                                             W: conv2d_64_weights                                           (160,1,1,40) (178)    
                                                                             W: conv2d_64_bias                                              (40,) (179)           
                                                                             O: conv2d_64_output                                            (1,7,7,40) (45)       
------ ---------------------- ---- ---------------------- --------- -------- -------------------------------------------------------------- --------------------- 
68     eltwise_65             65   eltwise_integer/sum    1960      0        I: conv2d_55_output                                            (1,7,7,40) (32)       
                                                                             I: conv2d_64_output                                            (1,7,7,40) (45)       
                                                                             O: eltwise_65_output                                           (1,7,7,40) (46)       
------ ---------------------- ---- ---------------------- --------- -------- -------------------------------------------------------------- --------------------- 
69     conv2d_66              66   conv2d                 470640    10560    I: eltwise_65_output                                           (1,7,7,40) (46)       
                                                                             S: conv2d_66_scratch0                                                                
                                                                             S: conv2d_66_scratch1                                                                
                                                                             W: conv2d_66_weights                                           (40,1,1,240) (180)    
                                                                             W: conv2d_66_bias                                              (240,) (181)          
                                                                             O: conv2d_66_output                                            (1,7,7,240) (47)      
------ ---------------------- ---- ---------------------- --------- -------- -------------------------------------------------------------- --------------------- 
70     conv2d_67              67   conv2d                 294240    6960     I: conv2d_66_output                                            (1,7,7,240) (47)      
                                                                             S: conv2d_67_scratch0                                                                
                                                                             S: conv2d_67_scratch1                                                                
                                                                             W: conv2d_67_weights                                           (240,5,5,1) (182)     
                                                                             W: conv2d_67_bias                                              (240,) (183)          
                                                                             O: conv2d_67_output                                            (1,7,7,240) (49)      
------ ---------------------- ---- ---------------------- --------- -------- -------------------------------------------------------------- --------------------- 
71     pool_68                68   pool                   11760     0        I: conv2d_67_output                                            (1,7,7,240) (49)      
                                                                             O: pool_68_output                                              (1,1,1,240) (50)      
------ ---------------------- ---- ---------------------- --------- -------- -------------------------------------------------------------- --------------------- 
72     conv2d_69              69   conv2d                 14460     14640    I: pool_68_output                                              (1,1,1,240) (50)      
                                                                             S: conv2d_69_scratch0                                                                
                                                                             S: conv2d_69_scratch1                                                                
                                                                             W: conv2d_69_weights                                           (240,1,1,60) (184)    
                                                                             W: conv2d_69_bias                                              (60,) (185)           
                                                                             O: conv2d_69_output                                            (1,1,1,60) (52)       
------ ---------------------- ---- ---------------------- --------- -------- -------------------------------------------------------------- --------------------- 
73     conv2d_70              70   conv2d                 14640     15360    I: conv2d_69_output                                            (1,1,1,60) (52)       
                                                                             S: conv2d_70_scratch0                                                                
                                                                             W: conv2d_70_weights                                           (60,1,1,240) (186)    
                                                                             W: conv2d_70_bias                                              (240,) (187)          
                                                                             O: conv2d_70_output                                            (1,1,1,240) (53)      
------ ---------------------- ---- ---------------------- --------- -------- -------------------------------------------------------------- --------------------- 
74     eltwise_71             71   eltwise_integer/min    240       4        I: conv2d_70_output                                            (1,1,1,240) (53)      
                                                                             I: EmbeddedNetV1_width0_5_conv2d_14_clip_by_value_Minimum_y6   (1,1,1) (69)          
                                                                             O: eltwise_71_output                                           (1,1,1,240) (54)      
------ ---------------------- ---- ---------------------- --------- -------- -------------------------------------------------------------- --------------------- 
75     nl_72                  72   nl                     240       0        I: eltwise_71_output                                           (1,1,1,240) (54)      
                                                                             O: nl_72_output                                                (1,1,1,240) (56)      
------ ---------------------- ---- ---------------------- --------- -------- -------------------------------------------------------------- --------------------- 
76     eltwise_73             73   eltwise_integer/mul    11760     0        I: conv2d_67_output                                            (1,7,7,240) (49)      
                                                                             I: nl_72_output                                                (1,1,1,240) (56)      
                                                                             O: eltwise_73_output                                           (1,7,7,240) (57)      
------ ---------------------- ---- ---------------------- --------- -------- -------------------------------------------------------------- --------------------- 
77     conv2d_74              74   conv2d                 470440    9760     I: eltwise_73_output                                           (1,7,7,240) (57)      
                                                                             S: conv2d_74_scratch0                                                                
                                                                             W: conv2d_74_weights                                           (240,1,1,40) (188)    
                                                                             W: conv2d_74_bias                                              (40,) (189)           
                                                                             O: conv2d_74_output                                            (1,7,7,40) (59)       
------ ---------------------- ---- ---------------------- --------- -------- -------------------------------------------------------------- --------------------- 
78     eltwise_75             75   eltwise_integer/sum    1960      0        I: eltwise_65_output                                           (1,7,7,40) (46)       
                                                                             I: conv2d_74_output                                            (1,7,7,40) (59)       
                                                                             O: eltwise_75_output                                           (1,7,7,40) (60)       
------ ---------------------- ---- ---------------------- --------- -------- -------------------------------------------------------------- --------------------- 
79     conv2d_76              76   conv2d                 470640    10560    I: eltwise_75_output                                           (1,7,7,40) (60)       
                                                                             S: conv2d_76_scratch0                                                                
                                                                             S: conv2d_76_scratch1                                                                
                                                                             W: conv2d_76_weights                                           (40,1,1,240) (190)    
                                                                             W: conv2d_76_bias                                              (240,) (191)          
                                                                             O: conv2d_76_output                                            (1,7,7,240) (61)      
------ ---------------------- ---- ---------------------- --------- -------- -------------------------------------------------------------- --------------------- 
80     pool_77                77   pool                   11760     0        I: conv2d_76_output                                            (1,7,7,240) (61)      
                                                                             O: pool_77_output                                              (1,1,1,240) (63)      
------ ---------------------- ---- ---------------------- --------- -------- -------------------------------------------------------------- --------------------- 
81     conv2d_78              78   conv2d                 115680    117120   I: pool_77_output                                              (1,1,1,240) (63)      
                                                                             S: conv2d_78_scratch0                                                                
                                                                             S: conv2d_78_scratch1                                                                
                                                                             W: conv2d_78_weights                                           (240,1,1,480) (192)   
                                                                             W: conv2d_78_bias                                              (480,) (193)          
                                                                             O: conv2d_78_output                                            (1,1,1,480) (64)      
------ ---------------------- ---- ---------------------- --------- -------- -------------------------------------------------------------- --------------------- 
82     conv2d_79              79   conv2d                 2405      2420     I: conv2d_78_output                                            (1,1,1,480) (64)      
                                                                             S: conv2d_79_scratch0                                                                
                                                                             W: conv2d_79_weights                                           (480,1,1,5) (194)     
                                                                             W: conv2d_79_bias                                              (5,) (195)            
                                                                             O: conv2d_79_output                                            (1,1,1,5) (65)        
------ ---------------------- ---- ---------------------- --------- -------- -------------------------------------------------------------- --------------------- 
83     nl_81                  81   nl                     75        0        I: conv2d_79_output                                            (1,1,1,5) (65)        
                                                                             S: nl_81_scratch0                                                                    
                                                                             O: nl_81_output                                                (1,5) (67)            
------ ---------------------- ---- ---------------------- --------- -------- -------------------------------------------------------------- --------------------- 
84     conversion_82          82   converter              10        0        I: nl_81_output                                                (1,5) (67)            
                                                                             O: conversion_82_output                                        (1,5) (68)            
------ ---------------------- ---- ---------------------- --------- -------- -------------------------------------------------------------- --------------------- 



Number of operations per c-layer
------- ------ ---------------------------------- ------------ ------------- --------- ---------- 
c_id    m_id   name (type)                                 #op          type    #param   sparsity 
------- ------ ---------------------------------- ------------ ------------- --------- ---------- 
0       0      conversion_0 (converter)                301,056    conv_u8_s8           
1       1      conv2d_1 (optimized_conv2d)           2,709,512    smul_s8_s8       224     0.0045 
2       2      conv2d_2_pad_before (pad)                     0    smul_s8_s8           
3       2      conv2d_2 (conv2d)                     3,612,688    smul_s8_s8     1,168     0.0060 
4       3      pool_3 (pool)                            50,176      op_s8_s8           
5       4      conv2d_4 (conv2d)                            68    smul_s8_s8        68     0.0588 
6       5      conv2d_5 (conv2d)                            80    smul_s8_s8        80     0.0000 
7       6      eltwise_6 (eltwise_integer/min)              16      op_s8_s8         1     0.0000 
8       7      nl_7 (nl)                                    16      op_s8_s8           
9       8      eltwise_8 (eltwise_integer/mul)          50,176      op_s8_s8           
10      9      conv2d_9 (conv2d)                       802,832    smul_s8_s8       272     0.0625 
11      10     conv2d_10 (conv2d)                      401,416    smul_s8_s8       136     0.0074 
12      11     conv2d_11_pad_before (pad)                    0    smul_s8_s8           
13      11     conv2d_11 (conv2d)                    1,806,368    smul_s8_s8     2,336     0.0068 
14      12     conv2d_12 (conv2d)                      401,424    smul_s8_s8       528     0.0322 
15      13     conv2d_13 (conv2d)                      100,360    smul_s8_s8       136     0.0000 
16      14     conv2d_14_pad_before (pad)                    0    smul_s8_s8           
17      14     conv2d_14 (conv2d)                    2,257,960    smul_s8_s8     2,920     0.0079 
18      15     conv2d_15 (conv2d)                      501,776    smul_s8_s8       656     0.0259 
19      16     conv2d_16 (conv2d)                      100,360    smul_s8_s8       136     0.0000 
20      17     eltwise_17 (eltwise_integer/sum)          6,272      op_s8_s8           
21      18     conv2d_18 (conv2d)                      301,104    smul_s8_s8       432     0.0069 
22      19     conv2d_19 (conv2d)                      235,248    smul_s8_s8     1,248     0.0048 
23      20     pool_20 (pool)                            9,408      op_s8_s8           
24      21     conv2d_21 (conv2d)                          588    smul_s8_s8       588     0.0255 
25      22     conv2d_22 (conv2d)                          624    smul_s8_s8       624     0.0048 
26      23     eltwise_23 (eltwise_integer/min)             48      op_s8_s8         1     0.0000 
27      24     nl_24 (nl)                                   48      op_s8_s8           
28      25     eltwise_25 (eltwise_integer/mul)          9,408      op_s8_s8           
29      26     conv2d_26 (conv2d)                      150,544    smul_s8_s8       784     0.0038 
30      27     conv2d_27 (conv2d)                      301,152    smul_s8_s8     1,632     0.0037 
31      28     conv2d_28 (conv2d)                      470,496    smul_s8_s8     2,496     0.0052 
32      29     pool_29 (pool)                           18,816      op_s8_s8           
33      30     conv2d_30 (conv2d)                        2,328    smul_s8_s8     2,328     0.0159 
34      31     conv2d_31 (conv2d)                        2,400    smul_s8_s8     2,400     0.0046 
35      32     eltwise_32 (eltwise_integer/min)             96      op_s8_s8         1     0.0000 
36      33     nl_33 (nl)                                   96      op_s8_s8           
37      34     eltwise_34 (eltwise_integer/mul)         18,816      op_s8_s8           
38      35     conv2d_35 (conv2d)                      301,072    smul_s8_s8     1,552     0.0045 
39      36     eltwise_36 (eltwise_integer/sum)          3,136      op_s8_s8           
40      37     conv2d_37 (conv2d)                      200,768    smul_s8_s8     1,088     0.0018 
41      38     conv2d_38 (conv2d)                      313,664    smul_s8_s8     1,664     0.0060 
42      39     pool_39 (pool)                           12,544      op_s8_s8           
43      40     conv2d_40 (conv2d)                        1,040    smul_s8_s8     1,040     0.0202 
44      41     conv2d_41 (conv2d)                        1,088    smul_s8_s8     1,088     0.0046 
45      42     eltwise_42 (eltwise_integer/min)             64      op_s8_s8         1     0.0000 
46      43     nl_43 (nl)                                   64      op_s8_s8           
47      44     eltwise_44 (eltwise_integer/mul)         12,544      op_s8_s8           
48      45     conv2d_45 (conv2d)                      200,720    smul_s8_s8     1,040     0.0048 
49      46     eltwise_46 (eltwise_integer/sum)          3,136      op_s8_s8           
50      47     conv2d_47 (conv2d)                      376,440    smul_s8_s8     2,040     0.0059 
51      48     conv2d_48 (conv2d)                      147,120    smul_s8_s8     3,120     0.0058 
52      49     pool_49 (pool)                            5,880      op_s8_s8           
53      50     conv2d_50 (conv2d)                        3,630    smul_s8_s8     3,630     0.0135 
54      51     conv2d_51 (conv2d)                        3,720    smul_s8_s8     3,720     0.0048 
55      52     eltwise_52 (eltwise_integer/min)            120      op_s8_s8         1     0.0000 
56      53     nl_53 (nl)                                  120      op_s8_s8           
57      54     eltwise_54 (eltwise_integer/mul)          5,880      op_s8_s8           
58      55     conv2d_55 (conv2d)                      235,240    smul_s8_s8     4,840     0.0068 
59      56     conv2d_56 (conv2d)                      313,760    smul_s8_s8     6,560     0.0047 
60      57     conv2d_57 (conv2d)                      196,160    smul_s8_s8     4,160     0.0050 
61      58     pool_58 (pool)                            7,840      op_s8_s8           
62      59     conv2d_59 (conv2d)                        6,440    smul_s8_s8     6,440     0.0113 
63      60     conv2d_60 (conv2d)                        6,560    smul_s8_s8     6,560     0.0044 
64      61     eltwise_61 (eltwise_integer/min)            160      op_s8_s8         1     0.0000 
65      62     nl_62 (nl)                                  160      op_s8_s8           
66      63     eltwise_63 (eltwise_integer/mul)          7,840      op_s8_s8           
67      64     conv2d_64 (conv2d)                      313,640    smul_s8_s8     6,440     0.0068 
68      65     eltwise_65 (eltwise_integer/sum)          1,960      op_s8_s8           
69      66     conv2d_66 (conv2d)                      470,640    smul_s8_s8     9,840     0.0082 
70      67     conv2d_67 (conv2d)                      294,240    smul_s8_s8     6,240     0.0062 
71      68     pool_68 (pool)                           11,760      op_s8_s8           
72      69     conv2d_69 (conv2d)                       14,460    smul_s8_s8    14,460     0.0095 
73      70     conv2d_70 (conv2d)                       14,640    smul_s8_s8    14,640     0.0063 
74      71     eltwise_71 (eltwise_integer/min)            240      op_s8_s8         1     0.0000 
75      72     nl_72 (nl)                                  240      op_s8_s8           
76      73     eltwise_73 (eltwise_integer/mul)         11,760      op_s8_s8           
77      74     conv2d_74 (conv2d)                      470,440    smul_s8_s8     9,640     0.0078 
78      75     eltwise_75 (eltwise_integer/sum)          1,960      op_s8_s8           
79      76     conv2d_76 (conv2d)                      470,640    smul_s8_s8     9,840     0.0069 
80      77     pool_77 (pool)                           11,760      op_s8_s8           
81      78     conv2d_78 (conv2d)                      115,680    smul_s8_s8   115,680     0.0104 
82      79     conv2d_79 (conv2d)                        2,405    smul_s8_s8     2,405     0.0104 
83      81     nl_81 (nl)                                   75      op_s8_s8           
84      82     conversion_82 (converter)                    10   conv_s8_f32           
------- ------ ---------------------------------- ------------ ------------- --------- ---------- 
total                                               19,197,236                 258,926     0.0089 

Number of operation types
---------------- ------------ ----------- 
operation type              #           % 
---------------- ------------ ----------- 
conv_u8_s8            301,056        1.6% 
smul_s8_s8         18,633,535       97.1% 
op_s8_s8              262,635        1.4% 
conv_s8_f32                10        0.0% 

Complexity report (model)
------ ----------------------------------------------------------- ------------------------- ------------------------- ---------- 
m_id   name                                                        c_macc                    c_rom                     c_id       
------ ----------------------------------------------------------- ------------------------- ------------------------- ---------- 
0      serving_default_input_10                                    ||                 1.6%   |                  0.0%   [0]        
1      conv2d_1                                                    ||||||||||||      14.1%   |                  0.1%   [1]        
2      conv2d_2                                                    ||||||||||||||||  18.8%   |                  0.5%   [2, 3]     
3      pool_3                                                      |                  0.3%   |                  0.0%   [4]        
4      conv2d_4                                                    |                  0.0%   |                  0.0%   [5]        
5      conv2d_5                                                    |                  0.0%   |                  0.0%   [6]        
6      EmbeddedNetV1_width0_5_conv2d_14_clip_by_value_Minimum_y    |                  0.0%   |                  0.0%   [7]        
7      nl_7                                                        |                  0.0%   |                  0.0%   [8]        
8      eltwise_8                                                   |                  0.3%   |                  0.0%   [9]        
9      conv2d_9                                                    ||||               4.2%   |                  0.1%   [10]       
10     conv2d_10                                                   ||                 2.1%   |                  0.1%   [11]       
11     conv2d_11                                                   ||||||||           9.4%   |                  0.9%   [12, 13]   
12     conv2d_12                                                   ||                 2.1%   |                  0.2%   [14]       
13     conv2d_13                                                   |                  0.5%   |                  0.1%   [15]       
14     conv2d_14                                                   ||||||||||        11.8%   |                  1.1%   [16, 17]   
15     conv2d_15                                                   |||                2.6%   |                  0.3%   [18]       
16     conv2d_16                                                   |                  0.5%   |                  0.1%   [19]       
17     eltwise_17                                                  |                  0.0%   |                  0.0%   [20]       
18     conv2d_18                                                   ||                 1.6%   |                  0.2%   [21]       
19     conv2d_19                                                   |                  1.2%   |                  0.5%   [22]       
20     pool_20                                                     |                  0.0%   |                  0.0%   [23]       
21     conv2d_21                                                   |                  0.0%   |                  0.2%   [24]       
22     conv2d_22                                                   |                  0.0%   |                  0.3%   [25]       
23     EmbeddedNetV1_width0_5_conv2d_14_clip_by_value_Minimum_y1   |                  0.0%   |                  0.0%   [26]       
24     nl_24                                                       |                  0.0%   |                  0.0%   [27]       
25     eltwise_25                                                  |                  0.0%   |                  0.0%   [28]       
26     conv2d_26                                                   |                  0.8%   |                  0.3%   [29]       
27     conv2d_27                                                   ||                 1.6%   |                  0.7%   [30]       
28     conv2d_28                                                   ||                 2.5%   |                  1.0%   [31]       
29     pool_29                                                     |                  0.1%   |                  0.0%   [32]       
30     conv2d_30                                                   |                  0.0%   |                  0.9%   [33]       
31     conv2d_31                                                   |                  0.0%   |                  1.0%   [34]       
32     EmbeddedNetV1_width0_5_conv2d_14_clip_by_value_Minimum_y2   |                  0.0%   |                  0.0%   [35]       
33     nl_33                                                       |                  0.0%   |                  0.0%   [36]       
34     eltwise_34                                                  |                  0.1%   |                  0.0%   [37]       
35     conv2d_35                                                   ||                 1.6%   |                  0.6%   [38]       
36     eltwise_36                                                  |                  0.0%   |                  0.0%   [39]       
37     conv2d_37                                                   |                  1.0%   |                  0.5%   [40]       
38     conv2d_38                                                   ||                 1.6%   |                  0.7%   [41]       
39     pool_39                                                     |                  0.1%   |                  0.0%   [42]       
40     conv2d_40                                                   |                  0.0%   |                  0.4%   [43]       
41     conv2d_41                                                   |                  0.0%   |                  0.5%   [44]       
42     EmbeddedNetV1_width0_5_conv2d_14_clip_by_value_Minimum_y3   |                  0.0%   |                  0.0%   [45]       
43     nl_43                                                       |                  0.0%   |                  0.0%   [46]       
44     eltwise_44                                                  |                  0.1%   |                  0.0%   [47]       
45     conv2d_45                                                   |                  1.0%   |                  0.4%   [48]       
46     eltwise_46                                                  |                  0.0%   |                  0.0%   [49]       
47     conv2d_47                                                   ||                 2.0%   |                  0.9%   [50]       
48     conv2d_48                                                   |                  0.8%   |                  1.3%   [51]       
49     pool_49                                                     |                  0.0%   |                  0.0%   [52]       
50     conv2d_50                                                   |                  0.0%   |                  1.4%   [53]       
51     conv2d_51                                                   |                  0.0%   |                  1.5%   [54]       
52     EmbeddedNetV1_width0_5_conv2d_14_clip_by_value_Minimum_y4   |                  0.0%   |                  0.0%   [55]       
53     nl_53                                                       |                  0.0%   |                  0.0%   [56]       
54     eltwise_54                                                  |                  0.0%   |                  0.0%   [57]       
55     conv2d_55                                                   |                  1.2%   |                  1.8%   [58]       
56     conv2d_56                                                   ||                 1.6%   |                  2.6%   [59]       
57     conv2d_57                                                   |                  1.0%   |                  1.7%   [60]       
58     pool_58                                                     |                  0.0%   |                  0.0%   [61]       
59     conv2d_59                                                   |                  0.0%   |                  2.4%   [62]       
60     conv2d_60                                                   |                  0.0%   |                  2.6%   [63]       
61     EmbeddedNetV1_width0_5_conv2d_14_clip_by_value_Minimum_y5   |                  0.0%   |                  0.0%   [64]       
62     nl_62                                                       |                  0.0%   |                  0.0%   [65]       
63     eltwise_63                                                  |                  0.0%   |                  0.0%   [66]       
64     conv2d_64                                                   ||                 1.6%   |                  2.4%   [67]       
65     eltwise_65                                                  |                  0.0%   |                  0.0%   [68]       
66     conv2d_66                                                   ||                 2.5%   ||                 3.9%   [69]       
67     conv2d_67                                                   ||                 1.5%   |                  2.6%   [70]       
68     pool_68                                                     |                  0.1%   |                  0.0%   [71]       
69     conv2d_69                                                   |                  0.1%   ||                 5.4%   [72]       
70     conv2d_70                                                   |                  0.1%   ||                 5.7%   [73]       
71     EmbeddedNetV1_width0_5_conv2d_14_clip_by_value_Minimum_y6   |                  0.0%   |                  0.0%   [74]       
72     nl_72                                                       |                  0.0%   |                  0.0%   [75]       
73     eltwise_73                                                  |                  0.1%   |                  0.0%   [76]       
74     conv2d_74                                                   ||                 2.5%   ||                 3.6%   [77]       
75     eltwise_75                                                  |                  0.0%   |                  0.0%   [78]       
76     conv2d_76                                                   ||                 2.5%   ||                 3.9%   [79]       
77     pool_77                                                     |                  0.1%   |                  0.0%   [80]       
78     conv2d_78                                                   |                  0.6%   ||||||||||||||||  43.5%   [81]       
79     conv2d_79                                                   |                  0.0%   |                  0.9%   [82]       
81     nl_81                                                       |                  0.0%   |                  0.0%   [83]       
82     conversion_82                                               |                  0.0%   |                  0.0%   [84]       
------ ----------------------------------------------------------- ------------------------- ------------------------- ---------- 
macc=19,197,236 weights=269,288 act=156,600 ram_io=0

Generated files (7)
---------------------------------------------------------------------------------------------------------------------------------- 
E:\hjTan\Documents\CODE_SPACE\stm32ai-modelzoo-2.0.0\experiments_outputs\2025_01_13_14_20_25\stm32ai_files\network_config.h        
E:\hjTan\Documents\CODE_SPACE\stm32ai-modelzoo-2.0.0\experiments_outputs\2025_01_13_14_20_25\stm32ai_files\network.h               
E:\hjTan\Documents\CODE_SPACE\stm32ai-modelzoo-2.0.0\experiments_outputs\2025_01_13_14_20_25\stm32ai_files\network.c               
E:\hjTan\Documents\CODE_SPACE\stm32ai-modelzoo-2.0.0\experiments_outputs\2025_01_13_14_20_25\stm32ai_files\network_data_params.h   
E:\hjTan\Documents\CODE_SPACE\stm32ai-modelzoo-2.0.0\experiments_outputs\2025_01_13_14_20_25\stm32ai_files\network_data_params.c   
E:\hjTan\Documents\CODE_SPACE\stm32ai-modelzoo-2.0.0\experiments_outputs\2025_01_13_14_20_25\stm32ai_files\network_data.h          
E:\hjTan\Documents\CODE_SPACE\stm32ai-modelzoo-2.0.0\experiments_outputs\2025_01_13_14_20_25\stm32ai_files\network_data.c          
