Neural Network Tools for STM32 family v1.7.0 (stm.ai v8.1.0-19520)
Created date          : 2025-04-07 20:33:45
Parameters            : generate -m C:\Users\User\Documents\CODE_SPACE\stm32ai-modelzoo-2.0.0\experiments_outputs\2025_04_07_17_34_16\quantized_models\quantized_model.tflite -v 0 --allocate-inputs --allocate-outputs --output C:\Users\User\Documents\CODE_SPACE\stm32ai-modelzoo-2.0.0\experiments_outputs\2025_04_07_17_34_16/stm32ai_files --workspace C:\Users\User\Documents\CODE_SPACE\stm32ai-modelzoo-2.0.0\experiments_outputs\2025_04_07_17_34_16/stm32ai_files --optimization balanced

Exec/report summary (generate)
-------------------------------------------------------------------------------------------------------------------------------------------------------------------
model file         :   C:\Users\User\Documents\CODE_SPACE\stm32ai-modelzoo-2.0.0\experiments_outputs\2025_04_07_17_34_16\quantized_models\quantized_model.tflite   
type               :   tflite                                                                                                                                      
c_name             :   network                                                                                                                                     
compression        :   lossless                                                                                                                                    
options            :   allocate-inputs, allocate-outputs                                                                                                           
optimization       :   balanced                                                                                                                                    
workspace dir      :   C:\Users\User\Documents\CODE_SPACE\stm32ai-modelzoo-2.0.0\experiments_outputs\2025_04_07_17_34_16\stm32ai_files                             
output dir         :   C:\Users\User\Documents\CODE_SPACE\stm32ai-modelzoo-2.0.0\experiments_outputs\2025_04_07_17_34_16\stm32ai_files                             
model_fmt          :   ss/sa per channel                                                                                                                           
model_name         :   quantized_model                                                                                                                             
model_hash         :   5165e4511cdf3be90f819f5009429a7d                                                                                                            
params #           :   76,209 items (79.68 KiB)                                                                                                                    
-------------------------------------------------------------------------------------------------------------------------------------------------------------------
input 1/1          :   'serving_default_input_10' (domain:activations/**default**)                                                                                 
                   :   150528 items, 147.00 KiB, ai_u8, s=0.00784314, zp=127, (1,224,224,3)                                                                        
output 1/1         :   'conversion_82' (domain:activations/**default**)                                                                                            
                   :   4 items, 16 B, ai_float, float, (1,4)                                                                                                       
macc               :   10,820,470                                                                                                                                  
weights (ro)       :   81,612 B (79.70 KiB) (1 segment) / -223,224(-73.2%) vs float model                                                                          
activations (rw)   :   155,704 B (152.05 KiB) (1 segment) *                                                                                                        
ram (total)        :   155,704 B (152.05 KiB) = 155,704 + 0 + 0                                                                                                    
-------------------------------------------------------------------------------------------------------------------------------------------------------------------
(*) 'input'/'output' buffers can be used from the activations buffer

Model name - quantized_model ['serving_default_input_10'] ['conversion_82']
------ ---------------------------------------------------------------------------- ----------------------------- --------------- ----------- ------------------------------------------------------------ --- ------------- ------------------- ----------------------------- 
m_id   layer (type,original)                                                        oshape                        param/size             macc                                                 connected to   | c_size        c_macc              c_type                        
------ ---------------------------------------------------------------------------- ----------------------------- --------------- ----------- ------------------------------------------------------------ --- ------------- ------------------- ----------------------------- 
0      serving_default_input_10 (Input, )                                           [b:1,h:224,h:224,w:224,c:3]                                                                                              |               +301,056(+100.0%)   converter_oi8[0]              
       conversion_0 (Conversion, QUANTIZE)                                          [b:1,h:224,h:224,w:224,c:3]                       301,056                                     serving_default_input_10   |               -301,056(-100.0%)   
------ ---------------------------------------------------------------------------- ----------------------------- --------------- ----------- ------------------------------------------------------------ --- ------------- ------------------- ----------------------------- 
1      conv2d_1 (Conv2D, CONV_2D)                                                   [b:1,h:112,h:112,w:112,c:8]   224/248           2,709,512                                                 conversion_0   |                                   optimized_conv2d_oi8[1]       
       nl_1_nl (Nonlinearity, CONV_2D)                                              [b:1,h:112,h:112,w:112,c:8]                       100,352                                                     conv2d_1   |               -100,352(-100.0%)   
------ ---------------------------------------------------------------------------- ----------------------------- --------------- ----------- ------------------------------------------------------------ --- ------------- ------------------- ----------------------------- 
2      conv2d_2 (Conv2D, CONV_2D)                                                   [b:1,h:56,h:56,w:56,c:8]      584/608           1,806,344                                                      nl_1_nl   |                                   pad_oi8/conv2d_oi8[2, 3]      
       nl_2_nl (Nonlinearity, CONV_2D)                                              [b:1,h:56,h:56,w:56,c:8]                           25,088                                                     conv2d_2   |               -25,088(-100.0%)    
------ ---------------------------------------------------------------------------- ----------------------------- --------------- ----------- ------------------------------------------------------------ --- ------------- ------------------- ----------------------------- 
3      pool_3 (Pool, AVERAGE_POOL_2D)                                               [b:1,h:1,h:1,w:1,c:8]                              25,088                                                      nl_2_nl   |                                   pool_oi8[4]                   
------ ---------------------------------------------------------------------------- ----------------------------- --------------- ----------- ------------------------------------------------------------ --- ------------- ------------------- ----------------------------- 
4      conv2d_4 (Conv2D, CONV_2D)                                                   [b:1,h:1,h:1,w:1,c:2]         18/24                    18                                                       pool_3   |                                   conv2d_oi8[5]                 
       nl_4_nl (Nonlinearity, CONV_2D)                                              [b:1,h:1,h:1,w:1,c:2]                                   2                                                     conv2d_4   |               -2(-100.0%)         
------ ---------------------------------------------------------------------------- ----------------------------- --------------- ----------- ------------------------------------------------------------ --- ------------- ------------------- ----------------------------- 
5      conv2d_5 (Conv2D, CONV_2D)                                                   [b:1,h:1,h:1,w:1,c:8]         24/48                    24                                                      nl_4_nl   |                                   conv2d_oi8[6]                 
------ ---------------------------------------------------------------------------- ----------------------------- --------------- ----------- ------------------------------------------------------------ --- ------------- ------------------- ----------------------------- 
6      EmbeddedNetV1_width0_25_conv2d_14_clip_by_value_Minimum_y (Placeholder, )    []                            1/1                                                                                        | +3(+300.0%)   +8(+100.0%)         eltwise_integer/min_oi8[7]    
       eltwise_6 (Eltwise, MINIMUM)                                                 [b:1,h:1,h:1,w:1,c:8]                                   8                                                     conv2d_5   |               -8(-100.0%)         
                                                                                                                                                 EmbeddedNetV1_width0_25_conv2d_14_clip_by_value_Minimum_y   | 
------ ---------------------------------------------------------------------------- ----------------------------- --------------- ----------- ------------------------------------------------------------ --- ------------- ------------------- ----------------------------- 
7      nl_7 (Nonlinearity, RELU)                                                    [b:1,h:1,h:1,w:1,c:8]                                   8                                                    eltwise_6   |               -8(-100.0%)         
------ ---------------------------------------------------------------------------- ----------------------------- --------------- ----------- ------------------------------------------------------------ --- ------------- ------------------- ----------------------------- 
8      eltwise_8 (Eltwise, MUL)                                                     [b:1,h:56,h:56,w:56,c:8]                           25,088                                                      nl_2_nl   |                                   eltwise_integer/mul_oi8[8]    
                                                                                                                                                                                                      nl_7   | 
------ ---------------------------------------------------------------------------- ----------------------------- --------------- ----------- ------------------------------------------------------------ --- ------------- ------------------- ----------------------------- 
9      conv2d_9 (Conv2D, CONV_2D)                                                   [b:1,h:56,h:56,w:56,c:16]     144/192             401,424                                                    eltwise_8   |                                   conv2d_oi8[9]                 
       nl_9_nl (Nonlinearity, CONV_2D)                                              [b:1,h:56,h:56,w:56,c:16]                          50,176                                                     conv2d_9   |               -50,176(-100.0%)    
------ ---------------------------------------------------------------------------- ----------------------------- --------------- ----------- ------------------------------------------------------------ --- ------------- ------------------- ----------------------------- 
10     conv2d_10 (Conv2D, CONV_2D)                                                  [b:1,h:56,h:56,w:56,c:8]      136/160             401,416                                                      nl_9_nl   |                                   conv2d_oi8[10]                
------ ---------------------------------------------------------------------------- ----------------------------- --------------- ----------- ------------------------------------------------------------ --- ------------- ------------------- ----------------------------- 
11     conv2d_11 (Conv2D, CONV_2D)                                                  [b:1,h:28,h:28,w:28,c:16]     1,168/1,216         903,184                                                    conv2d_10   |                                   pad_oi8/conv2d_oi8[11, 12]    
       nl_11_nl (Nonlinearity, CONV_2D)                                             [b:1,h:28,h:28,w:28,c:16]                          12,544                                                    conv2d_11   |               -12,544(-100.0%)    
------ ---------------------------------------------------------------------------- ----------------------------- --------------- ----------- ------------------------------------------------------------ --- ------------- ------------------- ----------------------------- 
12     conv2d_12 (Conv2D, CONV_2D)                                                  [b:1,h:28,h:28,w:28,c:16]     272/320             200,720                                                     nl_11_nl   |                                   conv2d_oi8[13]                
       nl_12_nl (Nonlinearity, CONV_2D)                                             [b:1,h:28,h:28,w:28,c:16]                          12,544                                                    conv2d_12   |               -12,544(-100.0%)    
------ ---------------------------------------------------------------------------- ----------------------------- --------------- ----------- ------------------------------------------------------------ --- ------------- ------------------- ----------------------------- 
13     conv2d_13 (Conv2D, CONV_2D)                                                  [b:1,h:28,h:28,w:28,c:8]      136/160             100,360                                                     nl_12_nl   |                                   conv2d_oi8[14]                
------ ---------------------------------------------------------------------------- ----------------------------- --------------- ----------- ------------------------------------------------------------ --- ------------- ------------------- ----------------------------- 
14     conv2d_14 (Conv2D, CONV_2D)                                                  [b:1,h:28,h:28,w:28,c:24]     1,752/1,824       1,354,776                                                    conv2d_13   |                                   pad_oi8/conv2d_oi8[15, 16]    
       nl_14_nl (Nonlinearity, CONV_2D)                                             [b:1,h:28,h:28,w:28,c:24]                          18,816                                                    conv2d_14   |               -18,816(-100.0%)    
------ ---------------------------------------------------------------------------- ----------------------------- --------------- ----------- ------------------------------------------------------------ --- ------------- ------------------- ----------------------------- 
15     conv2d_15 (Conv2D, CONV_2D)                                                  [b:1,h:28,h:28,w:28,c:16]     400/448             301,072                                                     nl_14_nl   |                                   conv2d_oi8[17]                
       nl_15_nl (Nonlinearity, CONV_2D)                                             [b:1,h:28,h:28,w:28,c:16]                          12,544                                                    conv2d_15   |               -12,544(-100.0%)    
------ ---------------------------------------------------------------------------- ----------------------------- --------------- ----------- ------------------------------------------------------------ --- ------------- ------------------- ----------------------------- 
16     conv2d_16 (Conv2D, CONV_2D)                                                  [b:1,h:28,h:28,w:28,c:8]      136/160             100,360                                                     nl_15_nl   |                                   conv2d_oi8[18]                
------ ---------------------------------------------------------------------------- ----------------------------- --------------- ----------- ------------------------------------------------------------ --- ------------- ------------------- ----------------------------- 
17     eltwise_17 (Eltwise, ADD)                                                    [b:1,h:28,h:28,w:28,c:8]                            6,272                                                    conv2d_13   |                                   eltwise_integer/sum_oi8[19]   
                                                                                                                                                                                                 conv2d_16   | 
------ ---------------------------------------------------------------------------- ----------------------------- --------------- ----------- ------------------------------------------------------------ --- ------------- ------------------- ----------------------------- 
18     conv2d_18 (Conv2D, CONV_2D)                                                  [b:1,h:28,h:28,w:28,c:24]     216/288             150,552                                                   eltwise_17   |                                   conv2d_oi8[20]                
       nl_18_nl (Nonlinearity, CONV_2D)                                             [b:1,h:28,h:28,w:28,c:24]                          18,816                                                    conv2d_18   |               -18,816(-100.0%)    
------ ---------------------------------------------------------------------------- ----------------------------- --------------- ----------- ------------------------------------------------------------ --- ------------- ------------------- ----------------------------- 
19     conv2d_19 (Conv2D, DEPTHWISE_CONV_2D)                                        [b:1,h:14,h:14,w:14,c:24]     624/696             117,624                                                     nl_18_nl   |                                   conv2d_oi8[21]                
       nl_19_nl (Nonlinearity, DEPTHWISE_CONV_2D)                                   [b:1,h:14,h:14,w:14,c:24]                           4,704                                                    conv2d_19   |               -4,704(-100.0%)     
------ ---------------------------------------------------------------------------- ----------------------------- --------------- ----------- ------------------------------------------------------------ --- ------------- ------------------- ----------------------------- 
20     pool_20 (Pool, AVERAGE_POOL_2D)                                              [b:1,h:1,h:1,w:1,c:24]                              4,704                                                     nl_19_nl   |                                   pool_oi8[22]                  
------ ---------------------------------------------------------------------------- ----------------------------- --------------- ----------- ------------------------------------------------------------ --- ------------- ------------------- ----------------------------- 
21     conv2d_21 (Conv2D, CONV_2D)                                                  [b:1,h:1,h:1,w:1,c:6]         150/168                 150                                                      pool_20   |                                   conv2d_oi8[23]                
       nl_21_nl (Nonlinearity, CONV_2D)                                             [b:1,h:1,h:1,w:1,c:6]                                   6                                                    conv2d_21   |               -6(-100.0%)         
------ ---------------------------------------------------------------------------- ----------------------------- --------------- ----------- ------------------------------------------------------------ --- ------------- ------------------- ----------------------------- 
22     conv2d_22 (Conv2D, CONV_2D)                                                  [b:1,h:1,h:1,w:1,c:24]        168/240                 168                                                     nl_21_nl   |                                   conv2d_oi8[24]                
------ ---------------------------------------------------------------------------- ----------------------------- --------------- ----------- ------------------------------------------------------------ --- ------------- ------------------- ----------------------------- 
23     EmbeddedNetV1_width0_25_conv2d_14_clip_by_value_Minimum_y1 (Placeholder, )   []                            1/1                                                                                        | +3(+300.0%)   +24(+100.0%)        eltwise_integer/min_oi8[25]   
       eltwise_23 (Eltwise, MINIMUM)                                                [b:1,h:1,h:1,w:1,c:24]                                 24                                                    conv2d_22   |               -24(-100.0%)        
                                                                                                                                                EmbeddedNetV1_width0_25_conv2d_14_clip_by_value_Minimum_y1   | 
------ ---------------------------------------------------------------------------- ----------------------------- --------------- ----------- ------------------------------------------------------------ --- ------------- ------------------- ----------------------------- 
24     nl_24 (Nonlinearity, RELU)                                                   [b:1,h:1,h:1,w:1,c:24]                                 24                                                   eltwise_23   |               -24(-100.0%)        
------ ---------------------------------------------------------------------------- ----------------------------- --------------- ----------- ------------------------------------------------------------ --- ------------- ------------------- ----------------------------- 
25     eltwise_25 (Eltwise, MUL)                                                    [b:1,h:14,h:14,w:14,c:24]                           4,704                                                     nl_19_nl   |                                   eltwise_integer/mul_oi8[26]   
                                                                                                                                                                                                     nl_24   | 
------ ---------------------------------------------------------------------------- ----------------------------- --------------- ----------- ------------------------------------------------------------ --- ------------- ------------------- ----------------------------- 
26     conv2d_26 (Conv2D, CONV_2D)                                                  [b:1,h:14,h:14,w:14,c:8]      200/224              37,640                                                   eltwise_25   |                                   conv2d_oi8[27]                
------ ---------------------------------------------------------------------------- ----------------------------- --------------- ----------- ------------------------------------------------------------ --- ------------- ------------------- ----------------------------- 
27     conv2d_27 (Conv2D, CONV_2D)                                                  [b:1,h:14,h:14,w:14,c:48]     432/576              75,312                                                    conv2d_26   |                                   conv2d_oi8[28]                
       nl_27_nl (Nonlinearity, CONV_2D)                                             [b:1,h:14,h:14,w:14,c:48]                           9,408                                                    conv2d_27   |               -9,408(-100.0%)     
------ ---------------------------------------------------------------------------- ----------------------------- --------------- ----------- ------------------------------------------------------------ --- ------------- ------------------- ----------------------------- 
28     conv2d_28 (Conv2D, DEPTHWISE_CONV_2D)                                        [b:1,h:14,h:14,w:14,c:48]     1,248/1,392         235,248                                                     nl_27_nl   |                                   conv2d_oi8[29]                
       nl_28_nl (Nonlinearity, DEPTHWISE_CONV_2D)                                   [b:1,h:14,h:14,w:14,c:48]                           9,408                                                    conv2d_28   |               -9,408(-100.0%)     
------ ---------------------------------------------------------------------------- ----------------------------- --------------- ----------- ------------------------------------------------------------ --- ------------- ------------------- ----------------------------- 
29     pool_29 (Pool, AVERAGE_POOL_2D)                                              [b:1,h:1,h:1,w:1,c:48]                              9,408                                                     nl_28_nl   |                                   pool_oi8[30]                  
------ ---------------------------------------------------------------------------- ----------------------------- --------------- ----------- ------------------------------------------------------------ --- ------------- ------------------- ----------------------------- 
30     conv2d_30 (Conv2D, CONV_2D)                                                  [b:1,h:1,h:1,w:1,c:12]        588/624                 588                                                      pool_29   |                                   conv2d_oi8[31]                
       nl_30_nl (Nonlinearity, CONV_2D)                                             [b:1,h:1,h:1,w:1,c:12]                                 12                                                    conv2d_30   |               -12(-100.0%)        
------ ---------------------------------------------------------------------------- ----------------------------- --------------- ----------- ------------------------------------------------------------ --- ------------- ------------------- ----------------------------- 
31     conv2d_31 (Conv2D, CONV_2D)                                                  [b:1,h:1,h:1,w:1,c:48]        624/768                 624                                                     nl_30_nl   |                                   conv2d_oi8[32]                
------ ---------------------------------------------------------------------------- ----------------------------- --------------- ----------- ------------------------------------------------------------ --- ------------- ------------------- ----------------------------- 
32     EmbeddedNetV1_width0_25_conv2d_14_clip_by_value_Minimum_y2 (Placeholder, )   []                            1/1                                                                                        | +3(+300.0%)   +48(+100.0%)        eltwise_integer/min_oi8[33]   
       eltwise_32 (Eltwise, MINIMUM)                                                [b:1,h:1,h:1,w:1,c:48]                                 48                                                    conv2d_31   |               -48(-100.0%)        
                                                                                                                                                EmbeddedNetV1_width0_25_conv2d_14_clip_by_value_Minimum_y2   | 
------ ---------------------------------------------------------------------------- ----------------------------- --------------- ----------- ------------------------------------------------------------ --- ------------- ------------------- ----------------------------- 
33     nl_33 (Nonlinearity, RELU)                                                   [b:1,h:1,h:1,w:1,c:48]                                 48                                                   eltwise_32   |                                   nl_oi8[34]                    
------ ---------------------------------------------------------------------------- ----------------------------- --------------- ----------- ------------------------------------------------------------ --- ------------- ------------------- ----------------------------- 
34     eltwise_34 (Eltwise, MUL)                                                    [b:1,h:14,h:14,w:14,c:48]                           9,408                                                     nl_28_nl   |                                   eltwise_integer/mul_oi8[35]   
                                                                                                                                                                                                     nl_33   | 
------ ---------------------------------------------------------------------------- ----------------------------- --------------- ----------- ------------------------------------------------------------ --- ------------- ------------------- ----------------------------- 
35     conv2d_35 (Conv2D, CONV_2D)                                                  [b:1,h:14,h:14,w:14,c:8]      392/416              75,272                                                   eltwise_34   |                                   conv2d_oi8[36]                
------ ---------------------------------------------------------------------------- ----------------------------- --------------- ----------- ------------------------------------------------------------ --- ------------- ------------------- ----------------------------- 
36     eltwise_36 (Eltwise, ADD)                                                    [b:1,h:14,h:14,w:14,c:8]                            1,568                                                    conv2d_26   |                                   eltwise_integer/sum_oi8[37]   
                                                                                                                                                                                                 conv2d_35   | 
------ ---------------------------------------------------------------------------- ----------------------------- --------------- ----------- ------------------------------------------------------------ --- ------------- ------------------- ----------------------------- 
37     conv2d_37 (Conv2D, CONV_2D)                                                  [b:1,h:14,h:14,w:14,c:32]     288/384              50,208                                                   eltwise_36   |                                   conv2d_oi8[38]                
       nl_37_nl (Nonlinearity, CONV_2D)                                             [b:1,h:14,h:14,w:14,c:32]                           6,272                                                    conv2d_37   |               -6,272(-100.0%)     
------ ---------------------------------------------------------------------------- ----------------------------- --------------- ----------- ------------------------------------------------------------ --- ------------- ------------------- ----------------------------- 
38     conv2d_38 (Conv2D, DEPTHWISE_CONV_2D)                                        [b:1,h:14,h:14,w:14,c:32]     832/928             156,832                                                     nl_37_nl   |                                   conv2d_oi8[39]                
       nl_38_nl (Nonlinearity, DEPTHWISE_CONV_2D)                                   [b:1,h:14,h:14,w:14,c:32]                           6,272                                                    conv2d_38   |               -6,272(-100.0%)     
------ ---------------------------------------------------------------------------- ----------------------------- --------------- ----------- ------------------------------------------------------------ --- ------------- ------------------- ----------------------------- 
39     pool_39 (Pool, AVERAGE_POOL_2D)                                              [b:1,h:1,h:1,w:1,c:32]                              6,272                                                     nl_38_nl   |                                   pool_oi8[40]                  
------ ---------------------------------------------------------------------------- ----------------------------- --------------- ----------- ------------------------------------------------------------ --- ------------- ------------------- ----------------------------- 
40     conv2d_40 (Conv2D, CONV_2D)                                                  [b:1,h:1,h:1,w:1,c:8]         264/288                 264                                                      pool_39   |                                   conv2d_oi8[41]                
       nl_40_nl (Nonlinearity, CONV_2D)                                             [b:1,h:1,h:1,w:1,c:8]                                   8                                                    conv2d_40   |               -8(-100.0%)         
------ ---------------------------------------------------------------------------- ----------------------------- --------------- ----------- ------------------------------------------------------------ --- ------------- ------------------- ----------------------------- 
41     conv2d_41 (Conv2D, CONV_2D)                                                  [b:1,h:1,h:1,w:1,c:32]        288/384                 288                                                     nl_40_nl   |                                   conv2d_oi8[42]                
------ ---------------------------------------------------------------------------- ----------------------------- --------------- ----------- ------------------------------------------------------------ --- ------------- ------------------- ----------------------------- 
42     EmbeddedNetV1_width0_25_conv2d_14_clip_by_value_Minimum_y3 (Placeholder, )   []                            1/1                                                                                        | +3(+300.0%)   +32(+100.0%)        eltwise_integer/min_oi8[43]   
       eltwise_42 (Eltwise, MINIMUM)                                                [b:1,h:1,h:1,w:1,c:32]                                 32                                                    conv2d_41   |               -32(-100.0%)        
                                                                                                                                                EmbeddedNetV1_width0_25_conv2d_14_clip_by_value_Minimum_y3   | 
------ ---------------------------------------------------------------------------- ----------------------------- --------------- ----------- ------------------------------------------------------------ --- ------------- ------------------- ----------------------------- 
43     nl_43 (Nonlinearity, RELU)                                                   [b:1,h:1,h:1,w:1,c:32]                                 32                                                   eltwise_42   |               -32(-100.0%)        
------ ---------------------------------------------------------------------------- ----------------------------- --------------- ----------- ------------------------------------------------------------ --- ------------- ------------------- ----------------------------- 
44     eltwise_44 (Eltwise, MUL)                                                    [b:1,h:14,h:14,w:14,c:32]                           6,272                                                     nl_38_nl   |                                   eltwise_integer/mul_oi8[44]   
                                                                                                                                                                                                     nl_43   | 
------ ---------------------------------------------------------------------------- ----------------------------- --------------- ----------- ------------------------------------------------------------ --- ------------- ------------------- ----------------------------- 
45     conv2d_45 (Conv2D, CONV_2D)                                                  [b:1,h:14,h:14,w:14,c:8]      264/288              50,184                                                   eltwise_44   |                                   conv2d_oi8[45]                
------ ---------------------------------------------------------------------------- ----------------------------- --------------- ----------- ------------------------------------------------------------ --- ------------- ------------------- ----------------------------- 
46     eltwise_46 (Eltwise, ADD)                                                    [b:1,h:14,h:14,w:14,c:8]                            1,568                                                   eltwise_36   |                                   eltwise_integer/sum_oi8[46]   
                                                                                                                                                                                                 conv2d_45   | 
------ ---------------------------------------------------------------------------- ----------------------------- --------------- ----------- ------------------------------------------------------------ --- ------------- ------------------- ----------------------------- 
47     conv2d_47 (Conv2D, CONV_2D)                                                  [b:1,h:14,h:14,w:14,c:64]     576/768             100,416                                                   eltwise_46   |                                   conv2d_oi8[47]                
       nl_47_nl (Nonlinearity, CONV_2D)                                             [b:1,h:14,h:14,w:14,c:64]                          12,544                                                    conv2d_47   |               -12,544(-100.0%)    
------ ---------------------------------------------------------------------------- ----------------------------- --------------- ----------- ------------------------------------------------------------ --- ------------- ------------------- ----------------------------- 
48     conv2d_48 (Conv2D, DEPTHWISE_CONV_2D)                                        [b:1,h:7,h:7,w:7,c:64]        1,664/1,856          78,464                                                     nl_47_nl   |                                   conv2d_oi8[48]                
       nl_48_nl (Nonlinearity, DEPTHWISE_CONV_2D)                                   [b:1,h:7,h:7,w:7,c:64]                              3,136                                                    conv2d_48   |               -3,136(-100.0%)     
------ ---------------------------------------------------------------------------- ----------------------------- --------------- ----------- ------------------------------------------------------------ --- ------------- ------------------- ----------------------------- 
49     pool_49 (Pool, AVERAGE_POOL_2D)                                              [b:1,h:1,h:1,w:1,c:64]                              3,136                                                     nl_48_nl   |                                   pool_oi8[49]                  
------ ---------------------------------------------------------------------------- ----------------------------- --------------- ----------- ------------------------------------------------------------ --- ------------- ------------------- ----------------------------- 
50     conv2d_50 (Conv2D, CONV_2D)                                                  [b:1,h:1,h:1,w:1,c:16]        1,040/1,088           1,040                                                      pool_49   |                                   conv2d_oi8[50]                
       nl_50_nl (Nonlinearity, CONV_2D)                                             [b:1,h:1,h:1,w:1,c:16]                                 16                                                    conv2d_50   |               -16(-100.0%)        
------ ---------------------------------------------------------------------------- ----------------------------- --------------- ----------- ------------------------------------------------------------ --- ------------- ------------------- ----------------------------- 
51     conv2d_51 (Conv2D, CONV_2D)                                                  [b:1,h:1,h:1,w:1,c:64]        1,088/1,280           1,088                                                     nl_50_nl   |                                   conv2d_oi8[51]                
------ ---------------------------------------------------------------------------- ----------------------------- --------------- ----------- ------------------------------------------------------------ --- ------------- ------------------- ----------------------------- 
52     EmbeddedNetV1_width0_25_conv2d_14_clip_by_value_Minimum_y4 (Placeholder, )   []                            1/1                                                                                        | +3(+300.0%)   +64(+100.0%)        eltwise_integer/min_oi8[52]   
       eltwise_52 (Eltwise, MINIMUM)                                                [b:1,h:1,h:1,w:1,c:64]                                 64                                                    conv2d_51   |               -64(-100.0%)        
                                                                                                                                                EmbeddedNetV1_width0_25_conv2d_14_clip_by_value_Minimum_y4   | 
------ ---------------------------------------------------------------------------- ----------------------------- --------------- ----------- ------------------------------------------------------------ --- ------------- ------------------- ----------------------------- 
53     nl_53 (Nonlinearity, RELU)                                                   [b:1,h:1,h:1,w:1,c:64]                                 64                                                   eltwise_52   |                                   nl_oi8[53]                    
------ ---------------------------------------------------------------------------- ----------------------------- --------------- ----------- ------------------------------------------------------------ --- ------------- ------------------- ----------------------------- 
54     eltwise_54 (Eltwise, MUL)                                                    [b:1,h:7,h:7,w:7,c:64]                              3,136                                                     nl_48_nl   |                                   eltwise_integer/mul_oi8[54]   
                                                                                                                                                                                                     nl_53   | 
------ ---------------------------------------------------------------------------- ----------------------------- --------------- ----------- ------------------------------------------------------------ --- ------------- ------------------- ----------------------------- 
55     conv2d_55 (Conv2D, CONV_2D)                                                  [b:1,h:7,h:7,w:7,c:24]        1,560/1,632          75,288                                                   eltwise_54   |                                   conv2d_oi8[55]                
------ ---------------------------------------------------------------------------- ----------------------------- --------------- ----------- ------------------------------------------------------------ --- ------------- ------------------- ----------------------------- 
56     conv2d_56 (Conv2D, CONV_2D)                                                  [b:1,h:7,h:7,w:7,c:80]        2,000/2,240          94,160                                                    conv2d_55   |                                   conv2d_oi8[56]                
       nl_56_nl (Nonlinearity, CONV_2D)                                             [b:1,h:7,h:7,w:7,c:80]                              3,920                                                    conv2d_56   |               -3,920(-100.0%)     
------ ---------------------------------------------------------------------------- ----------------------------- --------------- ----------- ------------------------------------------------------------ --- ------------- ------------------- ----------------------------- 
57     conv2d_57 (Conv2D, DEPTHWISE_CONV_2D)                                        [b:1,h:7,h:7,w:7,c:80]        2,080/2,320          98,080                                                     nl_56_nl   |                                   conv2d_oi8[57]                
       nl_57_nl (Nonlinearity, DEPTHWISE_CONV_2D)                                   [b:1,h:7,h:7,w:7,c:80]                              3,920                                                    conv2d_57   |               -3,920(-100.0%)     
------ ---------------------------------------------------------------------------- ----------------------------- --------------- ----------- ------------------------------------------------------------ --- ------------- ------------------- ----------------------------- 
58     pool_58 (Pool, AVERAGE_POOL_2D)                                              [b:1,h:1,h:1,w:1,c:80]                              3,920                                                     nl_57_nl   |                                   pool_oi8[58]                  
------ ---------------------------------------------------------------------------- ----------------------------- --------------- ----------- ------------------------------------------------------------ --- ------------- ------------------- ----------------------------- 
59     conv2d_59 (Conv2D, CONV_2D)                                                  [b:1,h:1,h:1,w:1,c:20]        1,620/1,680           1,620                                                      pool_58   |                                   conv2d_oi8[59]                
       nl_59_nl (Nonlinearity, CONV_2D)                                             [b:1,h:1,h:1,w:1,c:20]                                 20                                                    conv2d_59   |               -20(-100.0%)        
------ ---------------------------------------------------------------------------- ----------------------------- --------------- ----------- ------------------------------------------------------------ --- ------------- ------------------- ----------------------------- 
60     conv2d_60 (Conv2D, CONV_2D)                                                  [b:1,h:1,h:1,w:1,c:80]        1,680/1,920           1,680                                                     nl_59_nl   |                                   conv2d_oi8[60]                
------ ---------------------------------------------------------------------------- ----------------------------- --------------- ----------- ------------------------------------------------------------ --- ------------- ------------------- ----------------------------- 
61     EmbeddedNetV1_width0_25_conv2d_14_clip_by_value_Minimum_y5 (Placeholder, )   []                            1/1                                                                                        | +3(+300.0%)   +80(+100.0%)        eltwise_integer/min_oi8[61]   
       eltwise_61 (Eltwise, MINIMUM)                                                [b:1,h:1,h:1,w:1,c:80]                                 80                                                    conv2d_60   |               -80(-100.0%)        
                                                                                                                                                EmbeddedNetV1_width0_25_conv2d_14_clip_by_value_Minimum_y5   | 
------ ---------------------------------------------------------------------------- ----------------------------- --------------- ----------- ------------------------------------------------------------ --- ------------- ------------------- ----------------------------- 
62     nl_62 (Nonlinearity, RELU)                                                   [b:1,h:1,h:1,w:1,c:80]                                 80                                                   eltwise_61   |                                   nl_oi8[62]                    
------ ---------------------------------------------------------------------------- ----------------------------- --------------- ----------- ------------------------------------------------------------ --- ------------- ------------------- ----------------------------- 
63     eltwise_63 (Eltwise, MUL)                                                    [b:1,h:7,h:7,w:7,c:80]                              3,920                                                     nl_57_nl   |                                   eltwise_integer/mul_oi8[63]   
                                                                                                                                                                                                     nl_62   | 
------ ---------------------------------------------------------------------------- ----------------------------- --------------- ----------- ------------------------------------------------------------ --- ------------- ------------------- ----------------------------- 
64     conv2d_64 (Conv2D, CONV_2D)                                                  [b:1,h:7,h:7,w:7,c:24]        1,944/2,016          94,104                                                   eltwise_63   |                                   conv2d_oi8[64]                
------ ---------------------------------------------------------------------------- ----------------------------- --------------- ----------- ------------------------------------------------------------ --- ------------- ------------------- ----------------------------- 
65     eltwise_65 (Eltwise, ADD)                                                    [b:1,h:7,h:7,w:7,c:24]                              1,176                                                    conv2d_55   |                                   eltwise_integer/sum_oi8[65]   
                                                                                                                                                                                                 conv2d_64   | 
------ ---------------------------------------------------------------------------- ----------------------------- --------------- ----------- ------------------------------------------------------------ --- ------------- ------------------- ----------------------------- 
66     conv2d_66 (Conv2D, CONV_2D)                                                  [b:1,h:7,h:7,w:7,c:120]       3,000/3,360         141,240                                                   eltwise_65   |                                   conv2d_oi8[66]                
       nl_66_nl (Nonlinearity, CONV_2D)                                             [b:1,h:7,h:7,w:7,c:120]                             5,880                                                    conv2d_66   |               -5,880(-100.0%)     
------ ---------------------------------------------------------------------------- ----------------------------- --------------- ----------- ------------------------------------------------------------ --- ------------- ------------------- ----------------------------- 
67     conv2d_67 (Conv2D, DEPTHWISE_CONV_2D)                                        [b:1,h:7,h:7,w:7,c:120]       3,120/3,480         147,120                                                     nl_66_nl   |                                   conv2d_oi8[67]                
       nl_67_nl (Nonlinearity, DEPTHWISE_CONV_2D)                                   [b:1,h:7,h:7,w:7,c:120]                             5,880                                                    conv2d_67   |               -5,880(-100.0%)     
------ ---------------------------------------------------------------------------- ----------------------------- --------------- ----------- ------------------------------------------------------------ --- ------------- ------------------- ----------------------------- 
68     pool_68 (Pool, AVERAGE_POOL_2D)                                              [b:1,h:1,h:1,w:1,c:120]                             5,880                                                     nl_67_nl   |                                   pool_oi8[68]                  
------ ---------------------------------------------------------------------------- ----------------------------- --------------- ----------- ------------------------------------------------------------ --- ------------- ------------------- ----------------------------- 
69     conv2d_69 (Conv2D, CONV_2D)                                                  [b:1,h:1,h:1,w:1,c:30]        3,630/3,720           3,630                                                      pool_68   |                                   conv2d_oi8[69]                
       nl_69_nl (Nonlinearity, CONV_2D)                                             [b:1,h:1,h:1,w:1,c:30]                                 30                                                    conv2d_69   |               -30(-100.0%)        
------ ---------------------------------------------------------------------------- ----------------------------- --------------- ----------- ------------------------------------------------------------ --- ------------- ------------------- ----------------------------- 
70     conv2d_70 (Conv2D, CONV_2D)                                                  [b:1,h:1,h:1,w:1,c:120]       3,720/4,080           3,720                                                     nl_69_nl   |                                   conv2d_oi8[70]                
------ ---------------------------------------------------------------------------- ----------------------------- --------------- ----------- ------------------------------------------------------------ --- ------------- ------------------- ----------------------------- 
71     EmbeddedNetV1_width0_25_conv2d_14_clip_by_value_Minimum_y6 (Placeholder, )   []                            1/1                                                                                        | +3(+300.0%)   +120(+100.0%)       eltwise_integer/min_oi8[71]   
       eltwise_71 (Eltwise, MINIMUM)                                                [b:1,h:1,h:1,w:1,c:120]                               120                                                    conv2d_70   |               -120(-100.0%)       
                                                                                                                                                EmbeddedNetV1_width0_25_conv2d_14_clip_by_value_Minimum_y6   | 
------ ---------------------------------------------------------------------------- ----------------------------- --------------- ----------- ------------------------------------------------------------ --- ------------- ------------------- ----------------------------- 
72     nl_72 (Nonlinearity, RELU)                                                   [b:1,h:1,h:1,w:1,c:120]                               120                                                   eltwise_71   |                                   nl_oi8[72]                    
------ ---------------------------------------------------------------------------- ----------------------------- --------------- ----------- ------------------------------------------------------------ --- ------------- ------------------- ----------------------------- 
73     eltwise_73 (Eltwise, MUL)                                                    [b:1,h:7,h:7,w:7,c:120]                             5,880                                                     nl_67_nl   |                                   eltwise_integer/mul_oi8[73]   
                                                                                                                                                                                                     nl_72   | 
------ ---------------------------------------------------------------------------- ----------------------------- --------------- ----------- ------------------------------------------------------------ --- ------------- ------------------- ----------------------------- 
74     conv2d_74 (Conv2D, CONV_2D)                                                  [b:1,h:7,h:7,w:7,c:24]        2,904/2,976         141,144                                                   eltwise_73   |                                   conv2d_oi8[74]                
------ ---------------------------------------------------------------------------- ----------------------------- --------------- ----------- ------------------------------------------------------------ --- ------------- ------------------- ----------------------------- 
75     eltwise_75 (Eltwise, ADD)                                                    [b:1,h:7,h:7,w:7,c:24]                              1,176                                                   eltwise_65   |                                   eltwise_integer/sum_oi8[75]   
                                                                                                                                                                                                 conv2d_74   | 
------ ---------------------------------------------------------------------------- ----------------------------- --------------- ----------- ------------------------------------------------------------ --- ------------- ------------------- ----------------------------- 
76     conv2d_76 (Conv2D, CONV_2D)                                                  [b:1,h:7,h:7,w:7,c:120]       3,000/3,360         141,240                                                   eltwise_75   |                                   conv2d_oi8[76]                
       nl_76_nl (Nonlinearity, CONV_2D)                                             [b:1,h:7,h:7,w:7,c:120]                             5,880                                                    conv2d_76   |               -5,880(-100.0%)     
------ ---------------------------------------------------------------------------- ----------------------------- --------------- ----------- ------------------------------------------------------------ --- ------------- ------------------- ----------------------------- 
77     pool_77 (Pool, MEAN)                                                         [b:1,h:1,h:1,w:1,c:120]                             5,880                                                     nl_76_nl   |                                   pool_oi8[77]                  
------ ---------------------------------------------------------------------------- ----------------------------- --------------- ----------- ------------------------------------------------------------ --- ------------- ------------------- ----------------------------- 
78     conv2d_78 (Conv2D, CONV_2D)                                                  [b:1,h:1,h:1,w:1,c:240]       29,040/29,760        29,040                                                      pool_77   |                                   conv2d_oi8[78]                
       nl_78_nl (Nonlinearity, CONV_2D)                                             [b:1,h:1,h:1,w:1,c:240]                               240                                                    conv2d_78   |               -240(-100.0%)       
------ ---------------------------------------------------------------------------- ----------------------------- --------------- ----------- ------------------------------------------------------------ --- ------------- ------------------- ----------------------------- 
79     conv2d_79 (Conv2D, CONV_2D)                                                  [b:1,h:1,h:1,w:1,c:4]         964/976                 964                                                     nl_78_nl   |                                   conv2d_oi8[79]                
------ ---------------------------------------------------------------------------- ----------------------------- --------------- ----------- ------------------------------------------------------------ --- ------------- ------------------- ----------------------------- 
80     reshape_80 (Reshape, RESHAPE)                                                [b:1,c:4]                                                                                                    conv2d_79   |                                   
------ ---------------------------------------------------------------------------- ----------------------------- --------------- ----------- ------------------------------------------------------------ --- ------------- ------------------- ----------------------------- 
81     nl_81 (Nonlinearity, SOFTMAX)                                                [b:1,c:4]                                              60                                                   reshape_80   |                                   nl_oi8[80]                    
------ ---------------------------------------------------------------------------- ----------------------------- --------------- ----------- ------------------------------------------------------------ --- ------------- ------------------- ----------------------------- 
82     conversion_82 (Conversion, DEQUANTIZE)                                       [b:1,c:4]                                               8                                                        nl_81   |                                   converter_of32[o][81]         
------ ---------------------------------------------------------------------------- ----------------------------- --------------- ----------- ------------------------------------------------------------ --- ------------- ------------------- ----------------------------- 
model/c-model: macc=11,148,972/10,820,470 -328,502(-2.9%) weights=81,591/81,612 +21(+0.0%) activations=--/155,704 io=--/0



Generated C-graph summary
------------------------------------------------------------------------------------------------------------------------
model name            : quantized_model
c-name                : network
c-node #              : 82
c-array #             : 247
activations size      : 155704 (1 segment)
weights size          : 81612 (1 segment)
macc                  : 10820470
inputs                : ['serving_default_input_10_output']
outputs               : ['conversion_82_output']

C-Arrays (247)
------ ------------------------------------------------------------ --------------- ------------------------- --------------- -------------- --------- 
c_id   name (*_array)                                               item/size       domain/mem-pool           c-type          fmt            comment   
------ ------------------------------------------------------------ --------------- ------------------------- --------------- -------------- --------- 
0      conv2d_38_output                                             6272/6272       activations/**default**   int8_t          sa8                      
1      pool_39_output                                               32/32           activations/**default**   int8_t          sa8                      
2      conv2d_40_output                                             8/8             activations/**default**   int8_t          sa8                      
3      conv2d_28_scratch0                                           4081/4081       activations/**default**   int8_t          s8                       
4      conv2d_41_output                                             32/32           activations/**default**   int8_t          sa8                      
5      eltwise_42_output                                            32/32           activations/**default**   int8_t          sa8                      
6      conv2d_28_scratch1                                           9408/9408       activations/**default**   int8_t          sa8                      
7      eltwise_44_output                                            6272/6272       activations/**default**   int8_t          sa8                      
8      conv2d_45_output                                             1568/1568       activations/**default**   int8_t          ss8                      
9      eltwise_46_output                                            1568/1568       activations/**default**   int8_t          ss8                      
10     conv2d_30_scratch0                                           312/312         activations/**default**   int8_t          s8                       
11     conv2d_47_output                                             12544/12544     activations/**default**   int8_t          sa8                      
12     conv2d_48_output                                             3136/3136       activations/**default**   int8_t          sa8                      
13     pool_49_output                                               64/64           activations/**default**   int8_t          sa8                      
14     conv2d_31_scratch0                                           528/528         activations/**default**   int8_t          s8                       
15     conv2d_50_output                                             16/16           activations/**default**   int8_t          sa8                      
16     conv2d_51_output                                             64/64           activations/**default**   int8_t          sa8                      
17     eltwise_52_output                                            64/64           activations/**default**   int8_t          sa8                      
18     conv2d_35_scratch0                                           272/272         activations/**default**   int8_t          s8                       
19     nl_53_output                                                 64/64           activations/**default**   int8_t          sa8                      
20     eltwise_54_output                                            3136/3136       activations/**default**   int8_t          sa8                      
21     conv2d_55_output                                             1176/1176       activations/**default**   int8_t          sa8                      
22     conv2d_37_scratch0                                           352/352         activations/**default**   int8_t          s8                       
23     conv2d_56_output                                             3920/3920       activations/**default**   int8_t          sa8                      
24     conv2d_57_output                                             3920/3920       activations/**default**   int8_t          sa8                      
25     conv2d_37_scratch1                                           6272/6272       activations/**default**   int8_t          sa8                      
26     pool_58_output                                               80/80           activations/**default**   int8_t          sa8                      
27     conv2d_59_output                                             20/20           activations/**default**   int8_t          sa8                      
28     conv2d_60_output                                             80/80           activations/**default**   int8_t          sa8                      
29     conv2d_38_scratch0                                           2721/2721       activations/**default**   int8_t          s8                       
30     eltwise_61_output                                            80/80           activations/**default**   int8_t          sa8                      
31     nl_62_output                                                 80/80           activations/**default**   int8_t          sa8                      
32     conv2d_38_scratch1                                           6272/6272       activations/**default**   int8_t          sa8                      
33     eltwise_63_output                                            3920/3920       activations/**default**   int8_t          sa8                      
34     conv2d_64_output                                             1176/1176       activations/**default**   int8_t          sa8                      
35     eltwise_65_output                                            1176/1176       activations/**default**   int8_t          sa8                      
36     conv2d_40_scratch0                                           208/208         activations/**default**   int8_t          s8                       
37     conv2d_66_output                                             5880/5880       activations/**default**   int8_t          sa8                      
38     conv2d_67_output                                             5880/5880       activations/**default**   int8_t          sa8                      
39     pool_68_output                                               120/120         activations/**default**   int8_t          sa8                      
40     conv2d_41_scratch0                                           352/352         activations/**default**   int8_t          s8                       
41     conv2d_69_output                                             30/30           activations/**default**   int8_t          sa8                      
42     conv2d_70_output                                             120/120         activations/**default**   int8_t          sa8                      
43     eltwise_71_output                                            120/120         activations/**default**   int8_t          sa8                      
44     conv2d_45_scratch0                                           208/208         activations/**default**   int8_t          s8                       
45     nl_72_output                                                 120/120         activations/**default**   int8_t          sa8                      
46     eltwise_73_output                                            5880/5880       activations/**default**   int8_t          sa8                      
47     conv2d_74_output                                             1176/1176       activations/**default**   int8_t          ss8                      
48     conv2d_47_scratch0                                           672/672         activations/**default**   int8_t          s8                       
49     eltwise_75_output                                            1176/1176       activations/**default**   int8_t          sa8                      
50     conv2d_76_output                                             5880/5880       activations/**default**   int8_t          sa8                      
51     conv2d_47_scratch1                                           12544/12544     activations/**default**   int8_t          sa8                      
52     pool_77_output                                               120/120         activations/**default**   int8_t          sa8                      
53     conv2d_78_output                                             240/240         activations/**default**   int8_t          sa8                      
54     conv2d_79_output                                             4/4             activations/**default**   int8_t          sa8                      
55     conv2d_48_scratch0                                           5441/5441       activations/**default**   int8_t          s8                       
56     nl_81_output                                                 4/4             activations/**default**   int8_t          sa8                      
57     conversion_82_output                                         4/16            activations/**default**   float           float32        /output   
58     conv2d_48_scratch1                                           3136/3136       activations/**default**   int8_t          sa8                      
59     EmbeddedNetV1_width0_25_conv2d_14_clip_by_value_Minimum_y6   1/4             weights/weights           const int8_t    sa8                      
60     EmbeddedNetV1_width0_25_conv2d_14_clip_by_value_Minimum_y5   1/4             weights/weights           const int8_t    sa8                      
61     EmbeddedNetV1_width0_25_conv2d_14_clip_by_value_Minimum_y4   1/4             weights/weights           const int8_t    sa8                      
62     conv2d_50_scratch0                                           416/416         activations/**default**   int8_t          s8                       
63     EmbeddedNetV1_width0_25_conv2d_14_clip_by_value_Minimum_y3   1/4             weights/weights           const int8_t    sa8                      
64     EmbeddedNetV1_width0_25_conv2d_14_clip_by_value_Minimum_y2   1/4             weights/weights           const int8_t    sa8                      
65     EmbeddedNetV1_width0_25_conv2d_14_clip_by_value_Minimum_y1   1/4             weights/weights           const int8_t    sa8                      
66     conv2d_51_scratch0                                           704/704         activations/**default**   int8_t          s8                       
67     EmbeddedNetV1_width0_25_conv2d_14_clip_by_value_Minimum_y    1/4             weights/weights           const int8_t    sa8                      
68     conv2d_1_weights                                             216/216         weights/weights           const int8_t    ss8/ch(8)                
69     conv2d_1_bias                                                8/32            weights/weights           const int32_t   ss32/ch(8)               
70     conv2d_55_scratch0                                           496/496         activations/**default**   int8_t          s8                       
71     conv2d_2_weights                                             576/576         weights/weights           const int8_t    ss8/ch(8)                
72     conv2d_2_bias                                                8/32            weights/weights           const int32_t   ss32/ch(8)               
73     conv2d_56_scratch0                                           896/896         activations/**default**   int8_t          s8                       
74     conv2d_4_weights                                             16/16           weights/weights           const int8_t    ss8/ch(2)                
75     conv2d_56_scratch1                                           3920/3920       activations/**default**   int8_t          sa8                      
76     conv2d_4_bias                                                2/8             weights/weights           const int32_t   ss32/ch(2)               
77     conv2d_5_weights                                             16/16           weights/weights           const int8_t    ss8/ch(8)                
78     conv2d_57_scratch0                                           6801/6801       activations/**default**   int8_t          s8                       
79     conv2d_5_bias                                                8/32            weights/weights           const int32_t   ss32/ch(8)               
80     conv2d_57_scratch1                                           3920/3920       activations/**default**   int8_t          sa8                      
81     conv2d_9_weights                                             128/128         weights/weights           const int8_t    ss8/ch(16)               
82     conv2d_9_bias                                                16/64           weights/weights           const int32_t   ss32/ch(16)              
83     conv2d_59_scratch0                                           520/520         activations/**default**   int8_t          s8                       
84     conv2d_10_weights                                            128/128         weights/weights           const int8_t    ss8/ch(8)                
85     conv2d_10_bias                                               8/32            weights/weights           const int32_t   ss32/ch(8)               
86     conv2d_60_scratch0                                           880/880         activations/**default**   int8_t          s8                       
87     conv2d_11_weights                                            1152/1152       weights/weights           const int8_t    ss8/ch(16)               
88     conv2d_11_bias                                               16/64           weights/weights           const int32_t   ss32/ch(16)              
89     conv2d_64_scratch0                                           560/560         activations/**default**   int8_t          s8                       
90     conv2d_12_weights                                            256/256         weights/weights           const int8_t    ss8/ch(16)               
91     conv2d_12_bias                                               16/64           weights/weights           const int32_t   ss32/ch(16)              
92     conv2d_66_scratch0                                           1296/1296       activations/**default**   int8_t          s8                       
93     conv2d_13_weights                                            128/128         weights/weights           const int8_t    ss8/ch(8)                
94     conv2d_13_bias                                               8/32            weights/weights           const int32_t   ss32/ch(8)               
95     conv2d_66_scratch1                                           5880/5880       activations/**default**   int8_t          sa8                      
96     conv2d_14_weights                                            1728/1728       weights/weights           const int8_t    ss8/ch(24)               
97     conv2d_14_bias                                               24/96           weights/weights           const int32_t   ss32/ch(24)              
98     conv2d_67_scratch0                                           10201/10201     activations/**default**   int8_t          s8                       
99     conv2d_15_weights                                            384/384         weights/weights           const int8_t    ss8/ch(16)               
100    conv2d_67_scratch1                                           5880/5880       activations/**default**   int8_t          sa8                      
101    conv2d_15_bias                                               16/64           weights/weights           const int32_t   ss32/ch(16)              
102    conv2d_16_weights                                            128/128         weights/weights           const int8_t    ss8/ch(8)                
103    conv2d_69_scratch0                                           780/780         activations/**default**   int8_t          s8                       
104    conv2d_16_bias                                               8/32            weights/weights           const int32_t   ss32/ch(8)               
105    conv2d_69_scratch1                                           30/30           activations/**default**   int8_t          sa8                      
106    conv2d_18_weights                                            192/192         weights/weights           const int8_t    ss8/ch(24)               
107    conv2d_18_bias                                               24/96           weights/weights           const int32_t   ss32/ch(24)              
108    conv2d_70_scratch0                                           1320/1320       activations/**default**   int8_t          s8                       
109    conv2d_19_weights                                            600/600         weights/weights           const int8_t    ss8/ch(24)               
110    conv2d_19_bias                                               24/96           weights/weights           const int32_t   ss32/ch(24)              
111    conv2d_74_scratch0                                           720/720         activations/**default**   int8_t          s8                       
112    conv2d_21_weights                                            144/144         weights/weights           const int8_t    ss8/ch(6)                
113    conv2d_21_bias                                               6/24            weights/weights           const int32_t   ss32/ch(6)               
114    conv2d_76_scratch0                                           1296/1296       activations/**default**   int8_t          s8                       
115    conv2d_22_weights                                            144/144         weights/weights           const int8_t    ss8/ch(24)               
116    conv2d_22_bias                                               24/96           weights/weights           const int32_t   ss32/ch(24)              
117    conv2d_76_scratch1                                           5880/5880       activations/**default**   int8_t          sa8                      
118    conv2d_26_weights                                            192/192         weights/weights           const int8_t    ss8/ch(8)                
119    conv2d_26_bias                                               8/32            weights/weights           const int32_t   ss32/ch(8)               
120    conv2d_78_scratch0                                           2880/2880       activations/**default**   int8_t          s8                       
121    conv2d_27_weights                                            384/384         weights/weights           const int8_t    ss8/ch(48)               
122    conv2d_78_scratch1                                           240/240         activations/**default**   int8_t          sa8                      
123    conv2d_27_bias                                               48/192          weights/weights           const int32_t   ss32/ch(48)              
124    conv2d_28_weights                                            1200/1200       weights/weights           const int8_t    ss8/ch(48)               
125    conv2d_79_scratch0                                           1000/1000       activations/**default**   int8_t          s8                       
126    conv2d_28_bias                                               48/192          weights/weights           const int32_t   ss32/ch(48)              
127    conv2d_30_weights                                            576/576         weights/weights           const int8_t    ss8/ch(12)               
128    nl_81_scratch0                                               4/16            activations/**default**   int32_t         s32                      
129    conv2d_30_bias                                               12/48           weights/weights           const int32_t   ss32/ch(12)              
130    conv2d_31_weights                                            576/576         weights/weights           const int8_t    ss8/ch(48)               
131    conv2d_31_bias                                               48/192          weights/weights           const int32_t   ss32/ch(48)              
132    conv2d_35_weights                                            384/384         weights/weights           const int8_t    ss8/ch(8)                
133    conv2d_35_bias                                               8/32            weights/weights           const int32_t   ss32/ch(8)               
134    conv2d_37_weights                                            256/256         weights/weights           const int8_t    ss8/ch(32)               
135    conv2d_37_bias                                               32/128          weights/weights           const int32_t   ss32/ch(32)              
136    conv2d_38_weights                                            800/800         weights/weights           const int8_t    ss8/ch(32)               
137    conv2d_38_bias                                               32/128          weights/weights           const int32_t   ss32/ch(32)              
138    conv2d_40_weights                                            256/256         weights/weights           const int8_t    ss8/ch(8)                
139    conv2d_40_bias                                               8/32            weights/weights           const int32_t   ss32/ch(8)               
140    conv2d_41_weights                                            256/256         weights/weights           const int8_t    ss8/ch(32)               
141    conv2d_41_bias                                               32/128          weights/weights           const int32_t   ss32/ch(32)              
142    conv2d_45_weights                                            256/256         weights/weights           const int8_t    ss8/ch(8)                
143    conv2d_45_bias                                               8/32            weights/weights           const int32_t   ss32/ch(8)               
144    conv2d_47_weights                                            512/512         weights/weights           const int8_t    ss8/ch(64)               
145    conv2d_47_bias                                               64/256          weights/weights           const int32_t   ss32/ch(64)              
146    conv2d_48_weights                                            1600/1600       weights/weights           const int8_t    ss8/ch(64)               
147    conv2d_48_bias                                               64/256          weights/weights           const int32_t   ss32/ch(64)              
148    conv2d_50_weights                                            1024/1024       weights/weights           const int8_t    ss8/ch(16)               
149    conv2d_50_bias                                               16/64           weights/weights           const int32_t   ss32/ch(16)              
150    conv2d_51_weights                                            1024/1024       weights/weights           const int8_t    ss8/ch(64)               
151    conv2d_51_bias                                               64/256          weights/weights           const int32_t   ss32/ch(64)              
152    conv2d_55_weights                                            1536/1536       weights/weights           const int8_t    ss8/ch(24)               
153    conv2d_55_bias                                               24/96           weights/weights           const int32_t   ss32/ch(24)              
154    conv2d_56_weights                                            1920/1920       weights/weights           const int8_t    ss8/ch(80)               
155    conv2d_56_bias                                               80/320          weights/weights           const int32_t   ss32/ch(80)              
156    conv2d_57_weights                                            2000/2000       weights/weights           const int8_t    ss8/ch(80)               
157    conv2d_57_bias                                               80/320          weights/weights           const int32_t   ss32/ch(80)              
158    conv2d_59_weights                                            1600/1600       weights/weights           const int8_t    ss8/ch(20)               
159    conv2d_59_bias                                               20/80           weights/weights           const int32_t   ss32/ch(20)              
160    conv2d_60_weights                                            1600/1600       weights/weights           const int8_t    ss8/ch(80)               
161    conv2d_60_bias                                               80/320          weights/weights           const int32_t   ss32/ch(80)              
162    conv2d_64_weights                                            1920/1920       weights/weights           const int8_t    ss8/ch(24)               
163    conv2d_64_bias                                               24/96           weights/weights           const int32_t   ss32/ch(24)              
164    conv2d_66_weights                                            2880/2880       weights/weights           const int8_t    ss8/ch(120)              
165    conv2d_66_bias                                               120/480         weights/weights           const int32_t   ss32/ch(120)             
166    conv2d_67_weights                                            3000/3000       weights/weights           const int8_t    ss8/ch(120)              
167    conv2d_67_bias                                               120/480         weights/weights           const int32_t   ss32/ch(120)             
168    conv2d_69_weights                                            3600/3600       weights/weights           const int8_t    ss8/ch(30)               
169    conv2d_69_bias                                               30/120          weights/weights           const int32_t   ss32/ch(30)              
170    conv2d_70_weights                                            3600/3600       weights/weights           const int8_t    ss8/ch(120)              
171    conv2d_70_bias                                               120/480         weights/weights           const int32_t   ss32/ch(120)             
172    conv2d_74_weights                                            2880/2880       weights/weights           const int8_t    ss8/ch(24)               
173    conv2d_74_bias                                               24/96           weights/weights           const int32_t   ss32/ch(24)              
174    conv2d_76_weights                                            2880/2880       weights/weights           const int8_t    ss8/ch(120)              
175    conv2d_76_bias                                               120/480         weights/weights           const int32_t   ss32/ch(120)             
176    conv2d_78_weights                                            28800/28800     weights/weights           const int8_t    ss8/ch(240)              
177    conv2d_78_bias                                               240/960         weights/weights           const int32_t   ss32/ch(240)             
178    conv2d_79_weights                                            960/960         weights/weights           const int8_t    ss8/ch(4)                
179    conv2d_79_bias                                               4/16            weights/weights           const int32_t   ss32/ch(4)               
180    conv2d_1_scratch0                                            652/652         activations/**default**   int8_t          s8                       
181    conv2d_1_scratch1                                            100352/100352   activations/**default**   int8_t          sa8                      
182    conv2d_2_scratch0                                            1552/1552       activations/**default**   int8_t          s8                       
183    conv2d_2_scratch1                                            25088/25088     activations/**default**   int8_t          sa8                      
184    conv2d_4_scratch0                                            52/52           activations/**default**   int8_t          s8                       
185    conv2d_5_scratch0                                            88/88           activations/**default**   int8_t          s8                       
186    conv2d_9_scratch0                                            192/192         activations/**default**   int8_t          s8                       
187    conv2d_10_scratch0                                           144/144         activations/**default**   int8_t          s8                       
188    conv2d_11_scratch0                                           2816/2816       activations/**default**   int8_t          s8                       
189    conv2d_11_scratch1                                           12544/12544     activations/**default**   int8_t          sa8                      
190    conv2d_12_scratch0                                           224/224         activations/**default**   int8_t          s8                       
191    conv2d_12_scratch1                                           12544/12544     activations/**default**   int8_t          sa8                      
192    serving_default_input_10_output                              150528/150528   activations/**default**   uint8_t         ua8            /input    
193    conversion_0_output                                          150528/150529   activations/**default**   int8_t          sa8                      
194    conv2d_1_output                                              100352/100352   activations/**default**   int8_t          sa8                      
195    conv2d_13_scratch0                                           144/144         activations/**default**   int8_t          s8                       
196    conv2d_2_pad_before_output                                   103968/103968   activations/**default**   int8_t          sa8                      
197    conv2d_2_output                                              25088/25088     activations/**default**   int8_t          sa8                      
198    pool_3_output                                                8/8             activations/**default**   int8_t          sa8                      
199    conv2d_14_scratch0                                           4080/4080       activations/**default**   int8_t          s8                       
200    conv2d_4_output                                              2/2             activations/**default**   int8_t          sa8                      
201    conv2d_5_output                                              8/8             activations/**default**   int8_t          sa8                      
202    conv2d_14_scratch1                                           18816/18816     activations/**default**   int8_t          sa8                      
203    eltwise_6_output                                             8/8             activations/**default**   int8_t          sa8                      
204    eltwise_8_output                                             25088/25088     activations/**default**   int8_t          sa8                      
205    conv2d_9_output                                              50176/50176     activations/**default**   int8_t          sa8                      
206    conv2d_15_scratch0                                           256/256         activations/**default**   int8_t          s8                       
207    conv2d_10_output                                             25088/25088     activations/**default**   int8_t          sa8                      
208    conv2d_11_pad_before_output                                  26912/26912     activations/**default**   int8_t          sa8                      
209    conv2d_15_scratch1                                           12544/12544     activations/**default**   int8_t          sa8                      
210    conv2d_11_output                                             12544/12544     activations/**default**   int8_t          sa8                      
211    conv2d_12_output                                             12544/12544     activations/**default**   int8_t          sa8                      
212    conv2d_13_output                                             6272/6272       activations/**default**   int8_t          sa8                      
213    conv2d_16_scratch0                                           144/144         activations/**default**   int8_t          s8                       
214    conv2d_14_pad_before_output                                  7200/7200       activations/**default**   int8_t          sa8                      
215    conv2d_14_output                                             18816/18816     activations/**default**   int8_t          sa8                      
216    conv2d_15_output                                             12544/12544     activations/**default**   int8_t          sa8                      
217    conv2d_18_scratch0                                           272/272         activations/**default**   int8_t          s8                       
218    conv2d_16_output                                             6272/6272       activations/**default**   int8_t          sa8                      
219    eltwise_17_output                                            6272/6272       activations/**default**   int8_t          sa8                      
220    conv2d_18_scratch1                                           18816/18816     activations/**default**   int8_t          sa8                      
221    conv2d_18_output                                             18816/18816     activations/**default**   int8_t          sa8                      
222    conv2d_19_output                                             4704/4704       activations/**default**   int8_t          sa8                      
223    pool_20_output                                               24/24           activations/**default**   int8_t          sa8                      
224    conv2d_19_scratch0                                           2041/2041       activations/**default**   int8_t          s8                       
225    conv2d_21_output                                             6/6             activations/**default**   int8_t          sa8                      
226    conv2d_22_output                                             24/24           activations/**default**   int8_t          sa8                      
227    conv2d_19_scratch1                                           4704/4704       activations/**default**   int8_t          sa8                      
228    eltwise_23_output                                            24/24           activations/**default**   int8_t          sa8                      
229    eltwise_25_output                                            4704/4704       activations/**default**   int8_t          sa8                      
230    conv2d_26_output                                             1568/1568       activations/**default**   int8_t          sa8                      
231    conv2d_21_scratch0                                           156/156         activations/**default**   int8_t          s8                       
232    conv2d_27_output                                             9408/9408       activations/**default**   int8_t          sa8                      
233    conv2d_28_output                                             9408/9408       activations/**default**   int8_t          sa8                      
234    pool_29_output                                               48/48           activations/**default**   int8_t          sa8                      
235    conv2d_22_scratch0                                           264/264         activations/**default**   int8_t          s8                       
236    conv2d_30_output                                             12/12           activations/**default**   int8_t          sa8                      
237    conv2d_31_output                                             48/48           activations/**default**   int8_t          sa8                      
238    eltwise_32_output                                            48/48           activations/**default**   int8_t          sa8                      
239    conv2d_26_scratch0                                           176/176         activations/**default**   int8_t          s8                       
240    nl_33_output                                                 48/48           activations/**default**   int8_t          sa8                      
241    eltwise_34_output                                            9408/9408       activations/**default**   int8_t          sa8                      
242    conv2d_35_output                                             1568/1568       activations/**default**   int8_t          sa8                      
243    conv2d_27_scratch0                                           512/512         activations/**default**   int8_t          s8                       
244    eltwise_36_output                                            1568/1568       activations/**default**   int8_t          sa8                      
245    conv2d_37_output                                             6272/6272       activations/**default**   int8_t          sa8                      
246    conv2d_27_scratch1                                           9408/9408       activations/**default**   int8_t          sa8                      
------ ------------------------------------------------------------ --------------- ------------------------- --------------- -------------- --------- 

C-Layers (82)
------ ---------------------- ---- ---------------------- --------- ------- --------------------------------------------------------------- --------------------- 
c_id   name (*_layer)         id   layer_type             macc      rom     tensors                                                         shape (array id)      
------ ---------------------- ---- ---------------------- --------- ------- --------------------------------------------------------------- --------------------- 
0      conversion_0           0    converter              301056    0       I: serving_default_input_10_output                              (1,224,224,3) (192)   
                                                                            O: conversion_0_output                                          (1,224,224,3) (193)   
------ ---------------------- ---- ---------------------- --------- ------- --------------------------------------------------------------- --------------------- 
1      conv2d_1               1    optimized_conv2d       2709512   248     I: conversion_0_output                                          (1,224,224,3) (193)   
                                                                            S: conv2d_1_scratch0                                                                  
                                                                            S: conv2d_1_scratch1                                                                  
                                                                            W: conv2d_1_weights                                             (3,3,3,8) (68)        
                                                                            W: conv2d_1_bias                                                (8,) (69)             
                                                                            O: conv2d_1_output                                              (1,112,112,8) (194)   
------ ---------------------- ---- ---------------------- --------- ------- --------------------------------------------------------------- --------------------- 
2      conv2d_2_pad_before    2    pad                    0         0       I: conv2d_1_output                                              (1,112,112,8) (194)   
                                                                            O: conv2d_2_pad_before_output                                   (1,114,114,8) (196)   
------ ---------------------- ---- ---------------------- --------- ------- --------------------------------------------------------------- --------------------- 
3      conv2d_2               2    conv2d                 1806344   608     I: conv2d_2_pad_before_output                                   (1,114,114,8) (196)   
                                                                            S: conv2d_2_scratch0                                                                  
                                                                            S: conv2d_2_scratch1                                                                  
                                                                            W: conv2d_2_weights                                             (8,3,3,8) (71)        
                                                                            W: conv2d_2_bias                                                (8,) (72)             
                                                                            O: conv2d_2_output                                              (1,56,56,8) (197)     
------ ---------------------- ---- ---------------------- --------- ------- --------------------------------------------------------------- --------------------- 
4      pool_3                 3    pool                   25088     0       I: conv2d_2_output                                              (1,56,56,8) (197)     
                                                                            O: pool_3_output                                                (1,1,1,8) (198)       
------ ---------------------- ---- ---------------------- --------- ------- --------------------------------------------------------------- --------------------- 
5      conv2d_4               4    conv2d                 18        24      I: pool_3_output                                                (1,1,1,8) (198)       
                                                                            S: conv2d_4_scratch0                                                                  
                                                                            W: conv2d_4_weights                                             (8,1,1,2) (74)        
                                                                            W: conv2d_4_bias                                                (2,) (76)             
                                                                            O: conv2d_4_output                                              (1,1,1,2) (200)       
------ ---------------------- ---- ---------------------- --------- ------- --------------------------------------------------------------- --------------------- 
6      conv2d_5               5    conv2d                 24        48      I: conv2d_4_output                                              (1,1,1,2) (200)       
                                                                            S: conv2d_5_scratch0                                                                  
                                                                            W: conv2d_5_weights                                             (2,1,1,8) (77)        
                                                                            W: conv2d_5_bias                                                (8,) (79)             
                                                                            O: conv2d_5_output                                              (1,1,1,8) (201)       
------ ---------------------- ---- ---------------------- --------- ------- --------------------------------------------------------------- --------------------- 
7      eltwise_6              6    eltwise_integer/min    8         4       I: conv2d_5_output                                              (1,1,1,8) (201)       
                                                                            I: EmbeddedNetV1_width0_25_conv2d_14_clip_by_value_Minimum_y    (1,1,1) (67)          
                                                                            O: eltwise_6_output                                             (1,1,1,8) (203)       
------ ---------------------- ---- ---------------------- --------- ------- --------------------------------------------------------------- --------------------- 
8      eltwise_8              8    eltwise_integer/mul    25088     0       I: conv2d_2_output                                              (1,56,56,8) (197)     
                                                                            I: eltwise_6_output                                             (1,1,1,8) (203)       
                                                                            O: eltwise_8_output                                             (1,56,56,8) (204)     
------ ---------------------- ---- ---------------------- --------- ------- --------------------------------------------------------------- --------------------- 
9      conv2d_9               9    conv2d                 401424    192     I: eltwise_8_output                                             (1,56,56,8) (204)     
                                                                            S: conv2d_9_scratch0                                                                  
                                                                            W: conv2d_9_weights                                             (8,1,1,16) (81)       
                                                                            W: conv2d_9_bias                                                (16,) (82)            
                                                                            O: conv2d_9_output                                              (1,56,56,16) (205)    
------ ---------------------- ---- ---------------------- --------- ------- --------------------------------------------------------------- --------------------- 
10     conv2d_10              10   conv2d                 401416    160     I: conv2d_9_output                                              (1,56,56,16) (205)    
                                                                            S: conv2d_10_scratch0                                                                 
                                                                            W: conv2d_10_weights                                            (16,1,1,8) (84)       
                                                                            W: conv2d_10_bias                                               (8,) (85)             
                                                                            O: conv2d_10_output                                             (1,56,56,8) (207)     
------ ---------------------- ---- ---------------------- --------- ------- --------------------------------------------------------------- --------------------- 
11     conv2d_11_pad_before   11   pad                    0         0       I: conv2d_10_output                                             (1,56,56,8) (207)     
                                                                            O: conv2d_11_pad_before_output                                  (1,58,58,8) (208)     
------ ---------------------- ---- ---------------------- --------- ------- --------------------------------------------------------------- --------------------- 
12     conv2d_11              11   conv2d                 903184    1216    I: conv2d_11_pad_before_output                                  (1,58,58,8) (208)     
                                                                            S: conv2d_11_scratch0                                                                 
                                                                            S: conv2d_11_scratch1                                                                 
                                                                            W: conv2d_11_weights                                            (8,3,3,16) (87)       
                                                                            W: conv2d_11_bias                                               (16,) (88)            
                                                                            O: conv2d_11_output                                             (1,28,28,16) (210)    
------ ---------------------- ---- ---------------------- --------- ------- --------------------------------------------------------------- --------------------- 
13     conv2d_12              12   conv2d                 200720    320     I: conv2d_11_output                                             (1,28,28,16) (210)    
                                                                            S: conv2d_12_scratch0                                                                 
                                                                            S: conv2d_12_scratch1                                                                 
                                                                            W: conv2d_12_weights                                            (16,1,1,16) (90)      
                                                                            W: conv2d_12_bias                                               (16,) (91)            
                                                                            O: conv2d_12_output                                             (1,28,28,16) (211)    
------ ---------------------- ---- ---------------------- --------- ------- --------------------------------------------------------------- --------------------- 
14     conv2d_13              13   conv2d                 100360    160     I: conv2d_12_output                                             (1,28,28,16) (211)    
                                                                            S: conv2d_13_scratch0                                                                 
                                                                            W: conv2d_13_weights                                            (16,1,1,8) (93)       
                                                                            W: conv2d_13_bias                                               (8,) (94)             
                                                                            O: conv2d_13_output                                             (1,28,28,8) (212)     
------ ---------------------- ---- ---------------------- --------- ------- --------------------------------------------------------------- --------------------- 
15     conv2d_14_pad_before   14   pad                    0         0       I: conv2d_13_output                                             (1,28,28,8) (212)     
                                                                            O: conv2d_14_pad_before_output                                  (1,30,30,8) (214)     
------ ---------------------- ---- ---------------------- --------- ------- --------------------------------------------------------------- --------------------- 
16     conv2d_14              14   conv2d                 1354776   1824    I: conv2d_14_pad_before_output                                  (1,30,30,8) (214)     
                                                                            S: conv2d_14_scratch0                                                                 
                                                                            S: conv2d_14_scratch1                                                                 
                                                                            W: conv2d_14_weights                                            (8,3,3,24) (96)       
                                                                            W: conv2d_14_bias                                               (24,) (97)            
                                                                            O: conv2d_14_output                                             (1,28,28,24) (215)    
------ ---------------------- ---- ---------------------- --------- ------- --------------------------------------------------------------- --------------------- 
17     conv2d_15              15   conv2d                 301072    448     I: conv2d_14_output                                             (1,28,28,24) (215)    
                                                                            S: conv2d_15_scratch0                                                                 
                                                                            S: conv2d_15_scratch1                                                                 
                                                                            W: conv2d_15_weights                                            (24,1,1,16) (99)      
                                                                            W: conv2d_15_bias                                               (16,) (101)           
                                                                            O: conv2d_15_output                                             (1,28,28,16) (216)    
------ ---------------------- ---- ---------------------- --------- ------- --------------------------------------------------------------- --------------------- 
18     conv2d_16              16   conv2d                 100360    160     I: conv2d_15_output                                             (1,28,28,16) (216)    
                                                                            S: conv2d_16_scratch0                                                                 
                                                                            W: conv2d_16_weights                                            (16,1,1,8) (102)      
                                                                            W: conv2d_16_bias                                               (8,) (104)            
                                                                            O: conv2d_16_output                                             (1,28,28,8) (218)     
------ ---------------------- ---- ---------------------- --------- ------- --------------------------------------------------------------- --------------------- 
19     eltwise_17             17   eltwise_integer/sum    6272      0       I: conv2d_13_output                                             (1,28,28,8) (212)     
                                                                            I: conv2d_16_output                                             (1,28,28,8) (218)     
                                                                            O: eltwise_17_output                                            (1,28,28,8) (219)     
------ ---------------------- ---- ---------------------- --------- ------- --------------------------------------------------------------- --------------------- 
20     conv2d_18              18   conv2d                 150552    288     I: eltwise_17_output                                            (1,28,28,8) (219)     
                                                                            S: conv2d_18_scratch0                                                                 
                                                                            S: conv2d_18_scratch1                                                                 
                                                                            W: conv2d_18_weights                                            (8,1,1,24) (106)      
                                                                            W: conv2d_18_bias                                               (24,) (107)           
                                                                            O: conv2d_18_output                                             (1,28,28,24) (221)    
------ ---------------------- ---- ---------------------- --------- ------- --------------------------------------------------------------- --------------------- 
21     conv2d_19              19   conv2d                 117624    696     I: conv2d_18_output                                             (1,28,28,24) (221)    
                                                                            S: conv2d_19_scratch0                                                                 
                                                                            S: conv2d_19_scratch1                                                                 
                                                                            W: conv2d_19_weights                                            (24,5,5,1) (109)      
                                                                            W: conv2d_19_bias                                               (24,) (110)           
                                                                            O: conv2d_19_output                                             (1,14,14,24) (222)    
------ ---------------------- ---- ---------------------- --------- ------- --------------------------------------------------------------- --------------------- 
22     pool_20                20   pool                   4704      0       I: conv2d_19_output                                             (1,14,14,24) (222)    
                                                                            O: pool_20_output                                               (1,1,1,24) (223)      
------ ---------------------- ---- ---------------------- --------- ------- --------------------------------------------------------------- --------------------- 
23     conv2d_21              21   conv2d                 150       168     I: pool_20_output                                               (1,1,1,24) (223)      
                                                                            S: conv2d_21_scratch0                                                                 
                                                                            W: conv2d_21_weights                                            (24,1,1,6) (112)      
                                                                            W: conv2d_21_bias                                               (6,) (113)            
                                                                            O: conv2d_21_output                                             (1,1,1,6) (225)       
------ ---------------------- ---- ---------------------- --------- ------- --------------------------------------------------------------- --------------------- 
24     conv2d_22              22   conv2d                 168       240     I: conv2d_21_output                                             (1,1,1,6) (225)       
                                                                            S: conv2d_22_scratch0                                                                 
                                                                            W: conv2d_22_weights                                            (6,1,1,24) (115)      
                                                                            W: conv2d_22_bias                                               (24,) (116)           
                                                                            O: conv2d_22_output                                             (1,1,1,24) (226)      
------ ---------------------- ---- ---------------------- --------- ------- --------------------------------------------------------------- --------------------- 
25     eltwise_23             23   eltwise_integer/min    24        4       I: conv2d_22_output                                             (1,1,1,24) (226)      
                                                                            I: EmbeddedNetV1_width0_25_conv2d_14_clip_by_value_Minimum_y1   (1,1,1) (65)          
                                                                            O: eltwise_23_output                                            (1,1,1,24) (228)      
------ ---------------------- ---- ---------------------- --------- ------- --------------------------------------------------------------- --------------------- 
26     eltwise_25             25   eltwise_integer/mul    4704      0       I: conv2d_19_output                                             (1,14,14,24) (222)    
                                                                            I: eltwise_23_output                                            (1,1,1,24) (228)      
                                                                            O: eltwise_25_output                                            (1,14,14,24) (229)    
------ ---------------------- ---- ---------------------- --------- ------- --------------------------------------------------------------- --------------------- 
27     conv2d_26              26   conv2d                 37640     224     I: eltwise_25_output                                            (1,14,14,24) (229)    
                                                                            S: conv2d_26_scratch0                                                                 
                                                                            W: conv2d_26_weights                                            (24,1,1,8) (118)      
                                                                            W: conv2d_26_bias                                               (8,) (119)            
                                                                            O: conv2d_26_output                                             (1,14,14,8) (230)     
------ ---------------------- ---- ---------------------- --------- ------- --------------------------------------------------------------- --------------------- 
28     conv2d_27              27   conv2d                 75312     576     I: conv2d_26_output                                             (1,14,14,8) (230)     
                                                                            S: conv2d_27_scratch0                                                                 
                                                                            S: conv2d_27_scratch1                                                                 
                                                                            W: conv2d_27_weights                                            (8,1,1,48) (121)      
                                                                            W: conv2d_27_bias                                               (48,) (123)           
                                                                            O: conv2d_27_output                                             (1,14,14,48) (232)    
------ ---------------------- ---- ---------------------- --------- ------- --------------------------------------------------------------- --------------------- 
29     conv2d_28              28   conv2d                 235248    1392    I: conv2d_27_output                                             (1,14,14,48) (232)    
                                                                            S: conv2d_28_scratch0                                                                 
                                                                            S: conv2d_28_scratch1                                                                 
                                                                            W: conv2d_28_weights                                            (48,5,5,1) (124)      
                                                                            W: conv2d_28_bias                                               (48,) (126)           
                                                                            O: conv2d_28_output                                             (1,14,14,48) (233)    
------ ---------------------- ---- ---------------------- --------- ------- --------------------------------------------------------------- --------------------- 
30     pool_29                29   pool                   9408      0       I: conv2d_28_output                                             (1,14,14,48) (233)    
                                                                            O: pool_29_output                                               (1,1,1,48) (234)      
------ ---------------------- ---- ---------------------- --------- ------- --------------------------------------------------------------- --------------------- 
31     conv2d_30              30   conv2d                 588       624     I: pool_29_output                                               (1,1,1,48) (234)      
                                                                            S: conv2d_30_scratch0                                                                 
                                                                            W: conv2d_30_weights                                            (48,1,1,12) (127)     
                                                                            W: conv2d_30_bias                                               (12,) (129)           
                                                                            O: conv2d_30_output                                             (1,1,1,12) (236)      
------ ---------------------- ---- ---------------------- --------- ------- --------------------------------------------------------------- --------------------- 
32     conv2d_31              31   conv2d                 624       768     I: conv2d_30_output                                             (1,1,1,12) (236)      
                                                                            S: conv2d_31_scratch0                                                                 
                                                                            W: conv2d_31_weights                                            (12,1,1,48) (130)     
                                                                            W: conv2d_31_bias                                               (48,) (131)           
                                                                            O: conv2d_31_output                                             (1,1,1,48) (237)      
------ ---------------------- ---- ---------------------- --------- ------- --------------------------------------------------------------- --------------------- 
33     eltwise_32             32   eltwise_integer/min    48        4       I: conv2d_31_output                                             (1,1,1,48) (237)      
                                                                            I: EmbeddedNetV1_width0_25_conv2d_14_clip_by_value_Minimum_y2   (1,1,1) (64)          
                                                                            O: eltwise_32_output                                            (1,1,1,48) (238)      
------ ---------------------- ---- ---------------------- --------- ------- --------------------------------------------------------------- --------------------- 
34     nl_33                  33   nl                     48        0       I: eltwise_32_output                                            (1,1,1,48) (238)      
                                                                            O: nl_33_output                                                 (1,1,1,48) (240)      
------ ---------------------- ---- ---------------------- --------- ------- --------------------------------------------------------------- --------------------- 
35     eltwise_34             34   eltwise_integer/mul    9408      0       I: conv2d_28_output                                             (1,14,14,48) (233)    
                                                                            I: nl_33_output                                                 (1,1,1,48) (240)      
                                                                            O: eltwise_34_output                                            (1,14,14,48) (241)    
------ ---------------------- ---- ---------------------- --------- ------- --------------------------------------------------------------- --------------------- 
36     conv2d_35              35   conv2d                 75272     416     I: eltwise_34_output                                            (1,14,14,48) (241)    
                                                                            S: conv2d_35_scratch0                                                                 
                                                                            W: conv2d_35_weights                                            (48,1,1,8) (132)      
                                                                            W: conv2d_35_bias                                               (8,) (133)            
                                                                            O: conv2d_35_output                                             (1,14,14,8) (242)     
------ ---------------------- ---- ---------------------- --------- ------- --------------------------------------------------------------- --------------------- 
37     eltwise_36             36   eltwise_integer/sum    1568      0       I: conv2d_26_output                                             (1,14,14,8) (230)     
                                                                            I: conv2d_35_output                                             (1,14,14,8) (242)     
                                                                            O: eltwise_36_output                                            (1,14,14,8) (244)     
------ ---------------------- ---- ---------------------- --------- ------- --------------------------------------------------------------- --------------------- 
38     conv2d_37              37   conv2d                 50208     384     I: eltwise_36_output                                            (1,14,14,8) (244)     
                                                                            S: conv2d_37_scratch0                                                                 
                                                                            S: conv2d_37_scratch1                                                                 
                                                                            W: conv2d_37_weights                                            (8,1,1,32) (134)      
                                                                            W: conv2d_37_bias                                               (32,) (135)           
                                                                            O: conv2d_37_output                                             (1,14,14,32) (245)    
------ ---------------------- ---- ---------------------- --------- ------- --------------------------------------------------------------- --------------------- 
39     conv2d_38              38   conv2d                 156832    928     I: conv2d_37_output                                             (1,14,14,32) (245)    
                                                                            S: conv2d_38_scratch0                                                                 
                                                                            S: conv2d_38_scratch1                                                                 
                                                                            W: conv2d_38_weights                                            (32,5,5,1) (136)      
                                                                            W: conv2d_38_bias                                               (32,) (137)           
                                                                            O: conv2d_38_output                                             (1,14,14,32) (0)      
------ ---------------------- ---- ---------------------- --------- ------- --------------------------------------------------------------- --------------------- 
40     pool_39                39   pool                   6272      0       I: conv2d_38_output                                             (1,14,14,32) (0)      
                                                                            O: pool_39_output                                               (1,1,1,32) (1)        
------ ---------------------- ---- ---------------------- --------- ------- --------------------------------------------------------------- --------------------- 
41     conv2d_40              40   conv2d                 264       288     I: pool_39_output                                               (1,1,1,32) (1)        
                                                                            S: conv2d_40_scratch0                                                                 
                                                                            W: conv2d_40_weights                                            (32,1,1,8) (138)      
                                                                            W: conv2d_40_bias                                               (8,) (139)            
                                                                            O: conv2d_40_output                                             (1,1,1,8) (2)         
------ ---------------------- ---- ---------------------- --------- ------- --------------------------------------------------------------- --------------------- 
42     conv2d_41              41   conv2d                 288       384     I: conv2d_40_output                                             (1,1,1,8) (2)         
                                                                            S: conv2d_41_scratch0                                                                 
                                                                            W: conv2d_41_weights                                            (8,1,1,32) (140)      
                                                                            W: conv2d_41_bias                                               (32,) (141)           
                                                                            O: conv2d_41_output                                             (1,1,1,32) (4)        
------ ---------------------- ---- ---------------------- --------- ------- --------------------------------------------------------------- --------------------- 
43     eltwise_42             42   eltwise_integer/min    32        4       I: conv2d_41_output                                             (1,1,1,32) (4)        
                                                                            I: EmbeddedNetV1_width0_25_conv2d_14_clip_by_value_Minimum_y3   (1,1,1) (63)          
                                                                            O: eltwise_42_output                                            (1,1,1,32) (5)        
------ ---------------------- ---- ---------------------- --------- ------- --------------------------------------------------------------- --------------------- 
44     eltwise_44             44   eltwise_integer/mul    6272      0       I: conv2d_38_output                                             (1,14,14,32) (0)      
                                                                            I: eltwise_42_output                                            (1,1,1,32) (5)        
                                                                            O: eltwise_44_output                                            (1,14,14,32) (7)      
------ ---------------------- ---- ---------------------- --------- ------- --------------------------------------------------------------- --------------------- 
45     conv2d_45              45   conv2d                 50184     288     I: eltwise_44_output                                            (1,14,14,32) (7)      
                                                                            S: conv2d_45_scratch0                                                                 
                                                                            W: conv2d_45_weights                                            (32,1,1,8) (142)      
                                                                            W: conv2d_45_bias                                               (8,) (143)            
                                                                            O: conv2d_45_output                                             (1,14,14,8) (8)       
------ ---------------------- ---- ---------------------- --------- ------- --------------------------------------------------------------- --------------------- 
46     eltwise_46             46   eltwise_integer/sum    1568      0       I: eltwise_36_output                                            (1,14,14,8) (244)     
                                                                            I: conv2d_45_output                                             (1,14,14,8) (8)       
                                                                            O: eltwise_46_output                                            (1,14,14,8) (9)       
------ ---------------------- ---- ---------------------- --------- ------- --------------------------------------------------------------- --------------------- 
47     conv2d_47              47   conv2d                 100416    768     I: eltwise_46_output                                            (1,14,14,8) (9)       
                                                                            S: conv2d_47_scratch0                                                                 
                                                                            S: conv2d_47_scratch1                                                                 
                                                                            W: conv2d_47_weights                                            (8,1,1,64) (144)      
                                                                            W: conv2d_47_bias                                               (64,) (145)           
                                                                            O: conv2d_47_output                                             (1,14,14,64) (11)     
------ ---------------------- ---- ---------------------- --------- ------- --------------------------------------------------------------- --------------------- 
48     conv2d_48              48   conv2d                 78464     1856    I: conv2d_47_output                                             (1,14,14,64) (11)     
                                                                            S: conv2d_48_scratch0                                                                 
                                                                            S: conv2d_48_scratch1                                                                 
                                                                            W: conv2d_48_weights                                            (64,5,5,1) (146)      
                                                                            W: conv2d_48_bias                                               (64,) (147)           
                                                                            O: conv2d_48_output                                             (1,7,7,64) (12)       
------ ---------------------- ---- ---------------------- --------- ------- --------------------------------------------------------------- --------------------- 
49     pool_49                49   pool                   3136      0       I: conv2d_48_output                                             (1,7,7,64) (12)       
                                                                            O: pool_49_output                                               (1,1,1,64) (13)       
------ ---------------------- ---- ---------------------- --------- ------- --------------------------------------------------------------- --------------------- 
50     conv2d_50              50   conv2d                 1040      1088    I: pool_49_output                                               (1,1,1,64) (13)       
                                                                            S: conv2d_50_scratch0                                                                 
                                                                            W: conv2d_50_weights                                            (64,1,1,16) (148)     
                                                                            W: conv2d_50_bias                                               (16,) (149)           
                                                                            O: conv2d_50_output                                             (1,1,1,16) (15)       
------ ---------------------- ---- ---------------------- --------- ------- --------------------------------------------------------------- --------------------- 
51     conv2d_51              51   conv2d                 1088      1280    I: conv2d_50_output                                             (1,1,1,16) (15)       
                                                                            S: conv2d_51_scratch0                                                                 
                                                                            W: conv2d_51_weights                                            (16,1,1,64) (150)     
                                                                            W: conv2d_51_bias                                               (64,) (151)           
                                                                            O: conv2d_51_output                                             (1,1,1,64) (16)       
------ ---------------------- ---- ---------------------- --------- ------- --------------------------------------------------------------- --------------------- 
52     eltwise_52             52   eltwise_integer/min    64        4       I: conv2d_51_output                                             (1,1,1,64) (16)       
                                                                            I: EmbeddedNetV1_width0_25_conv2d_14_clip_by_value_Minimum_y4   (1,1,1) (61)          
                                                                            O: eltwise_52_output                                            (1,1,1,64) (17)       
------ ---------------------- ---- ---------------------- --------- ------- --------------------------------------------------------------- --------------------- 
53     nl_53                  53   nl                     64        0       I: eltwise_52_output                                            (1,1,1,64) (17)       
                                                                            O: nl_53_output                                                 (1,1,1,64) (19)       
------ ---------------------- ---- ---------------------- --------- ------- --------------------------------------------------------------- --------------------- 
54     eltwise_54             54   eltwise_integer/mul    3136      0       I: conv2d_48_output                                             (1,7,7,64) (12)       
                                                                            I: nl_53_output                                                 (1,1,1,64) (19)       
                                                                            O: eltwise_54_output                                            (1,7,7,64) (20)       
------ ---------------------- ---- ---------------------- --------- ------- --------------------------------------------------------------- --------------------- 
55     conv2d_55              55   conv2d                 75288     1632    I: eltwise_54_output                                            (1,7,7,64) (20)       
                                                                            S: conv2d_55_scratch0                                                                 
                                                                            W: conv2d_55_weights                                            (64,1,1,24) (152)     
                                                                            W: conv2d_55_bias                                               (24,) (153)           
                                                                            O: conv2d_55_output                                             (1,7,7,24) (21)       
------ ---------------------- ---- ---------------------- --------- ------- --------------------------------------------------------------- --------------------- 
56     conv2d_56              56   conv2d                 94160     2240    I: conv2d_55_output                                             (1,7,7,24) (21)       
                                                                            S: conv2d_56_scratch0                                                                 
                                                                            S: conv2d_56_scratch1                                                                 
                                                                            W: conv2d_56_weights                                            (24,1,1,80) (154)     
                                                                            W: conv2d_56_bias                                               (80,) (155)           
                                                                            O: conv2d_56_output                                             (1,7,7,80) (23)       
------ ---------------------- ---- ---------------------- --------- ------- --------------------------------------------------------------- --------------------- 
57     conv2d_57              57   conv2d                 98080     2320    I: conv2d_56_output                                             (1,7,7,80) (23)       
                                                                            S: conv2d_57_scratch0                                                                 
                                                                            S: conv2d_57_scratch1                                                                 
                                                                            W: conv2d_57_weights                                            (80,5,5,1) (156)      
                                                                            W: conv2d_57_bias                                               (80,) (157)           
                                                                            O: conv2d_57_output                                             (1,7,7,80) (24)       
------ ---------------------- ---- ---------------------- --------- ------- --------------------------------------------------------------- --------------------- 
58     pool_58                58   pool                   3920      0       I: conv2d_57_output                                             (1,7,7,80) (24)       
                                                                            O: pool_58_output                                               (1,1,1,80) (26)       
------ ---------------------- ---- ---------------------- --------- ------- --------------------------------------------------------------- --------------------- 
59     conv2d_59              59   conv2d                 1620      1680    I: pool_58_output                                               (1,1,1,80) (26)       
                                                                            S: conv2d_59_scratch0                                                                 
                                                                            W: conv2d_59_weights                                            (80,1,1,20) (158)     
                                                                            W: conv2d_59_bias                                               (20,) (159)           
                                                                            O: conv2d_59_output                                             (1,1,1,20) (27)       
------ ---------------------- ---- ---------------------- --------- ------- --------------------------------------------------------------- --------------------- 
60     conv2d_60              60   conv2d                 1680      1920    I: conv2d_59_output                                             (1,1,1,20) (27)       
                                                                            S: conv2d_60_scratch0                                                                 
                                                                            W: conv2d_60_weights                                            (20,1,1,80) (160)     
                                                                            W: conv2d_60_bias                                               (80,) (161)           
                                                                            O: conv2d_60_output                                             (1,1,1,80) (28)       
------ ---------------------- ---- ---------------------- --------- ------- --------------------------------------------------------------- --------------------- 
61     eltwise_61             61   eltwise_integer/min    80        4       I: conv2d_60_output                                             (1,1,1,80) (28)       
                                                                            I: EmbeddedNetV1_width0_25_conv2d_14_clip_by_value_Minimum_y5   (1,1,1) (60)          
                                                                            O: eltwise_61_output                                            (1,1,1,80) (30)       
------ ---------------------- ---- ---------------------- --------- ------- --------------------------------------------------------------- --------------------- 
62     nl_62                  62   nl                     80        0       I: eltwise_61_output                                            (1,1,1,80) (30)       
                                                                            O: nl_62_output                                                 (1,1,1,80) (31)       
------ ---------------------- ---- ---------------------- --------- ------- --------------------------------------------------------------- --------------------- 
63     eltwise_63             63   eltwise_integer/mul    3920      0       I: conv2d_57_output                                             (1,7,7,80) (24)       
                                                                            I: nl_62_output                                                 (1,1,1,80) (31)       
                                                                            O: eltwise_63_output                                            (1,7,7,80) (33)       
------ ---------------------- ---- ---------------------- --------- ------- --------------------------------------------------------------- --------------------- 
64     conv2d_64              64   conv2d                 94104     2016    I: eltwise_63_output                                            (1,7,7,80) (33)       
                                                                            S: conv2d_64_scratch0                                                                 
                                                                            W: conv2d_64_weights                                            (80,1,1,24) (162)     
                                                                            W: conv2d_64_bias                                               (24,) (163)           
                                                                            O: conv2d_64_output                                             (1,7,7,24) (34)       
------ ---------------------- ---- ---------------------- --------- ------- --------------------------------------------------------------- --------------------- 
65     eltwise_65             65   eltwise_integer/sum    1176      0       I: conv2d_55_output                                             (1,7,7,24) (21)       
                                                                            I: conv2d_64_output                                             (1,7,7,24) (34)       
                                                                            O: eltwise_65_output                                            (1,7,7,24) (35)       
------ ---------------------- ---- ---------------------- --------- ------- --------------------------------------------------------------- --------------------- 
66     conv2d_66              66   conv2d                 141240    3360    I: eltwise_65_output                                            (1,7,7,24) (35)       
                                                                            S: conv2d_66_scratch0                                                                 
                                                                            S: conv2d_66_scratch1                                                                 
                                                                            W: conv2d_66_weights                                            (24,1,1,120) (164)    
                                                                            W: conv2d_66_bias                                               (120,) (165)          
                                                                            O: conv2d_66_output                                             (1,7,7,120) (37)      
------ ---------------------- ---- ---------------------- --------- ------- --------------------------------------------------------------- --------------------- 
67     conv2d_67              67   conv2d                 147120    3480    I: conv2d_66_output                                             (1,7,7,120) (37)      
                                                                            S: conv2d_67_scratch0                                                                 
                                                                            S: conv2d_67_scratch1                                                                 
                                                                            W: conv2d_67_weights                                            (120,5,5,1) (166)     
                                                                            W: conv2d_67_bias                                               (120,) (167)          
                                                                            O: conv2d_67_output                                             (1,7,7,120) (38)      
------ ---------------------- ---- ---------------------- --------- ------- --------------------------------------------------------------- --------------------- 
68     pool_68                68   pool                   5880      0       I: conv2d_67_output                                             (1,7,7,120) (38)      
                                                                            O: pool_68_output                                               (1,1,1,120) (39)      
------ ---------------------- ---- ---------------------- --------- ------- --------------------------------------------------------------- --------------------- 
69     conv2d_69              69   conv2d                 3630      3720    I: pool_68_output                                               (1,1,1,120) (39)      
                                                                            S: conv2d_69_scratch0                                                                 
                                                                            S: conv2d_69_scratch1                                                                 
                                                                            W: conv2d_69_weights                                            (120,1,1,30) (168)    
                                                                            W: conv2d_69_bias                                               (30,) (169)           
                                                                            O: conv2d_69_output                                             (1,1,1,30) (41)       
------ ---------------------- ---- ---------------------- --------- ------- --------------------------------------------------------------- --------------------- 
70     conv2d_70              70   conv2d                 3720      4080    I: conv2d_69_output                                             (1,1,1,30) (41)       
                                                                            S: conv2d_70_scratch0                                                                 
                                                                            W: conv2d_70_weights                                            (30,1,1,120) (170)    
                                                                            W: conv2d_70_bias                                               (120,) (171)          
                                                                            O: conv2d_70_output                                             (1,1,1,120) (42)      
------ ---------------------- ---- ---------------------- --------- ------- --------------------------------------------------------------- --------------------- 
71     eltwise_71             71   eltwise_integer/min    120       4       I: conv2d_70_output                                             (1,1,1,120) (42)      
                                                                            I: EmbeddedNetV1_width0_25_conv2d_14_clip_by_value_Minimum_y6   (1,1,1) (59)          
                                                                            O: eltwise_71_output                                            (1,1,1,120) (43)      
------ ---------------------- ---- ---------------------- --------- ------- --------------------------------------------------------------- --------------------- 
72     nl_72                  72   nl                     120       0       I: eltwise_71_output                                            (1,1,1,120) (43)      
                                                                            O: nl_72_output                                                 (1,1,1,120) (45)      
------ ---------------------- ---- ---------------------- --------- ------- --------------------------------------------------------------- --------------------- 
73     eltwise_73             73   eltwise_integer/mul    5880      0       I: conv2d_67_output                                             (1,7,7,120) (38)      
                                                                            I: nl_72_output                                                 (1,1,1,120) (45)      
                                                                            O: eltwise_73_output                                            (1,7,7,120) (46)      
------ ---------------------- ---- ---------------------- --------- ------- --------------------------------------------------------------- --------------------- 
74     conv2d_74              74   conv2d                 141144    2976    I: eltwise_73_output                                            (1,7,7,120) (46)      
                                                                            S: conv2d_74_scratch0                                                                 
                                                                            W: conv2d_74_weights                                            (120,1,1,24) (172)    
                                                                            W: conv2d_74_bias                                               (24,) (173)           
                                                                            O: conv2d_74_output                                             (1,7,7,24) (47)       
------ ---------------------- ---- ---------------------- --------- ------- --------------------------------------------------------------- --------------------- 
75     eltwise_75             75   eltwise_integer/sum    1176      0       I: eltwise_65_output                                            (1,7,7,24) (35)       
                                                                            I: conv2d_74_output                                             (1,7,7,24) (47)       
                                                                            O: eltwise_75_output                                            (1,7,7,24) (49)       
------ ---------------------- ---- ---------------------- --------- ------- --------------------------------------------------------------- --------------------- 
76     conv2d_76              76   conv2d                 141240    3360    I: eltwise_75_output                                            (1,7,7,24) (49)       
                                                                            S: conv2d_76_scratch0                                                                 
                                                                            S: conv2d_76_scratch1                                                                 
                                                                            W: conv2d_76_weights                                            (24,1,1,120) (174)    
                                                                            W: conv2d_76_bias                                               (120,) (175)          
                                                                            O: conv2d_76_output                                             (1,7,7,120) (50)      
------ ---------------------- ---- ---------------------- --------- ------- --------------------------------------------------------------- --------------------- 
77     pool_77                77   pool                   5880      0       I: conv2d_76_output                                             (1,7,7,120) (50)      
                                                                            O: pool_77_output                                               (1,1,1,120) (52)      
------ ---------------------- ---- ---------------------- --------- ------- --------------------------------------------------------------- --------------------- 
78     conv2d_78              78   conv2d                 29040     29760   I: pool_77_output                                               (1,1,1,120) (52)      
                                                                            S: conv2d_78_scratch0                                                                 
                                                                            S: conv2d_78_scratch1                                                                 
                                                                            W: conv2d_78_weights                                            (120,1,1,240) (176)   
                                                                            W: conv2d_78_bias                                               (240,) (177)          
                                                                            O: conv2d_78_output                                             (1,1,1,240) (53)      
------ ---------------------- ---- ---------------------- --------- ------- --------------------------------------------------------------- --------------------- 
79     conv2d_79              79   conv2d                 964       976     I: conv2d_78_output                                             (1,1,1,240) (53)      
                                                                            S: conv2d_79_scratch0                                                                 
                                                                            W: conv2d_79_weights                                            (240,1,1,4) (178)     
                                                                            W: conv2d_79_bias                                               (4,) (179)            
                                                                            O: conv2d_79_output                                             (1,1,1,4) (54)        
------ ---------------------- ---- ---------------------- --------- ------- --------------------------------------------------------------- --------------------- 
80     nl_81                  81   nl                     60        0       I: conv2d_79_output                                             (1,1,1,4) (54)        
                                                                            S: nl_81_scratch0                                                                     
                                                                            O: nl_81_output                                                 (1,4) (56)            
------ ---------------------- ---- ---------------------- --------- ------- --------------------------------------------------------------- --------------------- 
81     conversion_82          82   converter              8         0       I: nl_81_output                                                 (1,4) (56)            
                                                                            O: conversion_82_output                                         (1,4) (57)            
------ ---------------------- ---- ---------------------- --------- ------- --------------------------------------------------------------- --------------------- 



Number of operations per c-layer
------- ------ ---------------------------------- ------------ ------------- -------- ---------- 
c_id    m_id   name (type)                                 #op          type   #param   sparsity 
------- ------ ---------------------------------- ------------ ------------- -------- ---------- 
0       0      conversion_0 (converter)                301,056    conv_u8_s8          
1       1      conv2d_1 (optimized_conv2d)           2,709,512    smul_s8_s8      224     0.0045 
2       2      conv2d_2_pad_before (pad)                     0    smul_s8_s8          
3       2      conv2d_2 (conv2d)                     1,806,344    smul_s8_s8      584     0.0051 
4       3      pool_3 (pool)                            25,088      op_s8_s8          
5       4      conv2d_4 (conv2d)                            18    smul_s8_s8       18     0.1111 
6       5      conv2d_5 (conv2d)                            24    smul_s8_s8       24     0.0000 
7       6      eltwise_6 (eltwise_integer/min)               8      op_s8_s8        1     0.0000 
8       8      eltwise_8 (eltwise_integer/mul)          25,088      op_s8_s8          
9       9      conv2d_9 (conv2d)                       401,424    smul_s8_s8      144     0.1111 
10      10     conv2d_10 (conv2d)                      401,416    smul_s8_s8      136     0.0000 
11      11     conv2d_11_pad_before (pad)                    0    smul_s8_s8          
12      11     conv2d_11 (conv2d)                      903,184    smul_s8_s8    1,168     0.0086 
13      12     conv2d_12 (conv2d)                      200,720    smul_s8_s8      272     0.0625 
14      13     conv2d_13 (conv2d)                      100,360    smul_s8_s8      136     0.0147 
15      14     conv2d_14_pad_before (pad)                    0    smul_s8_s8          
16      14     conv2d_14 (conv2d)                    1,354,776    smul_s8_s8    1,752     0.0057 
17      15     conv2d_15 (conv2d)                      301,072    smul_s8_s8      400     0.0450 
18      16     conv2d_16 (conv2d)                      100,360    smul_s8_s8      136     0.0147 
19      17     eltwise_17 (eltwise_integer/sum)          6,272      op_s8_s8          
20      18     conv2d_18 (conv2d)                      150,552    smul_s8_s8      216     0.0000 
21      19     conv2d_19 (conv2d)                      117,624    smul_s8_s8      624     0.0096 
22      20     pool_20 (pool)                            4,704      op_s8_s8          
23      21     conv2d_21 (conv2d)                          150    smul_s8_s8      150     0.0467 
24      22     conv2d_22 (conv2d)                          168    smul_s8_s8      168     0.0060 
25      23     eltwise_23 (eltwise_integer/min)             24      op_s8_s8        1     0.0000 
26      25     eltwise_25 (eltwise_integer/mul)          4,704      op_s8_s8          
27      26     conv2d_26 (conv2d)                       37,640    smul_s8_s8      200     0.0050 
28      27     conv2d_27 (conv2d)                       75,312    smul_s8_s8      432     0.0046 
29      28     conv2d_28 (conv2d)                      235,248    smul_s8_s8    1,248     0.0048 
30      29     pool_29 (pool)                            9,408      op_s8_s8          
31      30     conv2d_30 (conv2d)                          588    smul_s8_s8      588     0.0255 
32      31     conv2d_31 (conv2d)                          624    smul_s8_s8      624     0.0032 
33      32     eltwise_32 (eltwise_integer/min)             48      op_s8_s8        1     0.0000 
34      33     nl_33 (nl)                                   48      op_s8_s8          
35      34     eltwise_34 (eltwise_integer/mul)          9,408      op_s8_s8          
36      35     conv2d_35 (conv2d)                       75,272    smul_s8_s8      392     0.0051 
37      36     eltwise_36 (eltwise_integer/sum)          1,568      op_s8_s8          
38      37     conv2d_37 (conv2d)                       50,208    smul_s8_s8      288     0.0000 
39      38     conv2d_38 (conv2d)                      156,832    smul_s8_s8      832     0.0036 
40      39     pool_39 (pool)                            6,272      op_s8_s8          
41      40     conv2d_40 (conv2d)                          264    smul_s8_s8      264     0.0341 
42      41     conv2d_41 (conv2d)                          288    smul_s8_s8      288     0.0000 
43      42     eltwise_42 (eltwise_integer/min)             32      op_s8_s8        1     0.0000 
44      44     eltwise_44 (eltwise_integer/mul)          6,272      op_s8_s8          
45      45     conv2d_45 (conv2d)                       50,184    smul_s8_s8      264     0.0000 
46      46     eltwise_46 (eltwise_integer/sum)          1,568      op_s8_s8          
47      47     conv2d_47 (conv2d)                      100,416    smul_s8_s8      576     0.0069 
48      48     conv2d_48 (conv2d)                       78,464    smul_s8_s8    1,664     0.0078 
49      49     pool_49 (pool)                            3,136      op_s8_s8          
50      50     conv2d_50 (conv2d)                        1,040    smul_s8_s8    1,040     0.0260 
51      51     conv2d_51 (conv2d)                        1,088    smul_s8_s8    1,088     0.0064 
52      52     eltwise_52 (eltwise_integer/min)             64      op_s8_s8        1     0.0000 
53      53     nl_53 (nl)                                   64      op_s8_s8          
54      54     eltwise_54 (eltwise_integer/mul)          3,136      op_s8_s8          
55      55     conv2d_55 (conv2d)                       75,288    smul_s8_s8    1,560     0.0051 
56      56     conv2d_56 (conv2d)                       94,160    smul_s8_s8    2,000     0.0050 
57      57     conv2d_57 (conv2d)                       98,080    smul_s8_s8    2,080     0.0062 
58      58     pool_58 (pool)                            3,920      op_s8_s8          
59      59     conv2d_59 (conv2d)                        1,620    smul_s8_s8    1,620     0.0160 
60      60     conv2d_60 (conv2d)                        1,680    smul_s8_s8    1,680     0.0030 
61      61     eltwise_61 (eltwise_integer/min)             80      op_s8_s8        1     0.0000 
62      62     nl_62 (nl)                                   80      op_s8_s8          
63      63     eltwise_63 (eltwise_integer/mul)          3,920      op_s8_s8          
64      64     conv2d_64 (conv2d)                       94,104    smul_s8_s8    1,944     0.0051 
65      65     eltwise_65 (eltwise_integer/sum)          1,176      op_s8_s8          
66      66     conv2d_66 (conv2d)                      141,240    smul_s8_s8    3,000     0.0047 
67      67     conv2d_67 (conv2d)                      147,120    smul_s8_s8    3,120     0.0067 
68      68     pool_68 (pool)                            5,880      op_s8_s8          
69      69     conv2d_69 (conv2d)                        3,630    smul_s8_s8    3,630     0.0127 
70      70     conv2d_70 (conv2d)                        3,720    smul_s8_s8    3,720     0.0030 
71      71     eltwise_71 (eltwise_integer/min)            120      op_s8_s8        1     0.0000 
72      72     nl_72 (nl)                                  120      op_s8_s8          
73      73     eltwise_73 (eltwise_integer/mul)          5,880      op_s8_s8          
74      74     conv2d_74 (conv2d)                      141,144    smul_s8_s8    2,904     0.0059 
75      75     eltwise_75 (eltwise_integer/sum)          1,176      op_s8_s8          
76      76     conv2d_76 (conv2d)                      141,240    smul_s8_s8    3,000     0.0037 
77      77     pool_77 (pool)                            5,880      op_s8_s8          
78      78     conv2d_78 (conv2d)                       29,040    smul_s8_s8   29,040     0.0138 
79      79     conv2d_79 (conv2d)                          964    smul_s8_s8      964     0.0104 
80      81     nl_81 (nl)                                   60      op_s8_s8          
81      82     conversion_82 (converter)                     8   conv_s8_f32          
------- ------ ---------------------------------- ------------ ------------- -------- ---------- 
total                                               10,820,470                 76,209     0.0104 

Number of operation types
---------------- ------------ ----------- 
operation type              #           % 
---------------- ------------ ----------- 
conv_u8_s8            301,056        2.8% 
smul_s8_s8         10,384,202       96.0% 
op_s8_s8              135,204        1.2% 
conv_s8_f32                 8        0.0% 

Complexity report (model)
------ ------------------------------------------------------------ ------------------------- ------------------------- ---------- 
m_id   name                                                         c_macc                    c_rom                     c_id       
------ ------------------------------------------------------------ ------------------------- ------------------------- ---------- 
0      serving_default_input_10                                     ||                 2.8%   |                  0.0%   [0]        
1      conv2d_1                                                     ||||||||||||||||  25.0%   |                  0.3%   [1]        
2      conv2d_2                                                     |||||||||||       16.7%   |                  0.7%   [2, 3]     
3      pool_3                                                       |                  0.2%   |                  0.0%   [4]        
4      conv2d_4                                                     |                  0.0%   |                  0.0%   [5]        
5      conv2d_5                                                     |                  0.0%   |                  0.1%   [6]        
6      EmbeddedNetV1_width0_25_conv2d_14_clip_by_value_Minimum_y    |                  0.0%   |                  0.0%   [7]        
8      eltwise_8                                                    |                  0.2%   |                  0.0%   [8]        
9      conv2d_9                                                     |||                3.7%   |                  0.2%   [9]        
10     conv2d_10                                                    |||                3.7%   |                  0.2%   [10]       
11     conv2d_11                                                    ||||||             8.3%   |                  1.5%   [11, 12]   
12     conv2d_12                                                    ||                 1.9%   |                  0.4%   [13]       
13     conv2d_13                                                    |                  0.9%   |                  0.2%   [14]       
14     conv2d_14                                                    ||||||||          12.5%   |                  2.2%   [15, 16]   
15     conv2d_15                                                    ||                 2.8%   |                  0.5%   [17]       
16     conv2d_16                                                    |                  0.9%   |                  0.2%   [18]       
17     eltwise_17                                                   |                  0.1%   |                  0.0%   [19]       
18     conv2d_18                                                    |                  1.4%   |                  0.4%   [20]       
19     conv2d_19                                                    |                  1.1%   |                  0.9%   [21]       
20     pool_20                                                      |                  0.0%   |                  0.0%   [22]       
21     conv2d_21                                                    |                  0.0%   |                  0.2%   [23]       
22     conv2d_22                                                    |                  0.0%   |                  0.3%   [24]       
23     EmbeddedNetV1_width0_25_conv2d_14_clip_by_value_Minimum_y1   |                  0.0%   |                  0.0%   [25]       
25     eltwise_25                                                   |                  0.0%   |                  0.0%   [26]       
26     conv2d_26                                                    |                  0.3%   |                  0.3%   [27]       
27     conv2d_27                                                    |                  0.7%   |                  0.7%   [28]       
28     conv2d_28                                                    ||                 2.2%   |                  1.7%   [29]       
29     pool_29                                                      |                  0.1%   |                  0.0%   [30]       
30     conv2d_30                                                    |                  0.0%   |                  0.8%   [31]       
31     conv2d_31                                                    |                  0.0%   |                  0.9%   [32]       
32     EmbeddedNetV1_width0_25_conv2d_14_clip_by_value_Minimum_y2   |                  0.0%   |                  0.0%   [33]       
33     nl_33                                                        |                  0.0%   |                  0.0%   [34]       
34     eltwise_34                                                   |                  0.1%   |                  0.0%   [35]       
35     conv2d_35                                                    |                  0.7%   |                  0.5%   [36]       
36     eltwise_36                                                   |                  0.0%   |                  0.0%   [37]       
37     conv2d_37                                                    |                  0.5%   |                  0.5%   [38]       
38     conv2d_38                                                    |                  1.4%   |                  1.1%   [39]       
39     pool_39                                                      |                  0.1%   |                  0.0%   [40]       
40     conv2d_40                                                    |                  0.0%   |                  0.4%   [41]       
41     conv2d_41                                                    |                  0.0%   |                  0.5%   [42]       
42     EmbeddedNetV1_width0_25_conv2d_14_clip_by_value_Minimum_y3   |                  0.0%   |                  0.0%   [43]       
44     eltwise_44                                                   |                  0.1%   |                  0.0%   [44]       
45     conv2d_45                                                    |                  0.5%   |                  0.4%   [45]       
46     eltwise_46                                                   |                  0.0%   |                  0.0%   [46]       
47     conv2d_47                                                    |                  0.9%   |                  0.9%   [47]       
48     conv2d_48                                                    |                  0.7%   |                  2.3%   [48]       
49     pool_49                                                      |                  0.0%   |                  0.0%   [49]       
50     conv2d_50                                                    |                  0.0%   |                  1.3%   [50]       
51     conv2d_51                                                    |                  0.0%   |                  1.6%   [51]       
52     EmbeddedNetV1_width0_25_conv2d_14_clip_by_value_Minimum_y4   |                  0.0%   |                  0.0%   [52]       
53     nl_53                                                        |                  0.0%   |                  0.0%   [53]       
54     eltwise_54                                                   |                  0.0%   |                  0.0%   [54]       
55     conv2d_55                                                    |                  0.7%   |                  2.0%   [55]       
56     conv2d_56                                                    |                  0.9%   ||                 2.7%   [56]       
57     conv2d_57                                                    |                  0.9%   ||                 2.8%   [57]       
58     pool_58                                                      |                  0.0%   |                  0.0%   [58]       
59     conv2d_59                                                    |                  0.0%   |                  2.1%   [59]       
60     conv2d_60                                                    |                  0.0%   |                  2.4%   [60]       
61     EmbeddedNetV1_width0_25_conv2d_14_clip_by_value_Minimum_y5   |                  0.0%   |                  0.0%   [61]       
62     nl_62                                                        |                  0.0%   |                  0.0%   [62]       
63     eltwise_63                                                   |                  0.0%   |                  0.0%   [63]       
64     conv2d_64                                                    |                  0.9%   ||                 2.5%   [64]       
65     eltwise_65                                                   |                  0.0%   |                  0.0%   [65]       
66     conv2d_66                                                    |                  1.3%   ||                 4.1%   [66]       
67     conv2d_67                                                    |                  1.4%   ||                 4.3%   [67]       
68     pool_68                                                      |                  0.1%   |                  0.0%   [68]       
69     conv2d_69                                                    |                  0.0%   ||                 4.6%   [69]       
70     conv2d_70                                                    |                  0.0%   |||                5.0%   [70]       
71     EmbeddedNetV1_width0_25_conv2d_14_clip_by_value_Minimum_y6   |                  0.0%   |                  0.0%   [71]       
72     nl_72                                                        |                  0.0%   |                  0.0%   [72]       
73     eltwise_73                                                   |                  0.1%   |                  0.0%   [73]       
74     conv2d_74                                                    |                  1.3%   ||                 3.6%   [74]       
75     eltwise_75                                                   |                  0.0%   |                  0.0%   [75]       
76     conv2d_76                                                    |                  1.3%   ||                 4.1%   [76]       
77     pool_77                                                      |                  0.1%   |                  0.0%   [77]       
78     conv2d_78                                                    |                  0.3%   ||||||||||||||||  36.5%   [78]       
79     conv2d_79                                                    |                  0.0%   |                  1.2%   [79]       
81     nl_81                                                        |                  0.0%   |                  0.0%   [80]       
82     conversion_82                                                |                  0.0%   |                  0.0%   [81]       
------ ------------------------------------------------------------ ------------------------- ------------------------- ---------- 
macc=10,820,470 weights=81,612 act=155,704 ram_io=0

Generated files (7)
--------------------------------------------------------------------------------------------------------------------------------------- 
C:\Users\User\Documents\CODE_SPACE\stm32ai-modelzoo-2.0.0\experiments_outputs\2025_04_07_17_34_16\stm32ai_files\network_config.h        
C:\Users\User\Documents\CODE_SPACE\stm32ai-modelzoo-2.0.0\experiments_outputs\2025_04_07_17_34_16\stm32ai_files\network.h               
C:\Users\User\Documents\CODE_SPACE\stm32ai-modelzoo-2.0.0\experiments_outputs\2025_04_07_17_34_16\stm32ai_files\network.c               
C:\Users\User\Documents\CODE_SPACE\stm32ai-modelzoo-2.0.0\experiments_outputs\2025_04_07_17_34_16\stm32ai_files\network_data_params.h   
C:\Users\User\Documents\CODE_SPACE\stm32ai-modelzoo-2.0.0\experiments_outputs\2025_04_07_17_34_16\stm32ai_files\network_data_params.c   
C:\Users\User\Documents\CODE_SPACE\stm32ai-modelzoo-2.0.0\experiments_outputs\2025_04_07_17_34_16\stm32ai_files\network_data.h          
C:\Users\User\Documents\CODE_SPACE\stm32ai-modelzoo-2.0.0\experiments_outputs\2025_04_07_17_34_16\stm32ai_files\network_data.c          
