<<<<<<< HEAD
Neural Network Tools for STM32 family v1.7.0 (stm.ai v8.1.0-19520)
Created date          : 2025-07-28 15:33:30
Parameters            : generate -m E:\hjTan\Documents\CODE_SPACE\stm32ai-modelzoo-2.0.0\experiments_outputs\2025_07_28_14_57_41\quantized_models\quantized_model.tflite -v 0 --allocate-inputs --allocate-outputs --output E:\hjTan\Documents\CODE_SPACE\stm32ai-modelzoo-2.0.0\experiments_outputs\2025_07_28_14_57_41/stm32ai_files --workspace E:\hjTan\Documents\CODE_SPACE\stm32ai-modelzoo-2.0.0\experiments_outputs\2025_07_28_14_57_41/stm32ai_files --optimization balanced

Exec/report summary (generate)
--------------------------------------------------------------------------------------------------------------------------------------------------------------
model file         :   E:\hjTan\Documents\CODE_SPACE\stm32ai-modelzoo-2.0.0\experiments_outputs\2025_07_28_14_57_41\quantized_models\quantized_model.tflite   
type               :   tflite                                                                                                                                 
c_name             :   network                                                                                                                                
compression        :   lossless                                                                                                                               
options            :   allocate-inputs, allocate-outputs                                                                                                      
optimization       :   balanced                                                                                                                               
workspace dir      :   E:\hjTan\Documents\CODE_SPACE\stm32ai-modelzoo-2.0.0\experiments_outputs\2025_07_28_14_57_41\stm32ai_files                             
output dir         :   E:\hjTan\Documents\CODE_SPACE\stm32ai-modelzoo-2.0.0\experiments_outputs\2025_07_28_14_57_41\stm32ai_files                             
model_fmt          :   ss/sa per channel                                                                                                                      
model_name         :   quantized_model                                                                                                                        
model_hash         :   0c42220e2b2b6e63ca9c27e54def17f3                                                                                                       
params #           :   126,474 items (133.25 KiB)                                                                                                             
--------------------------------------------------------------------------------------------------------------------------------------------------------------
input 1/1          :   'serving_default_input_10' (domain:activations/**default**)                                                                            
                   :   150528 items, 147.00 KiB, ai_u8, s=0.00784314, zp=127, (1,224,224,3)                                                                   
output 1/1         :   'conversion_79' (domain:activations/**default**)                                                                                       
                   :   39 items, 156 B, ai_float, float, (1,39)                                                                                               
macc               :   30,607,172                                                                                                                             
weights (ro)       :   136,464 B (133.27 KiB) (1 segment) / -369,432(-73.0%) vs float model                                                                   
activations (rw)   :   251,536 B (245.64 KiB) (1 segment) *                                                                                                   
ram (total)        :   251,536 B (245.64 KiB) = 251,536 + 0 + 0                                                                                               
--------------------------------------------------------------------------------------------------------------------------------------------------------------
(*) 'input'/'output' buffers can be used from the activations buffer

Model name - quantized_model ['serving_default_input_10'] ['conversion_79']
------ ------------------------------------------------------------------ ----------------------------- --------------- ----------- -------------------------------------------------- --- --------------- ------------------- ----------------------------- 
m_id   layer (type,original)                                              oshape                        param/size             macc                                       connected to   | c_size          c_macc              c_type                        
------ ------------------------------------------------------------------ ----------------------------- --------------- ----------- -------------------------------------------------- --- --------------- ------------------- ----------------------------- 
0      serving_default_input_10 (Input, )                                 [b:1,h:224,h:224,w:224,c:3]                                                                                    |                 +301,056(+100.0%)   converter_oi8[0]              
       conversion_0 (Conversion, QUANTIZE)                                [b:1,h:224,h:224,w:224,c:3]                       301,056                           serving_default_input_10   |                 -301,056(-100.0%)   
------ ------------------------------------------------------------------ ----------------------------- --------------- ----------- -------------------------------------------------- --- --------------- ------------------- ----------------------------- 
1      conv2d_1 (Conv2D, CONV_2D)                                         [b:1,h:112,h:112,w:112,c:8]   224/248           2,709,512                                       conversion_0   |                                     optimized_conv2d_oi8[1]       
       nl_1_nl (Nonlinearity, CONV_2D)                                    [b:1,h:112,h:112,w:112,c:8]                       100,352                                           conv2d_1   |                 -100,352(-100.0%)   
------ ------------------------------------------------------------------ ----------------------------- --------------- ----------- -------------------------------------------------- --- --------------- ------------------- ----------------------------- 
2      conv2d_2 (Conv2D, CONV_2D)                                         [b:1,h:112,h:112,w:112,c:8]   584/608           7,225,352                                            nl_1_nl   |                                     pad_oi8/conv2d_oi8[2, 3]      
       nl_2_nl (Nonlinearity, CONV_2D)                                    [b:1,h:112,h:112,w:112,c:8]                       100,352                                           conv2d_2   |                 -100,352(-100.0%)   
------ ------------------------------------------------------------------ ----------------------------- --------------- ----------- -------------------------------------------------- --- --------------- ------------------- ----------------------------- 
3      eltwise_3 (Eltwise, ADD)                                           [b:1,h:112,h:112,w:112,c:8]                       100,352                                            nl_2_nl   |                                     eltwise_integer/sum_oi8[4]    
                                                                                                                                                                               nl_1_nl   | 
------ ------------------------------------------------------------------ ----------------------------- --------------- ----------- -------------------------------------------------- --- --------------- ------------------- ----------------------------- 
4      conv2d_4 (Conv2D, CONV_2D)                                         [b:1,h:56,h:56,w:56,c:32]     2,336/2,432       7,225,376                                          eltwise_3   |                                     pad_oi8/conv2d_oi8[5, 6]      
       nl_4_nl (Nonlinearity, CONV_2D)                                    [b:1,h:56,h:56,w:56,c:32]                         100,352                                           conv2d_4   |                 -100,352(-100.0%)   
------ ------------------------------------------------------------------ ----------------------------- --------------- ----------- -------------------------------------------------- --- --------------- ------------------- ----------------------------- 
5      conv2d_5 (Conv2D, CONV_2D)                                         [b:1,h:56,h:56,w:56,c:8]      264/288             802,824                                            nl_4_nl   |                                     conv2d_oi8[7]                 
------ ------------------------------------------------------------------ ----------------------------- --------------- ----------- -------------------------------------------------- --- --------------- ------------------- ----------------------------- 
6      conv2d_6 (Conv2D, CONV_2D)                                         [b:1,h:28,h:28,w:28,c:32]     2,336/2,432       1,806,368                                           conv2d_5   |                                     pad_oi8/conv2d_oi8[8, 9]      
       nl_6_nl (Nonlinearity, CONV_2D)                                    [b:1,h:28,h:28,w:28,c:32]                          25,088                                           conv2d_6   |                 -25,088(-100.0%)    
------ ------------------------------------------------------------------ ----------------------------- --------------- ----------- -------------------------------------------------- --- --------------- ------------------- ----------------------------- 
7      conv2d_7 (Conv2D, CONV_2D)                                         [b:1,h:28,h:28,w:28,c:16]     528/576             401,424                                            nl_6_nl   |                                     conv2d_oi8[10]                
------ ------------------------------------------------------------------ ----------------------------- --------------- ----------- -------------------------------------------------- --- --------------- ------------------- ----------------------------- 
8      conv2d_8 (Conv2D, CONV_2D)                                         [b:1,h:28,h:28,w:28,c:64]     1,088/1,280         802,880                                           conv2d_7   |                                     conv2d_oi8[11]                
       nl_8_nl (Nonlinearity, CONV_2D)                                    [b:1,h:28,h:28,w:28,c:64]                          50,176                                           conv2d_8   |                 -50,176(-100.0%)    
------ ------------------------------------------------------------------ ----------------------------- --------------- ----------- -------------------------------------------------- --- --------------- ------------------- ----------------------------- 
9      conv2d_9 (Conv2D, DEPTHWISE_CONV_2D)                               [b:1,h:14,h:14,w:14,c:64]     640/832             112,960                                            nl_8_nl   |                                     pad_oi8/conv2d_oi8[12, 13]    
       nl_9_nl (Nonlinearity, DEPTHWISE_CONV_2D)                          [b:1,h:14,h:14,w:14,c:64]                          12,544                                           conv2d_9   |                 -12,544(-100.0%)    
------ ------------------------------------------------------------------ ----------------------------- --------------- ----------- -------------------------------------------------- --- --------------- ------------------- ----------------------------- 
10     pool_10 (Pool, MEAN)                                               [b:1,h:1,h:1,w:1,c:64]                             12,544                                            nl_9_nl   |                                     pool_oi8[14]                  
       reshape_10_reshape (Reshape, MEAN)                                 [b:1,c:64]                                                                                           pool_10   |                                     
------ ------------------------------------------------------------------ ----------------------------- --------------- ----------- -------------------------------------------------- --- --------------- ------------------- ----------------------------- 
14     reshape_14 (Reshape, RESHAPE)                                      [b:1,h:1,h:1,w:1,c:64]                                                                    reshape_10_reshape   |                                     
------ ------------------------------------------------------------------ ----------------------------- --------------- ----------- -------------------------------------------------- --- --------------- ------------------- ----------------------------- 
15     conv2d_15 (Conv2D, CONV_2D)                                        [b:1,h:1,h:1,w:1,c:4]         260/272                 260                                         reshape_14   |                                     conv2d_oi8[15]                
       nl_15_nl (Nonlinearity, CONV_2D)                                   [b:1,h:1,h:1,w:1,c:4]                                   4                                          conv2d_15   |                 -4(-100.0%)         
------ ------------------------------------------------------------------ ----------------------------- --------------- ----------- -------------------------------------------------- --- --------------- ------------------- ----------------------------- 
16     conv2d_16 (Conv2D, CONV_2D)                                        [b:1,h:1,h:1,w:1,c:64]        320/512                 320                                           nl_15_nl   |                                     conv2d_oi8[16]                
------ ------------------------------------------------------------------ ----------------------------- --------------- ----------- -------------------------------------------------- --- --------------- ------------------- ----------------------------- 
17     model_block4a_se_expand_clip_by_value_Minimum_y (Placeholder, )    []                            1/1                                                                              | +3(+300.0%)     +64(+100.0%)        eltwise_integer/min_oi8[17]   
       eltwise_17 (Eltwise, MINIMUM)                                      [b:1,h:1,h:1,w:1,c:64]                                 64                                          conv2d_16   |                 -64(-100.0%)        
                                                                                                                                       model_block4a_se_expand_clip_by_value_Minimum_y   | 
------ ------------------------------------------------------------------ ----------------------------- --------------- ----------- -------------------------------------------------- --- --------------- ------------------- ----------------------------- 
18     nl_18 (Nonlinearity, RELU)                                         [b:1,h:1,h:1,w:1,c:64]                                 64                                         eltwise_17   |                                     nl_oi8[18]                    
------ ------------------------------------------------------------------ ----------------------------- --------------- ----------- -------------------------------------------------- --- --------------- ------------------- ----------------------------- 
19     eltwise_19 (Eltwise, MUL)                                          [b:1,h:14,h:14,w:14,c:64]                          12,544                                            nl_9_nl   |                                     eltwise_integer/mul_oi8[19]   
                                                                                                                                                                                 nl_18   | 
------ ------------------------------------------------------------------ ----------------------------- --------------- ----------- -------------------------------------------------- --- --------------- ------------------- ----------------------------- 
20     conv2d_20 (Conv2D, CONV_2D)                                        [b:1,h:14,h:14,w:14,c:24]     1,560/1,632         301,080                                         eltwise_19   |                                     conv2d_oi8[20]                
------ ------------------------------------------------------------------ ----------------------------- --------------- ----------- -------------------------------------------------- --- --------------- ------------------- ----------------------------- 
21     conv2d_21 (Conv2D, CONV_2D)                                        [b:1,h:14,h:14,w:14,c:144]    3,600/4,032         677,520                                          conv2d_20   |                                     conv2d_oi8[21]                
       nl_21_nl (Nonlinearity, CONV_2D)                                   [b:1,h:14,h:14,w:14,c:144]                         28,224                                          conv2d_21   |                 -28,224(-100.0%)    
------ ------------------------------------------------------------------ ----------------------------- --------------- ----------- -------------------------------------------------- --- --------------- ------------------- ----------------------------- 
22     conv2d_22 (Conv2D, DEPTHWISE_CONV_2D)                              [b:1,h:14,h:14,w:14,c:144]    1,440/1,872         254,160                                           nl_21_nl   |                                     pad_oi8/conv2d_oi8[22, 23]    
       nl_22_nl (Nonlinearity, DEPTHWISE_CONV_2D)                         [b:1,h:14,h:14,w:14,c:144]                         28,224                                          conv2d_22   |                 -28,224(-100.0%)    
------ ------------------------------------------------------------------ ----------------------------- --------------- ----------- -------------------------------------------------- --- --------------- ------------------- ----------------------------- 
23     pool_23 (Pool, MEAN)                                               [b:1,h:1,h:1,w:1,c:144]                            28,224                                           nl_22_nl   |                                     pool_oi8[24]                  
       reshape_23_reshape (Reshape, MEAN)                                 [b:1,c:144]                                                                                          pool_23   |                                     
------ ------------------------------------------------------------------ ----------------------------- --------------- ----------- -------------------------------------------------- --- --------------- ------------------- ----------------------------- 
27     reshape_27 (Reshape, RESHAPE)                                      [b:1,h:1,h:1,w:1,c:144]                                                                   reshape_23_reshape   |                                     
------ ------------------------------------------------------------------ ----------------------------- --------------- ----------- -------------------------------------------------- --- --------------- ------------------- ----------------------------- 
28     conv2d_28 (Conv2D, CONV_2D)                                        [b:1,h:1,h:1,w:1,c:6]         870/888                 870                                         reshape_27   |                                     conv2d_oi8[25]                
       nl_28_nl (Nonlinearity, CONV_2D)                                   [b:1,h:1,h:1,w:1,c:6]                                   6                                          conv2d_28   |                 -6(-100.0%)         
------ ------------------------------------------------------------------ ----------------------------- --------------- ----------- -------------------------------------------------- --- --------------- ------------------- ----------------------------- 
29     conv2d_29 (Conv2D, CONV_2D)                                        [b:1,h:1,h:1,w:1,c:144]       1,008/1,440           1,008                                           nl_28_nl   |                                     conv2d_oi8[26]                
------ ------------------------------------------------------------------ ----------------------------- --------------- ----------- -------------------------------------------------- --- --------------- ------------------- ----------------------------- 
30     model_block4a_se_expand_clip_by_value_Minimum_y1 (Placeholder, )   []                            1/1                                                                              | +3(+300.0%)     +144(+100.0%)       eltwise_integer/min_oi8[27]   
       eltwise_30 (Eltwise, MINIMUM)                                      [b:1,h:1,h:1,w:1,c:144]                               144                                          conv2d_29   |                 -144(-100.0%)       
                                                                                                                                      model_block4a_se_expand_clip_by_value_Minimum_y1   | 
------ ------------------------------------------------------------------ ----------------------------- --------------- ----------- -------------------------------------------------- --- --------------- ------------------- ----------------------------- 
31     nl_31 (Nonlinearity, RELU)                                         [b:1,h:1,h:1,w:1,c:144]                               144                                         eltwise_30   |                                     nl_oi8[28]                    
------ ------------------------------------------------------------------ ----------------------------- --------------- ----------- -------------------------------------------------- --- --------------- ------------------- ----------------------------- 
32     eltwise_32 (Eltwise, MUL)                                          [b:1,h:14,h:14,w:14,c:144]                         28,224                                           nl_22_nl   |                                     eltwise_integer/mul_oi8[29]   
                                                                                                                                                                                 nl_31   | 
------ ------------------------------------------------------------------ ----------------------------- --------------- ----------- -------------------------------------------------- --- --------------- ------------------- ----------------------------- 
33     conv2d_33 (Conv2D, CONV_2D)                                        [b:1,h:14,h:14,w:14,c:32]     4,640/4,736         903,200                                         eltwise_32   |                                     conv2d_oi8[30]                
------ ------------------------------------------------------------------ ----------------------------- --------------- ----------- -------------------------------------------------- --- --------------- ------------------- ----------------------------- 
34     conv2d_34 (Conv2D, CONV_2D)                                        [b:1,h:14,h:14,w:14,c:192]    6,336/6,912       1,204,416                                          conv2d_33   |                                     conv2d_oi8[31]                
       nl_34_nl (Nonlinearity, CONV_2D)                                   [b:1,h:14,h:14,w:14,c:192]                         37,632                                          conv2d_34   |                 -37,632(-100.0%)    
------ ------------------------------------------------------------------ ----------------------------- --------------- ----------- -------------------------------------------------- --- --------------- ------------------- ----------------------------- 
35     conv2d_35 (Conv2D, DEPTHWISE_CONV_2D)                              [b:1,h:14,h:14,w:14,c:192]    1,920/2,496         338,880                                           nl_34_nl   |                                     pad_oi8/conv2d_oi8[32, 33]    
       nl_35_nl (Nonlinearity, DEPTHWISE_CONV_2D)                         [b:1,h:14,h:14,w:14,c:192]                         37,632                                          conv2d_35   |                 -37,632(-100.0%)    
------ ------------------------------------------------------------------ ----------------------------- --------------- ----------- -------------------------------------------------- --- --------------- ------------------- ----------------------------- 
36     pool_36 (Pool, MEAN)                                               [b:1,h:1,h:1,w:1,c:192]                            37,632                                           nl_35_nl   |                                     pool_oi8[34]                  
       reshape_36_reshape (Reshape, MEAN)                                 [b:1,c:192]                                                                                          pool_36   |                                     
------ ------------------------------------------------------------------ ----------------------------- --------------- ----------- -------------------------------------------------- --- --------------- ------------------- ----------------------------- 
40     reshape_40 (Reshape, RESHAPE)                                      [b:1,h:1,h:1,w:1,c:192]                                                                   reshape_36_reshape   |                                     
------ ------------------------------------------------------------------ ----------------------------- --------------- ----------- -------------------------------------------------- --- --------------- ------------------- ----------------------------- 
41     conv2d_41 (Conv2D, CONV_2D)                                        [b:1,h:1,h:1,w:1,c:8]         1,544/1,568           1,544                                         reshape_40   |                                     conv2d_oi8[35]                
       nl_41_nl (Nonlinearity, CONV_2D)                                   [b:1,h:1,h:1,w:1,c:8]                                   8                                          conv2d_41   |                 -8(-100.0%)         
------ ------------------------------------------------------------------ ----------------------------- --------------- ----------- -------------------------------------------------- --- --------------- ------------------- ----------------------------- 
42     conv2d_42 (Conv2D, CONV_2D)                                        [b:1,h:1,h:1,w:1,c:192]       1,728/2,304           1,728                                           nl_41_nl   |                                     conv2d_oi8[36]                
------ ------------------------------------------------------------------ ----------------------------- --------------- ----------- -------------------------------------------------- --- --------------- ------------------- ----------------------------- 
43     model_block4a_se_expand_clip_by_value_Minimum_y2 (Placeholder, )   []                            1/1                                                                              | +3(+300.0%)     +192(+100.0%)       eltwise_integer/min_oi8[37]   
       eltwise_43 (Eltwise, MINIMUM)                                      [b:1,h:1,h:1,w:1,c:192]                               192                                          conv2d_42   |                 -192(-100.0%)       
                                                                                                                                      model_block4a_se_expand_clip_by_value_Minimum_y2   | 
------ ------------------------------------------------------------------ ----------------------------- --------------- ----------- -------------------------------------------------- --- --------------- ------------------- ----------------------------- 
44     nl_44 (Nonlinearity, RELU)                                         [b:1,h:1,h:1,w:1,c:192]                               192                                         eltwise_43   |                                     nl_oi8[38]                    
------ ------------------------------------------------------------------ ----------------------------- --------------- ----------- -------------------------------------------------- --- --------------- ------------------- ----------------------------- 
45     eltwise_45 (Eltwise, MUL)                                          [b:1,h:14,h:14,w:14,c:192]                         37,632                                           nl_35_nl   |                                     eltwise_integer/mul_oi8[39]   
                                                                                                                                                                                 nl_44   | 
------ ------------------------------------------------------------------ ----------------------------- --------------- ----------- -------------------------------------------------- --- --------------- ------------------- ----------------------------- 
46     conv2d_46 (Conv2D, CONV_2D)                                        [b:1,h:14,h:14,w:14,c:32]     6,176/6,272       1,204,256                                         eltwise_45   |                                     conv2d_oi8[40]                
------ ------------------------------------------------------------------ ----------------------------- --------------- ----------- -------------------------------------------------- --- --------------- ------------------- ----------------------------- 
47     eltwise_47 (Eltwise, ADD)                                          [b:1,h:14,h:14,w:14,c:32]                           6,272                                          conv2d_46   |                                     eltwise_integer/sum_oi8[41]   
                                                                                                                                                                             conv2d_33   | 
------ ------------------------------------------------------------------ ----------------------------- --------------- ----------- -------------------------------------------------- --- --------------- ------------------- ----------------------------- 
48     conv2d_48 (Conv2D, CONV_2D)                                        [b:1,h:14,h:14,w:14,c:192]    6,336/6,912       1,204,416                                         eltwise_47   |                                     conv2d_oi8[42]                
       nl_48_nl (Nonlinearity, CONV_2D)                                   [b:1,h:14,h:14,w:14,c:192]                         37,632                                          conv2d_48   |                 -37,632(-100.0%)    
------ ------------------------------------------------------------------ ----------------------------- --------------- ----------- -------------------------------------------------- --- --------------- ------------------- ----------------------------- 
49     conv2d_49 (Conv2D, DEPTHWISE_CONV_2D)                              [b:1,h:7,h:7,w:7,c:192]       1,920/2,496          84,864                                           nl_48_nl   |                                     pad_oi8/conv2d_oi8[43, 44]    
       nl_49_nl (Nonlinearity, DEPTHWISE_CONV_2D)                         [b:1,h:7,h:7,w:7,c:192]                             9,408                                          conv2d_49   |                 -9,408(-100.0%)     
------ ------------------------------------------------------------------ ----------------------------- --------------- ----------- -------------------------------------------------- --- --------------- ------------------- ----------------------------- 
50     pool_50 (Pool, MEAN)                                               [b:1,h:1,h:1,w:1,c:192]                             9,408                                           nl_49_nl   |                                     pool_oi8[45]                  
       reshape_50_reshape (Reshape, MEAN)                                 [b:1,c:192]                                                                                          pool_50   |                                     
------ ------------------------------------------------------------------ ----------------------------- --------------- ----------- -------------------------------------------------- --- --------------- ------------------- ----------------------------- 
54     reshape_54 (Reshape, RESHAPE)                                      [b:1,h:1,h:1,w:1,c:192]                                                                   reshape_50_reshape   |                                     
------ ------------------------------------------------------------------ ----------------------------- --------------- ----------- -------------------------------------------------- --- --------------- ------------------- ----------------------------- 
55     conv2d_55 (Conv2D, CONV_2D)                                        [b:1,h:1,h:1,w:1,c:8]         1,544/1,568           1,544                                         reshape_54   |                                     conv2d_oi8[46]                
       nl_55_nl (Nonlinearity, CONV_2D)                                   [b:1,h:1,h:1,w:1,c:8]                                   8                                          conv2d_55   |                 -8(-100.0%)         
------ ------------------------------------------------------------------ ----------------------------- --------------- ----------- -------------------------------------------------- --- --------------- ------------------- ----------------------------- 
56     conv2d_56 (Conv2D, CONV_2D)                                        [b:1,h:1,h:1,w:1,c:192]       1,728/2,304           1,728                                           nl_55_nl   |                                     conv2d_oi8[47]                
------ ------------------------------------------------------------------ ----------------------------- --------------- ----------- -------------------------------------------------- --- --------------- ------------------- ----------------------------- 
57     model_block4a_se_expand_clip_by_value_Minimum_y3 (Placeholder, )   []                            1/1                                                                              | +3(+300.0%)     +192(+100.0%)       eltwise_integer/min_oi8[48]   
       eltwise_57 (Eltwise, MINIMUM)                                      [b:1,h:1,h:1,w:1,c:192]                               192                                          conv2d_56   |                 -192(-100.0%)       
                                                                                                                                      model_block4a_se_expand_clip_by_value_Minimum_y3   | 
------ ------------------------------------------------------------------ ----------------------------- --------------- ----------- -------------------------------------------------- --- --------------- ------------------- ----------------------------- 
58     nl_58 (Nonlinearity, RELU)                                         [b:1,h:1,h:1,w:1,c:192]                               192                                         eltwise_57   |                                     nl_oi8[49]                    
------ ------------------------------------------------------------------ ----------------------------- --------------- ----------- -------------------------------------------------- --- --------------- ------------------- ----------------------------- 
59     eltwise_59 (Eltwise, MUL)                                          [b:1,h:7,h:7,w:7,c:192]                             9,408                                           nl_49_nl   |                                     eltwise_integer/mul_oi8[50]   
                                                                                                                                                                                 nl_58   | 
------ ------------------------------------------------------------------ ----------------------------- --------------- ----------- -------------------------------------------------- --- --------------- ------------------- ----------------------------- 
60     conv2d_60 (Conv2D, CONV_2D)                                        [b:1,h:7,h:7,w:7,c:48]        9,264/9,408         451,632                                         eltwise_59   |                                     conv2d_oi8[51]                
------ ------------------------------------------------------------------ ----------------------------- --------------- ----------- -------------------------------------------------- --- --------------- ------------------- ----------------------------- 
61     conv2d_61 (Conv2D, CONV_2D)                                        [b:1,h:7,h:7,w:7,c:288]       14,112/14,976       677,664                                          conv2d_60   |                                     conv2d_oi8[52]                
       nl_61_nl (Nonlinearity, CONV_2D)                                   [b:1,h:7,h:7,w:7,c:288]                            14,112                                          conv2d_61   |                 -14,112(-100.0%)    
------ ------------------------------------------------------------------ ----------------------------- --------------- ----------- -------------------------------------------------- --- --------------- ------------------- ----------------------------- 
62     conv2d_62 (Conv2D, DEPTHWISE_CONV_2D)                              [b:1,h:7,h:7,w:7,c:288]       2,880/3,744         127,296                                           nl_61_nl   |                                     pad_oi8/conv2d_oi8[53, 54]    
       nl_62_nl (Nonlinearity, DEPTHWISE_CONV_2D)                         [b:1,h:7,h:7,w:7,c:288]                            14,112                                          conv2d_62   |                 -14,112(-100.0%)    
------ ------------------------------------------------------------------ ----------------------------- --------------- ----------- -------------------------------------------------- --- --------------- ------------------- ----------------------------- 
63     pool_63 (Pool, MEAN)                                               [b:1,h:1,h:1,w:1,c:288]                            14,112                                           nl_62_nl   |                                     pool_oi8[55]                  
       reshape_63_reshape (Reshape, MEAN)                                 [b:1,c:288]                                                                                          pool_63   |                                     
------ ------------------------------------------------------------------ ----------------------------- --------------- ----------- -------------------------------------------------- --- --------------- ------------------- ----------------------------- 
67     reshape_67 (Reshape, RESHAPE)                                      [b:1,h:1,h:1,w:1,c:288]                                                                   reshape_63_reshape   |                                     
------ ------------------------------------------------------------------ ----------------------------- --------------- ----------- -------------------------------------------------- --- --------------- ------------------- ----------------------------- 
68     conv2d_68 (Conv2D, CONV_2D)                                        [b:1,h:1,h:1,w:1,c:12]        3,468/3,504           3,468                                         reshape_67   |                                     conv2d_oi8[56]                
       nl_68_nl (Nonlinearity, CONV_2D)                                   [b:1,h:1,h:1,w:1,c:12]                                 12                                          conv2d_68   |                 -12(-100.0%)        
------ ------------------------------------------------------------------ ----------------------------- --------------- ----------- -------------------------------------------------- --- --------------- ------------------- ----------------------------- 
69     conv2d_69 (Conv2D, CONV_2D)                                        [b:1,h:1,h:1,w:1,c:288]       3,744/4,608           3,744                                           nl_68_nl   |                                     conv2d_oi8[57]                
------ ------------------------------------------------------------------ ----------------------------- --------------- ----------- -------------------------------------------------- --- --------------- ------------------- ----------------------------- 
70     model_block4a_se_expand_clip_by_value_Minimum_y4 (Placeholder, )   []                            1/1                                                                              | +3(+300.0%)     +288(+100.0%)       eltwise_integer/min_oi8[58]   
       eltwise_70 (Eltwise, MINIMUM)                                      [b:1,h:1,h:1,w:1,c:288]                               288                                          conv2d_69   |                 -288(-100.0%)       
                                                                                                                                      model_block4a_se_expand_clip_by_value_Minimum_y4   | 
------ ------------------------------------------------------------------ ----------------------------- --------------- ----------- -------------------------------------------------- --- --------------- ------------------- ----------------------------- 
71     nl_71 (Nonlinearity, RELU)                                         [b:1,h:1,h:1,w:1,c:288]                               288                                         eltwise_70   |                                     nl_oi8[59]                    
------ ------------------------------------------------------------------ ----------------------------- --------------- ----------- -------------------------------------------------- --- --------------- ------------------- ----------------------------- 
72     eltwise_72 (Eltwise, MUL)                                          [b:1,h:7,h:7,w:7,c:288]                            14,112                                           nl_62_nl   |                                     eltwise_integer/mul_oi8[60]   
                                                                                                                                                                                 nl_71   | 
------ ------------------------------------------------------------------ ----------------------------- --------------- ----------- -------------------------------------------------- --- --------------- ------------------- ----------------------------- 
73     conv2d_73 (Conv2D, CONV_2D)                                        [b:1,h:7,h:7,w:7,c:48]        13,872/14,016       677,424                                         eltwise_72   |                                     conv2d_oi8[61]                
------ ------------------------------------------------------------------ ----------------------------- --------------- ----------- -------------------------------------------------- --- --------------- ------------------- ----------------------------- 
74     eltwise_74 (Eltwise, ADD)                                          [b:1,h:7,h:7,w:7,c:48]                              2,352                                          conv2d_73   |                                     eltwise_integer/sum_oi8[62]   
                                                                                                                                                                             conv2d_60   | 
------ ------------------------------------------------------------------ ----------------------------- --------------- ----------- -------------------------------------------------- --- --------------- ------------------- ----------------------------- 
75     conv2d_75 (Conv2D, CONV_2D)                                        [b:1,h:7,h:7,w:7,c:320]       15,680/16,640       752,960                                         eltwise_74   |                                     conv2d_oi8[63]                
       nl_75_nl (Nonlinearity, CONV_2D)                                   [b:1,h:7,h:7,w:7,c:320]                            15,680                                          conv2d_75   |                 -15,680(-100.0%)    
------ ------------------------------------------------------------------ ----------------------------- --------------- ----------- -------------------------------------------------- --- --------------- ------------------- ----------------------------- 
76     pool_76 (Pool, MEAN)                                               [b:1,h:1,h:1,w:1,c:320]                            15,680                                           nl_75_nl   |                                     pool_oi8[64]                  
       reshape_76_reshape (Reshape, MEAN)                                 [b:1,c:320]                                                                                          pool_76   |                                     
------ ------------------------------------------------------------------ ----------------------------- --------------- ----------- -------------------------------------------------- --- --------------- ------------------- ----------------------------- 
77     model_predictions_MatMul (Placeholder, )                           [h:39,h:39,c:320]             12,480/12,480                                                                    | +156(+1.2%)     +12,519(+100.0%)    dense_oi8[65]                 
       predictions_bias (Placeholder, )                                   [c:39]                        39/156                                                                           | -156(-100.0%)                       
       gemm_77 (Gemm, FULLY_CONNECTED)                                    [b:1,c:39]                                         12,519                                 reshape_76_reshape   |                 -12,519(-100.0%)    
                                                                                                                                                              model_predictions_MatMul   | 
                                                                                                                                                                      predictions_bias   | 
------ ------------------------------------------------------------------ ----------------------------- --------------- ----------- -------------------------------------------------- --- --------------- ------------------- ----------------------------- 
78     nl_78 (Nonlinearity, SOFTMAX)                                      [b:1,c:39]                                            585                                            gemm_77   |                                     nl_oi8[66]                    
------ ------------------------------------------------------------------ ----------------------------- --------------- ----------- -------------------------------------------------- --- --------------- ------------------- ----------------------------- 
79     conversion_79 (Conversion, DEQUANTIZE)                             [b:1,c:39]                                             78                                              nl_78   |                                     converter_of32[o][67]         
------ ------------------------------------------------------------------ ----------------------------- --------------- ----------- -------------------------------------------------- --- --------------- ------------------- ----------------------------- 
model/c-model: macc=31,218,730/30,607,172 -611,558(-2.0%) weights=136,449/136,464 +15(+0.0%) activations=--/251,536 io=--/0



Generated C-graph summary
------------------------------------------------------------------------------------------------------------------------
model name            : quantized_model
c-name                : network
c-node #              : 68
c-array #             : 194
activations size      : 251536 (1 segment)
weights size          : 136464 (1 segment)
macc                  : 30607172
inputs                : ['serving_default_input_10_output']
outputs               : ['conversion_79_output']

C-Arrays (194)
------ -------------------------------------------------- --------------- ------------------------- --------------- -------------- --------- 
c_id   name (*_array)                                     item/size       domain/mem-pool           c-type          fmt            comment   
------ -------------------------------------------------- --------------- ------------------------- --------------- -------------- --------- 
0      conv2d_6_weights                                   2304/2304       weights/weights           const int8_t    ss8/ch(32)               
1      conv2d_6_bias                                      32/128          weights/weights           const int32_t   ss32/ch(32)              
2      conv2d_7_weights                                   512/512         weights/weights           const int8_t    ss8/ch(16)               
3      conv2d_7_bias                                      16/64           weights/weights           const int32_t   ss32/ch(16)              
4      conv2d_8_weights                                   1024/1024       weights/weights           const int8_t    ss8/ch(64)               
5      conv2d_8_bias                                      64/256          weights/weights           const int32_t   ss32/ch(64)              
6      conv2d_9_weights                                   576/576         weights/weights           const int8_t    ss8/ch(64)               
7      conv2d_9_bias                                      64/256          weights/weights           const int32_t   ss32/ch(64)              
8      conv2d_15_weights                                  256/256         weights/weights           const int8_t    ss8/ch(4)                
9      conv2d_15_bias                                     4/16            weights/weights           const int32_t   ss32/ch(4)               
10     conv2d_16_weights                                  256/256         weights/weights           const int8_t    ss8/ch(64)               
11     conv2d_16_bias                                     64/256          weights/weights           const int32_t   ss32/ch(64)              
12     conv2d_20_weights                                  1536/1536       weights/weights           const int8_t    ss8/ch(24)               
13     conv2d_20_bias                                     24/96           weights/weights           const int32_t   ss32/ch(24)              
14     conv2d_21_weights                                  3456/3456       weights/weights           const int8_t    ss8/ch(144)              
15     conv2d_21_bias                                     144/576         weights/weights           const int32_t   ss32/ch(144)             
16     conv2d_22_weights                                  1296/1296       weights/weights           const int8_t    ss8/ch(144)              
17     conv2d_22_bias                                     144/576         weights/weights           const int32_t   ss32/ch(144)             
18     conv2d_28_weights                                  864/864         weights/weights           const int8_t    ss8/ch(6)                
19     conv2d_28_bias                                     6/24            weights/weights           const int32_t   ss32/ch(6)               
20     conv2d_29_weights                                  864/864         weights/weights           const int8_t    ss8/ch(144)              
21     conv2d_29_bias                                     144/576         weights/weights           const int32_t   ss32/ch(144)             
22     conv2d_33_weights                                  4608/4608       weights/weights           const int8_t    ss8/ch(32)               
23     conv2d_33_bias                                     32/128          weights/weights           const int32_t   ss32/ch(32)              
24     conv2d_34_weights                                  6144/6144       weights/weights           const int8_t    ss8/ch(192)              
25     conv2d_34_bias                                     192/768         weights/weights           const int32_t   ss32/ch(192)             
26     conv2d_35_weights                                  1728/1728       weights/weights           const int8_t    ss8/ch(192)              
27     conv2d_35_bias                                     192/768         weights/weights           const int32_t   ss32/ch(192)             
28     conv2d_41_weights                                  1536/1536       weights/weights           const int8_t    ss8/ch(8)                
29     conv2d_41_bias                                     8/32            weights/weights           const int32_t   ss32/ch(8)               
30     conv2d_42_weights                                  1536/1536       weights/weights           const int8_t    ss8/ch(192)              
31     conv2d_42_bias                                     192/768         weights/weights           const int32_t   ss32/ch(192)             
32     conv2d_46_weights                                  6144/6144       weights/weights           const int8_t    ss8/ch(32)               
33     conv2d_46_bias                                     32/128          weights/weights           const int32_t   ss32/ch(32)              
34     conv2d_48_weights                                  6144/6144       weights/weights           const int8_t    ss8/ch(192)              
35     conv2d_48_bias                                     192/768         weights/weights           const int32_t   ss32/ch(192)             
36     conv2d_49_weights                                  1728/1728       weights/weights           const int8_t    ss8/ch(192)              
37     conv2d_49_bias                                     192/768         weights/weights           const int32_t   ss32/ch(192)             
38     conv2d_55_weights                                  1536/1536       weights/weights           const int8_t    ss8/ch(8)                
39     conv2d_55_bias                                     8/32            weights/weights           const int32_t   ss32/ch(8)               
40     conv2d_56_weights                                  1536/1536       weights/weights           const int8_t    ss8/ch(192)              
41     conv2d_56_bias                                     192/768         weights/weights           const int32_t   ss32/ch(192)             
42     conv2d_60_weights                                  9216/9216       weights/weights           const int8_t    ss8/ch(48)               
43     conv2d_60_bias                                     48/192          weights/weights           const int32_t   ss32/ch(48)              
44     conv2d_61_weights                                  13824/13824     weights/weights           const int8_t    ss8/ch(288)              
45     conv2d_61_bias                                     288/1152        weights/weights           const int32_t   ss32/ch(288)             
46     conv2d_62_weights                                  2592/2592       weights/weights           const int8_t    ss8/ch(288)              
47     conv2d_62_bias                                     288/1152        weights/weights           const int32_t   ss32/ch(288)             
48     conv2d_68_weights                                  3456/3456       weights/weights           const int8_t    ss8/ch(12)               
49     conv2d_68_bias                                     12/48           weights/weights           const int32_t   ss32/ch(12)              
50     conv2d_69_weights                                  3456/3456       weights/weights           const int8_t    ss8/ch(288)              
51     conv2d_69_bias                                     288/1152        weights/weights           const int32_t   ss32/ch(288)             
52     conv2d_73_weights                                  13824/13824     weights/weights           const int8_t    ss8/ch(48)               
53     conv2d_73_bias                                     48/192          weights/weights           const int32_t   ss32/ch(48)              
54     conv2d_75_weights                                  15360/15360     weights/weights           const int8_t    ss8/ch(320)              
55     conv2d_75_bias                                     320/1280        weights/weights           const int32_t   ss32/ch(320)             
56     gemm_77_weights                                    12480/12480     weights/weights           const int8_t    ss8                      
57     gemm_77_bias                                       39/156          weights/weights           const int32_t   ss32                     
58     conv2d_1_scratch0                                  652/652         activations/**default**   int8_t          s8                       
59     conv2d_1_scratch1                                  100352/100352   activations/**default**   int8_t          sa8                      
60     conv2d_2_scratch0                                  1552/1552       activations/**default**   int8_t          s8                       
61     conv2d_2_scratch1                                  100352/100352   activations/**default**   int8_t          sa8                      
62     conv2d_4_scratch0                                  5344/5344       activations/**default**   int8_t          s8                       
63     conv2d_4_scratch1                                  100352/100352   activations/**default**   int8_t          sa8                      
64     conv2d_5_scratch0                                  208/208         activations/**default**   int8_t          s8                       
65     conv2d_6_scratch0                                  5344/5344       activations/**default**   int8_t          s8                       
66     conv2d_6_scratch1                                  25088/25088     activations/**default**   int8_t          sa8                      
67     conv2d_7_scratch0                                  288/288         activations/**default**   int8_t          s8                       
68     conv2d_8_scratch0                                  704/704         activations/**default**   int8_t          s8                       
69     conv2d_8_scratch1                                  50176/50176     activations/**default**   int8_t          sa8                      
70     conv2d_9_scratch0                                  2369/2369       activations/**default**   int8_t          s8                       
71     conv2d_9_scratch1                                  12544/12544     activations/**default**   int8_t          sa8                      
72     conv2d_15_scratch0                                 296/296         activations/**default**   int8_t          s8                       
73     conv2d_15_scratch1                                 4/4             activations/**default**   int8_t          sa8                      
74     conv2d_16_scratch0                                 656/656         activations/**default**   int8_t          s8                       
75     conv2d_20_scratch0                                 496/496         activations/**default**   int8_t          s8                       
76     conv2d_21_scratch0                                 1536/1536       activations/**default**   int8_t          s8                       
77     conv2d_21_scratch1                                 28224/28224     activations/**default**   int8_t          sa8                      
78     conv2d_22_scratch0                                 5329/5329       activations/**default**   int8_t          s8                       
79     conv2d_22_scratch1                                 28224/28224     activations/**default**   int8_t          sa8                      
80     conv2d_28_scratch0                                 636/636         activations/**default**   int8_t          s8                       
81     conv2d_28_scratch1                                 6/6             activations/**default**   int8_t          sa8                      
82     conv2d_29_scratch0                                 1464/1464       activations/**default**   int8_t          s8                       
83     conv2d_33_scratch0                                 896/896         activations/**default**   int8_t          s8                       
84     conv2d_34_scratch0                                 2048/2048       activations/**default**   int8_t          s8                       
85     conv2d_34_scratch1                                 37632/37632     activations/**default**   int8_t          sa8                      
86     conv2d_35_scratch0                                 7105/7105       activations/**default**   int8_t          s8                       
87     conv2d_35_scratch1                                 37632/37632     activations/**default**   int8_t          sa8                      
88     conv2d_41_scratch0                                 848/848         activations/**default**   int8_t          s8                       
89     conv2d_41_scratch1                                 8/8             activations/**default**   int8_t          sa8                      
90     serving_default_input_10_output                    150528/150528   activations/**default**   uint8_t         ua8            /input    
91     conversion_0_output                                150528/150529   activations/**default**   int8_t          sa8                      
92     conv2d_42_scratch0                                 1952/1952       activations/**default**   int8_t          s8                       
93     conv2d_1_output                                    100352/100352   activations/**default**   int8_t          sa8                      
94     conv2d_2_pad_before_output                         103968/103968   activations/**default**   int8_t          sa8                      
95     conv2d_2_output                                    100352/100352   activations/**default**   int8_t          sa8                      
96     conv2d_46_scratch0                                 1088/1088       activations/**default**   int8_t          s8                       
97     eltwise_3_output                                   100352/100352   activations/**default**   int8_t          sa8                      
98     conv2d_4_pad_before_output                         103968/103968   activations/**default**   int8_t          sa8                      
99     conv2d_4_output                                    100352/100352   activations/**default**   int8_t          sa8                      
100    conv2d_48_scratch0                                 2048/2048       activations/**default**   int8_t          s8                       
101    conv2d_5_output                                    25088/25088     activations/**default**   int8_t          sa8                      
102    conv2d_6_pad_before_output                         26912/26912     activations/**default**   int8_t          sa8                      
103    conv2d_48_scratch1                                 37632/37632     activations/**default**   int8_t          sa8                      
104    conv2d_6_output                                    25088/25088     activations/**default**   int8_t          sa8                      
105    conv2d_7_output                                    12544/12544     activations/**default**   int8_t          sa8                      
106    conv2d_8_output                                    50176/50176     activations/**default**   int8_t          sa8                      
107    conv2d_49_scratch0                                 7105/7105       activations/**default**   int8_t          s8                       
108    conv2d_9_pad_before_output                         57600/57600     activations/**default**   int8_t          sa8                      
109    conv2d_9_output                                    12544/12544     activations/**default**   int8_t          sa8                      
110    conv2d_49_scratch1                                 9408/9408       activations/**default**   int8_t          sa8                      
111    pool_10_output                                     64/64           activations/**default**   int8_t          sa8                      
112    conv2d_15_output                                   4/4             activations/**default**   int8_t          sa8                      
113    conv2d_16_output                                   64/64           activations/**default**   int8_t          sa8                      
114    conv2d_55_scratch0                                 848/848         activations/**default**   int8_t          s8                       
115    eltwise_17_output                                  64/64           activations/**default**   int8_t          sa8                      
116    nl_18_output                                       64/64           activations/**default**   int8_t          sa8                      
117    conv2d_55_scratch1                                 8/8             activations/**default**   int8_t          sa8                      
118    eltwise_19_output                                  12544/12544     activations/**default**   int8_t          sa8                      
119    conv2d_20_output                                   4704/4704       activations/**default**   int8_t          sa8                      
120    conv2d_21_output                                   28224/28224     activations/**default**   int8_t          sa8                      
121    conv2d_56_scratch0                                 1952/1952       activations/**default**   int8_t          s8                       
122    conv2d_22_pad_before_output                        36864/36864     activations/**default**   int8_t          sa8                      
123    conv2d_22_output                                   28224/28224     activations/**default**   int8_t          sa8                      
124    pool_23_output                                     144/144         activations/**default**   int8_t          sa8                      
125    conv2d_60_scratch0                                 1248/1248       activations/**default**   int8_t          s8                       
126    conv2d_28_output                                   6/6             activations/**default**   int8_t          sa8                      
127    conv2d_29_output                                   144/144         activations/**default**   int8_t          sa8                      
128    eltwise_30_output                                  144/144         activations/**default**   int8_t          sa8                      
129    conv2d_61_scratch0                                 3072/3072       activations/**default**   int8_t          s8                       
130    nl_31_output                                       144/144         activations/**default**   int8_t          sa8                      
131    eltwise_32_output                                  28224/28224     activations/**default**   int8_t          sa8                      
132    conv2d_61_scratch1                                 14112/14112     activations/**default**   int8_t          sa8                      
133    conv2d_33_output                                   6272/6272       activations/**default**   int8_t          sa8                      
134    conv2d_34_output                                   37632/37632     activations/**default**   int8_t          sa8                      
135    conv2d_35_pad_before_output                        49152/49152     activations/**default**   int8_t          sa8                      
136    conv2d_62_scratch0                                 10657/10657     activations/**default**   int8_t          s8                       
137    conv2d_35_output                                   37632/37632     activations/**default**   int8_t          sa8                      
138    pool_36_output                                     192/192         activations/**default**   int8_t          sa8                      
139    conv2d_62_scratch1                                 14112/14112     activations/**default**   int8_t          sa8                      
140    conv2d_41_output                                   8/8             activations/**default**   int8_t          sa8                      
141    conv2d_42_output                                   192/192         activations/**default**   int8_t          sa8                      
142    eltwise_43_output                                  192/192         activations/**default**   int8_t          sa8                      
143    conv2d_68_scratch0                                 1272/1272       activations/**default**   int8_t          s8                       
144    nl_44_output                                       192/192         activations/**default**   int8_t          sa8                      
145    eltwise_45_output                                  37632/37632     activations/**default**   int8_t          sa8                      
146    conv2d_68_scratch1                                 12/12           activations/**default**   int8_t          sa8                      
147    conv2d_46_output                                   6272/6272       activations/**default**   int8_t          sa8                      
148    eltwise_47_output                                  6272/6272       activations/**default**   int8_t          sa8                      
149    conv2d_48_output                                   37632/37632     activations/**default**   int8_t          sa8                      
150    conv2d_69_scratch0                                 2928/2928       activations/**default**   int8_t          s8                       
151    conv2d_49_pad_before_output                        49152/49152     activations/**default**   int8_t          sa8                      
152    conv2d_49_output                                   9408/9408       activations/**default**   int8_t          sa8                      
153    pool_50_output                                     192/192         activations/**default**   int8_t          sa8                      
154    conv2d_73_scratch0                                 1632/1632       activations/**default**   int8_t          s8                       
155    conv2d_55_output                                   8/8             activations/**default**   int8_t          sa8                      
156    conv2d_56_output                                   192/192         activations/**default**   int8_t          sa8                      
157    eltwise_57_output                                  192/192         activations/**default**   int8_t          sa8                      
158    conv2d_75_scratch0                                 3392/3392       activations/**default**   int8_t          s8                       
159    nl_58_output                                       192/192         activations/**default**   int8_t          sa8                      
160    eltwise_59_output                                  9408/9408       activations/**default**   int8_t          sa8                      
161    conv2d_75_scratch1                                 15680/15680     activations/**default**   int8_t          sa8                      
162    conv2d_60_output                                   2352/2352       activations/**default**   int8_t          sa8                      
163    conv2d_61_output                                   14112/14112     activations/**default**   int8_t          sa8                      
164    conv2d_62_pad_before_output                        23328/23328     activations/**default**   int8_t          sa8                      
165    gemm_77_scratch0                                   320/640         activations/**default**   int16_t         s16                      
166    conv2d_62_output                                   14112/14112     activations/**default**   int8_t          sa8                      
167    pool_63_output                                     288/288         activations/**default**   int8_t          sa8                      
168    conv2d_68_output                                   12/12           activations/**default**   int8_t          sa8                      
169    nl_78_scratch0                                     39/156          activations/**default**   int32_t         s32                      
170    conv2d_69_output                                   288/288         activations/**default**   int8_t          sa8                      
171    eltwise_70_output                                  288/288         activations/**default**   int8_t          sa8                      
172    nl_71_output                                       288/288         activations/**default**   int8_t          sa8                      
173    eltwise_72_output                                  14112/14112     activations/**default**   int8_t          sa8                      
174    conv2d_73_output                                   2352/2352       activations/**default**   int8_t          sa8                      
175    eltwise_74_output                                  2352/2352       activations/**default**   int8_t          sa8                      
176    conv2d_75_output                                   15680/15680     activations/**default**   int8_t          sa8                      
177    pool_76_output                                     320/320         activations/**default**   int8_t          sa8                      
178    gemm_77_output                                     39/39           activations/**default**   int8_t          sa8                      
179    nl_78_output                                       39/39           activations/**default**   int8_t          sa8                      
180    conversion_79_output                               39/156          activations/**default**   float           float32        /output   
181    model_block4a_se_expand_clip_by_value_Minimum_y4   1/4             weights/weights           const int8_t    sa8                      
182    model_block4a_se_expand_clip_by_value_Minimum_y3   1/4             weights/weights           const int8_t    sa8                      
183    model_block4a_se_expand_clip_by_value_Minimum_y2   1/4             weights/weights           const int8_t    sa8                      
184    model_block4a_se_expand_clip_by_value_Minimum_y1   1/4             weights/weights           const int8_t    sa8                      
185    model_block4a_se_expand_clip_by_value_Minimum_y    1/4             weights/weights           const int8_t    sa8                      
186    conv2d_1_weights                                   216/216         weights/weights           const int8_t    ss8/ch(8)                
187    conv2d_1_bias                                      8/32            weights/weights           const int32_t   ss32/ch(8)               
188    conv2d_2_weights                                   576/576         weights/weights           const int8_t    ss8/ch(8)                
189    conv2d_2_bias                                      8/32            weights/weights           const int32_t   ss32/ch(8)               
190    conv2d_4_weights                                   2304/2304       weights/weights           const int8_t    ss8/ch(32)               
191    conv2d_4_bias                                      32/128          weights/weights           const int32_t   ss32/ch(32)              
192    conv2d_5_weights                                   256/256         weights/weights           const int8_t    ss8/ch(8)                
193    conv2d_5_bias                                      8/32            weights/weights           const int32_t   ss32/ch(8)               
------ -------------------------------------------------- --------------- ------------------------- --------------- -------------- --------- 

C-Layers (68)
------ ---------------------- ---- ---------------------- --------- ------- ----------------------------------------------------- --------------------- 
c_id   name (*_layer)         id   layer_type             macc      rom     tensors                                               shape (array id)      
------ ---------------------- ---- ---------------------- --------- ------- ----------------------------------------------------- --------------------- 
0      conversion_0           0    converter              301056    0       I: serving_default_input_10_output                    (1,224,224,3) (90)    
                                                                            O: conversion_0_output                                (1,224,224,3) (91)    
------ ---------------------- ---- ---------------------- --------- ------- ----------------------------------------------------- --------------------- 
1      conv2d_1               1    optimized_conv2d       2709512   248     I: conversion_0_output                                (1,224,224,3) (91)    
                                                                            S: conv2d_1_scratch0                                                        
                                                                            S: conv2d_1_scratch1                                                        
                                                                            W: conv2d_1_weights                                   (3,3,3,8) (186)       
                                                                            W: conv2d_1_bias                                      (8,) (187)            
                                                                            O: conv2d_1_output                                    (1,112,112,8) (93)    
------ ---------------------- ---- ---------------------- --------- ------- ----------------------------------------------------- --------------------- 
2      conv2d_2_pad_before    2    pad                    0         0       I: conv2d_1_output                                    (1,112,112,8) (93)    
                                                                            O: conv2d_2_pad_before_output                         (1,114,114,8) (94)    
------ ---------------------- ---- ---------------------- --------- ------- ----------------------------------------------------- --------------------- 
3      conv2d_2               2    conv2d                 7225352   608     I: conv2d_2_pad_before_output                         (1,114,114,8) (94)    
                                                                            S: conv2d_2_scratch0                                                        
                                                                            S: conv2d_2_scratch1                                                        
                                                                            W: conv2d_2_weights                                   (8,3,3,8) (188)       
                                                                            W: conv2d_2_bias                                      (8,) (189)            
                                                                            O: conv2d_2_output                                    (1,112,112,8) (95)    
------ ---------------------- ---- ---------------------- --------- ------- ----------------------------------------------------- --------------------- 
4      eltwise_3              3    eltwise_integer/sum    100352    0       I: conv2d_2_output                                    (1,112,112,8) (95)    
                                                                            I: conv2d_1_output                                    (1,112,112,8) (93)    
                                                                            O: eltwise_3_output                                   (1,112,112,8) (97)    
------ ---------------------- ---- ---------------------- --------- ------- ----------------------------------------------------- --------------------- 
5      conv2d_4_pad_before    4    pad                    0         0       I: eltwise_3_output                                   (1,112,112,8) (97)    
                                                                            O: conv2d_4_pad_before_output                         (1,114,114,8) (98)    
------ ---------------------- ---- ---------------------- --------- ------- ----------------------------------------------------- --------------------- 
6      conv2d_4               4    conv2d                 7225376   2432    I: conv2d_4_pad_before_output                         (1,114,114,8) (98)    
                                                                            S: conv2d_4_scratch0                                                        
                                                                            S: conv2d_4_scratch1                                                        
                                                                            W: conv2d_4_weights                                   (8,3,3,32) (190)      
                                                                            W: conv2d_4_bias                                      (32,) (191)           
                                                                            O: conv2d_4_output                                    (1,56,56,32) (99)     
------ ---------------------- ---- ---------------------- --------- ------- ----------------------------------------------------- --------------------- 
7      conv2d_5               5    conv2d                 802824    288     I: conv2d_4_output                                    (1,56,56,32) (99)     
                                                                            S: conv2d_5_scratch0                                                        
                                                                            W: conv2d_5_weights                                   (32,1,1,8) (192)      
                                                                            W: conv2d_5_bias                                      (8,) (193)            
                                                                            O: conv2d_5_output                                    (1,56,56,8) (101)     
------ ---------------------- ---- ---------------------- --------- ------- ----------------------------------------------------- --------------------- 
8      conv2d_6_pad_before    6    pad                    0         0       I: conv2d_5_output                                    (1,56,56,8) (101)     
                                                                            O: conv2d_6_pad_before_output                         (1,58,58,8) (102)     
------ ---------------------- ---- ---------------------- --------- ------- ----------------------------------------------------- --------------------- 
9      conv2d_6               6    conv2d                 1806368   2432    I: conv2d_6_pad_before_output                         (1,58,58,8) (102)     
                                                                            S: conv2d_6_scratch0                                                        
                                                                            S: conv2d_6_scratch1                                                        
                                                                            W: conv2d_6_weights                                   (8,3,3,32) (0)        
                                                                            W: conv2d_6_bias                                      (32,) (1)             
                                                                            O: conv2d_6_output                                    (1,28,28,32) (104)    
------ ---------------------- ---- ---------------------- --------- ------- ----------------------------------------------------- --------------------- 
10     conv2d_7               7    conv2d                 401424    576     I: conv2d_6_output                                    (1,28,28,32) (104)    
                                                                            S: conv2d_7_scratch0                                                        
                                                                            W: conv2d_7_weights                                   (32,1,1,16) (2)       
                                                                            W: conv2d_7_bias                                      (16,) (3)             
                                                                            O: conv2d_7_output                                    (1,28,28,16) (105)    
------ ---------------------- ---- ---------------------- --------- ------- ----------------------------------------------------- --------------------- 
11     conv2d_8               8    conv2d                 802880    1280    I: conv2d_7_output                                    (1,28,28,16) (105)    
                                                                            S: conv2d_8_scratch0                                                        
                                                                            S: conv2d_8_scratch1                                                        
                                                                            W: conv2d_8_weights                                   (16,1,1,64) (4)       
                                                                            W: conv2d_8_bias                                      (64,) (5)             
                                                                            O: conv2d_8_output                                    (1,28,28,64) (106)    
------ ---------------------- ---- ---------------------- --------- ------- ----------------------------------------------------- --------------------- 
12     conv2d_9_pad_before    9    pad                    0         0       I: conv2d_8_output                                    (1,28,28,64) (106)    
                                                                            O: conv2d_9_pad_before_output                         (1,30,30,64) (108)    
------ ---------------------- ---- ---------------------- --------- ------- ----------------------------------------------------- --------------------- 
13     conv2d_9               9    conv2d                 112960    832     I: conv2d_9_pad_before_output                         (1,30,30,64) (108)    
                                                                            S: conv2d_9_scratch0                                                        
                                                                            S: conv2d_9_scratch1                                                        
                                                                            W: conv2d_9_weights                                   (64,3,3,1) (6)        
                                                                            W: conv2d_9_bias                                      (64,) (7)             
                                                                            O: conv2d_9_output                                    (1,14,14,64) (109)    
------ ---------------------- ---- ---------------------- --------- ------- ----------------------------------------------------- --------------------- 
14     pool_10                10   pool                   12544     0       I: conv2d_9_output                                    (1,14,14,64) (109)    
                                                                            O: pool_10_output                                     (1,1,1,64) (111)      
------ ---------------------- ---- ---------------------- --------- ------- ----------------------------------------------------- --------------------- 
15     conv2d_15              15   conv2d                 260       272     I: pool_10_output                                     (1,1,1,64) (111)      
                                                                            S: conv2d_15_scratch0                                                       
                                                                            S: conv2d_15_scratch1                                                       
                                                                            W: conv2d_15_weights                                  (64,1,1,4) (8)        
                                                                            W: conv2d_15_bias                                     (4,) (9)              
                                                                            O: conv2d_15_output                                   (1,1,1,4) (112)       
------ ---------------------- ---- ---------------------- --------- ------- ----------------------------------------------------- --------------------- 
16     conv2d_16              16   conv2d                 320       512     I: conv2d_15_output                                   (1,1,1,4) (112)       
                                                                            S: conv2d_16_scratch0                                                       
                                                                            W: conv2d_16_weights                                  (4,1,1,64) (10)       
                                                                            W: conv2d_16_bias                                     (64,) (11)            
                                                                            O: conv2d_16_output                                   (1,1,1,64) (113)      
------ ---------------------- ---- ---------------------- --------- ------- ----------------------------------------------------- --------------------- 
17     eltwise_17             17   eltwise_integer/min    64        4       I: conv2d_16_output                                   (1,1,1,64) (113)      
                                                                            I: model_block4a_se_expand_clip_by_value_Minimum_y    (1,1,1) (185)         
                                                                            O: eltwise_17_output                                  (1,1,1,64) (115)      
------ ---------------------- ---- ---------------------- --------- ------- ----------------------------------------------------- --------------------- 
18     nl_18                  18   nl                     64        0       I: eltwise_17_output                                  (1,1,1,64) (115)      
                                                                            O: nl_18_output                                       (1,1,1,64) (116)      
------ ---------------------- ---- ---------------------- --------- ------- ----------------------------------------------------- --------------------- 
19     eltwise_19             19   eltwise_integer/mul    12544     0       I: conv2d_9_output                                    (1,14,14,64) (109)    
                                                                            I: nl_18_output                                       (1,1,1,64) (116)      
                                                                            O: eltwise_19_output                                  (1,14,14,64) (118)    
------ ---------------------- ---- ---------------------- --------- ------- ----------------------------------------------------- --------------------- 
20     conv2d_20              20   conv2d                 301080    1632    I: eltwise_19_output                                  (1,14,14,64) (118)    
                                                                            S: conv2d_20_scratch0                                                       
                                                                            W: conv2d_20_weights                                  (64,1,1,24) (12)      
                                                                            W: conv2d_20_bias                                     (24,) (13)            
                                                                            O: conv2d_20_output                                   (1,14,14,24) (119)    
------ ---------------------- ---- ---------------------- --------- ------- ----------------------------------------------------- --------------------- 
21     conv2d_21              21   conv2d                 677520    4032    I: conv2d_20_output                                   (1,14,14,24) (119)    
                                                                            S: conv2d_21_scratch0                                                       
                                                                            S: conv2d_21_scratch1                                                       
                                                                            W: conv2d_21_weights                                  (24,1,1,144) (14)     
                                                                            W: conv2d_21_bias                                     (144,) (15)           
                                                                            O: conv2d_21_output                                   (1,14,14,144) (120)   
------ ---------------------- ---- ---------------------- --------- ------- ----------------------------------------------------- --------------------- 
22     conv2d_22_pad_before   22   pad                    0         0       I: conv2d_21_output                                   (1,14,14,144) (120)   
                                                                            O: conv2d_22_pad_before_output                        (1,16,16,144) (122)   
------ ---------------------- ---- ---------------------- --------- ------- ----------------------------------------------------- --------------------- 
23     conv2d_22              22   conv2d                 254160    1872    I: conv2d_22_pad_before_output                        (1,16,16,144) (122)   
                                                                            S: conv2d_22_scratch0                                                       
                                                                            S: conv2d_22_scratch1                                                       
                                                                            W: conv2d_22_weights                                  (144,3,3,1) (16)      
                                                                            W: conv2d_22_bias                                     (144,) (17)           
                                                                            O: conv2d_22_output                                   (1,14,14,144) (123)   
------ ---------------------- ---- ---------------------- --------- ------- ----------------------------------------------------- --------------------- 
24     pool_23                23   pool                   28224     0       I: conv2d_22_output                                   (1,14,14,144) (123)   
                                                                            O: pool_23_output                                     (1,1,1,144) (124)     
------ ---------------------- ---- ---------------------- --------- ------- ----------------------------------------------------- --------------------- 
25     conv2d_28              28   conv2d                 870       888     I: pool_23_output                                     (1,1,1,144) (124)     
                                                                            S: conv2d_28_scratch0                                                       
                                                                            S: conv2d_28_scratch1                                                       
                                                                            W: conv2d_28_weights                                  (144,1,1,6) (18)      
                                                                            W: conv2d_28_bias                                     (6,) (19)             
                                                                            O: conv2d_28_output                                   (1,1,1,6) (126)       
------ ---------------------- ---- ---------------------- --------- ------- ----------------------------------------------------- --------------------- 
26     conv2d_29              29   conv2d                 1008      1440    I: conv2d_28_output                                   (1,1,1,6) (126)       
                                                                            S: conv2d_29_scratch0                                                       
                                                                            W: conv2d_29_weights                                  (6,1,1,144) (20)      
                                                                            W: conv2d_29_bias                                     (144,) (21)           
                                                                            O: conv2d_29_output                                   (1,1,1,144) (127)     
------ ---------------------- ---- ---------------------- --------- ------- ----------------------------------------------------- --------------------- 
27     eltwise_30             30   eltwise_integer/min    144       4       I: conv2d_29_output                                   (1,1,1,144) (127)     
                                                                            I: model_block4a_se_expand_clip_by_value_Minimum_y1   (1,1,1) (184)         
                                                                            O: eltwise_30_output                                  (1,1,1,144) (128)     
------ ---------------------- ---- ---------------------- --------- ------- ----------------------------------------------------- --------------------- 
28     nl_31                  31   nl                     144       0       I: eltwise_30_output                                  (1,1,1,144) (128)     
                                                                            O: nl_31_output                                       (1,1,1,144) (130)     
------ ---------------------- ---- ---------------------- --------- ------- ----------------------------------------------------- --------------------- 
29     eltwise_32             32   eltwise_integer/mul    28224     0       I: conv2d_22_output                                   (1,14,14,144) (123)   
                                                                            I: nl_31_output                                       (1,1,1,144) (130)     
                                                                            O: eltwise_32_output                                  (1,14,14,144) (131)   
------ ---------------------- ---- ---------------------- --------- ------- ----------------------------------------------------- --------------------- 
30     conv2d_33              33   conv2d                 903200    4736    I: eltwise_32_output                                  (1,14,14,144) (131)   
                                                                            S: conv2d_33_scratch0                                                       
                                                                            W: conv2d_33_weights                                  (144,1,1,32) (22)     
                                                                            W: conv2d_33_bias                                     (32,) (23)            
                                                                            O: conv2d_33_output                                   (1,14,14,32) (133)    
------ ---------------------- ---- ---------------------- --------- ------- ----------------------------------------------------- --------------------- 
31     conv2d_34              34   conv2d                 1204416   6912    I: conv2d_33_output                                   (1,14,14,32) (133)    
                                                                            S: conv2d_34_scratch0                                                       
                                                                            S: conv2d_34_scratch1                                                       
                                                                            W: conv2d_34_weights                                  (32,1,1,192) (24)     
                                                                            W: conv2d_34_bias                                     (192,) (25)           
                                                                            O: conv2d_34_output                                   (1,14,14,192) (134)   
------ ---------------------- ---- ---------------------- --------- ------- ----------------------------------------------------- --------------------- 
32     conv2d_35_pad_before   35   pad                    0         0       I: conv2d_34_output                                   (1,14,14,192) (134)   
                                                                            O: conv2d_35_pad_before_output                        (1,16,16,192) (135)   
------ ---------------------- ---- ---------------------- --------- ------- ----------------------------------------------------- --------------------- 
33     conv2d_35              35   conv2d                 338880    2496    I: conv2d_35_pad_before_output                        (1,16,16,192) (135)   
                                                                            S: conv2d_35_scratch0                                                       
                                                                            S: conv2d_35_scratch1                                                       
                                                                            W: conv2d_35_weights                                  (192,3,3,1) (26)      
                                                                            W: conv2d_35_bias                                     (192,) (27)           
                                                                            O: conv2d_35_output                                   (1,14,14,192) (137)   
------ ---------------------- ---- ---------------------- --------- ------- ----------------------------------------------------- --------------------- 
34     pool_36                36   pool                   37632     0       I: conv2d_35_output                                   (1,14,14,192) (137)   
                                                                            O: pool_36_output                                     (1,1,1,192) (138)     
------ ---------------------- ---- ---------------------- --------- ------- ----------------------------------------------------- --------------------- 
35     conv2d_41              41   conv2d                 1544      1568    I: pool_36_output                                     (1,1,1,192) (138)     
                                                                            S: conv2d_41_scratch0                                                       
                                                                            S: conv2d_41_scratch1                                                       
                                                                            W: conv2d_41_weights                                  (192,1,1,8) (28)      
                                                                            W: conv2d_41_bias                                     (8,) (29)             
                                                                            O: conv2d_41_output                                   (1,1,1,8) (140)       
------ ---------------------- ---- ---------------------- --------- ------- ----------------------------------------------------- --------------------- 
36     conv2d_42              42   conv2d                 1728      2304    I: conv2d_41_output                                   (1,1,1,8) (140)       
                                                                            S: conv2d_42_scratch0                                                       
                                                                            W: conv2d_42_weights                                  (8,1,1,192) (30)      
                                                                            W: conv2d_42_bias                                     (192,) (31)           
                                                                            O: conv2d_42_output                                   (1,1,1,192) (141)     
------ ---------------------- ---- ---------------------- --------- ------- ----------------------------------------------------- --------------------- 
37     eltwise_43             43   eltwise_integer/min    192       4       I: conv2d_42_output                                   (1,1,1,192) (141)     
                                                                            I: model_block4a_se_expand_clip_by_value_Minimum_y2   (1,1,1) (183)         
                                                                            O: eltwise_43_output                                  (1,1,1,192) (142)     
------ ---------------------- ---- ---------------------- --------- ------- ----------------------------------------------------- --------------------- 
38     nl_44                  44   nl                     192       0       I: eltwise_43_output                                  (1,1,1,192) (142)     
                                                                            O: nl_44_output                                       (1,1,1,192) (144)     
------ ---------------------- ---- ---------------------- --------- ------- ----------------------------------------------------- --------------------- 
39     eltwise_45             45   eltwise_integer/mul    37632     0       I: conv2d_35_output                                   (1,14,14,192) (137)   
                                                                            I: nl_44_output                                       (1,1,1,192) (144)     
                                                                            O: eltwise_45_output                                  (1,14,14,192) (145)   
------ ---------------------- ---- ---------------------- --------- ------- ----------------------------------------------------- --------------------- 
40     conv2d_46              46   conv2d                 1204256   6272    I: eltwise_45_output                                  (1,14,14,192) (145)   
                                                                            S: conv2d_46_scratch0                                                       
                                                                            W: conv2d_46_weights                                  (192,1,1,32) (32)     
                                                                            W: conv2d_46_bias                                     (32,) (33)            
                                                                            O: conv2d_46_output                                   (1,14,14,32) (147)    
------ ---------------------- ---- ---------------------- --------- ------- ----------------------------------------------------- --------------------- 
41     eltwise_47             47   eltwise_integer/sum    6272      0       I: conv2d_46_output                                   (1,14,14,32) (147)    
                                                                            I: conv2d_33_output                                   (1,14,14,32) (133)    
                                                                            O: eltwise_47_output                                  (1,14,14,32) (148)    
------ ---------------------- ---- ---------------------- --------- ------- ----------------------------------------------------- --------------------- 
42     conv2d_48              48   conv2d                 1204416   6912    I: eltwise_47_output                                  (1,14,14,32) (148)    
                                                                            S: conv2d_48_scratch0                                                       
                                                                            S: conv2d_48_scratch1                                                       
                                                                            W: conv2d_48_weights                                  (32,1,1,192) (34)     
                                                                            W: conv2d_48_bias                                     (192,) (35)           
                                                                            O: conv2d_48_output                                   (1,14,14,192) (149)   
------ ---------------------- ---- ---------------------- --------- ------- ----------------------------------------------------- --------------------- 
43     conv2d_49_pad_before   49   pad                    0         0       I: conv2d_48_output                                   (1,14,14,192) (149)   
                                                                            O: conv2d_49_pad_before_output                        (1,16,16,192) (151)   
------ ---------------------- ---- ---------------------- --------- ------- ----------------------------------------------------- --------------------- 
44     conv2d_49              49   conv2d                 84864     2496    I: conv2d_49_pad_before_output                        (1,16,16,192) (151)   
                                                                            S: conv2d_49_scratch0                                                       
                                                                            S: conv2d_49_scratch1                                                       
                                                                            W: conv2d_49_weights                                  (192,3,3,1) (36)      
                                                                            W: conv2d_49_bias                                     (192,) (37)           
                                                                            O: conv2d_49_output                                   (1,7,7,192) (152)     
------ ---------------------- ---- ---------------------- --------- ------- ----------------------------------------------------- --------------------- 
45     pool_50                50   pool                   9408      0       I: conv2d_49_output                                   (1,7,7,192) (152)     
                                                                            O: pool_50_output                                     (1,1,1,192) (153)     
------ ---------------------- ---- ---------------------- --------- ------- ----------------------------------------------------- --------------------- 
46     conv2d_55              55   conv2d                 1544      1568    I: pool_50_output                                     (1,1,1,192) (153)     
                                                                            S: conv2d_55_scratch0                                                       
                                                                            S: conv2d_55_scratch1                                                       
                                                                            W: conv2d_55_weights                                  (192,1,1,8) (38)      
                                                                            W: conv2d_55_bias                                     (8,) (39)             
                                                                            O: conv2d_55_output                                   (1,1,1,8) (155)       
------ ---------------------- ---- ---------------------- --------- ------- ----------------------------------------------------- --------------------- 
47     conv2d_56              56   conv2d                 1728      2304    I: conv2d_55_output                                   (1,1,1,8) (155)       
                                                                            S: conv2d_56_scratch0                                                       
                                                                            W: conv2d_56_weights                                  (8,1,1,192) (40)      
                                                                            W: conv2d_56_bias                                     (192,) (41)           
                                                                            O: conv2d_56_output                                   (1,1,1,192) (156)     
------ ---------------------- ---- ---------------------- --------- ------- ----------------------------------------------------- --------------------- 
48     eltwise_57             57   eltwise_integer/min    192       4       I: conv2d_56_output                                   (1,1,1,192) (156)     
                                                                            I: model_block4a_se_expand_clip_by_value_Minimum_y3   (1,1,1) (182)         
                                                                            O: eltwise_57_output                                  (1,1,1,192) (157)     
------ ---------------------- ---- ---------------------- --------- ------- ----------------------------------------------------- --------------------- 
49     nl_58                  58   nl                     192       0       I: eltwise_57_output                                  (1,1,1,192) (157)     
                                                                            O: nl_58_output                                       (1,1,1,192) (159)     
------ ---------------------- ---- ---------------------- --------- ------- ----------------------------------------------------- --------------------- 
50     eltwise_59             59   eltwise_integer/mul    9408      0       I: conv2d_49_output                                   (1,7,7,192) (152)     
                                                                            I: nl_58_output                                       (1,1,1,192) (159)     
                                                                            O: eltwise_59_output                                  (1,7,7,192) (160)     
------ ---------------------- ---- ---------------------- --------- ------- ----------------------------------------------------- --------------------- 
51     conv2d_60              60   conv2d                 451632    9408    I: eltwise_59_output                                  (1,7,7,192) (160)     
                                                                            S: conv2d_60_scratch0                                                       
                                                                            W: conv2d_60_weights                                  (192,1,1,48) (42)     
                                                                            W: conv2d_60_bias                                     (48,) (43)            
                                                                            O: conv2d_60_output                                   (1,7,7,48) (162)      
------ ---------------------- ---- ---------------------- --------- ------- ----------------------------------------------------- --------------------- 
52     conv2d_61              61   conv2d                 677664    14976   I: conv2d_60_output                                   (1,7,7,48) (162)      
                                                                            S: conv2d_61_scratch0                                                       
                                                                            S: conv2d_61_scratch1                                                       
                                                                            W: conv2d_61_weights                                  (48,1,1,288) (44)     
                                                                            W: conv2d_61_bias                                     (288,) (45)           
                                                                            O: conv2d_61_output                                   (1,7,7,288) (163)     
------ ---------------------- ---- ---------------------- --------- ------- ----------------------------------------------------- --------------------- 
53     conv2d_62_pad_before   62   pad                    0         0       I: conv2d_61_output                                   (1,7,7,288) (163)     
                                                                            O: conv2d_62_pad_before_output                        (1,9,9,288) (164)     
------ ---------------------- ---- ---------------------- --------- ------- ----------------------------------------------------- --------------------- 
54     conv2d_62              62   conv2d                 127296    3744    I: conv2d_62_pad_before_output                        (1,9,9,288) (164)     
                                                                            S: conv2d_62_scratch0                                                       
                                                                            S: conv2d_62_scratch1                                                       
                                                                            W: conv2d_62_weights                                  (288,3,3,1) (46)      
                                                                            W: conv2d_62_bias                                     (288,) (47)           
                                                                            O: conv2d_62_output                                   (1,7,7,288) (166)     
------ ---------------------- ---- ---------------------- --------- ------- ----------------------------------------------------- --------------------- 
55     pool_63                63   pool                   14112     0       I: conv2d_62_output                                   (1,7,7,288) (166)     
                                                                            O: pool_63_output                                     (1,1,1,288) (167)     
------ ---------------------- ---- ---------------------- --------- ------- ----------------------------------------------------- --------------------- 
56     conv2d_68              68   conv2d                 3468      3504    I: pool_63_output                                     (1,1,1,288) (167)     
                                                                            S: conv2d_68_scratch0                                                       
                                                                            S: conv2d_68_scratch1                                                       
                                                                            W: conv2d_68_weights                                  (288,1,1,12) (48)     
                                                                            W: conv2d_68_bias                                     (12,) (49)            
                                                                            O: conv2d_68_output                                   (1,1,1,12) (168)      
------ ---------------------- ---- ---------------------- --------- ------- ----------------------------------------------------- --------------------- 
57     conv2d_69              69   conv2d                 3744      4608    I: conv2d_68_output                                   (1,1,1,12) (168)      
                                                                            S: conv2d_69_scratch0                                                       
                                                                            W: conv2d_69_weights                                  (12,1,1,288) (50)     
                                                                            W: conv2d_69_bias                                     (288,) (51)           
                                                                            O: conv2d_69_output                                   (1,1,1,288) (170)     
------ ---------------------- ---- ---------------------- --------- ------- ----------------------------------------------------- --------------------- 
58     eltwise_70             70   eltwise_integer/min    288       4       I: conv2d_69_output                                   (1,1,1,288) (170)     
                                                                            I: model_block4a_se_expand_clip_by_value_Minimum_y4   (1,1,1) (181)         
                                                                            O: eltwise_70_output                                  (1,1,1,288) (171)     
------ ---------------------- ---- ---------------------- --------- ------- ----------------------------------------------------- --------------------- 
59     nl_71                  71   nl                     288       0       I: eltwise_70_output                                  (1,1,1,288) (171)     
                                                                            O: nl_71_output                                       (1,1,1,288) (172)     
------ ---------------------- ---- ---------------------- --------- ------- ----------------------------------------------------- --------------------- 
60     eltwise_72             72   eltwise_integer/mul    14112     0       I: conv2d_62_output                                   (1,7,7,288) (166)     
                                                                            I: nl_71_output                                       (1,1,1,288) (172)     
                                                                            O: eltwise_72_output                                  (1,7,7,288) (173)     
------ ---------------------- ---- ---------------------- --------- ------- ----------------------------------------------------- --------------------- 
61     conv2d_73              73   conv2d                 677424    14016   I: eltwise_72_output                                  (1,7,7,288) (173)     
                                                                            S: conv2d_73_scratch0                                                       
                                                                            W: conv2d_73_weights                                  (288,1,1,48) (52)     
                                                                            W: conv2d_73_bias                                     (48,) (53)            
                                                                            O: conv2d_73_output                                   (1,7,7,48) (174)      
------ ---------------------- ---- ---------------------- --------- ------- ----------------------------------------------------- --------------------- 
62     eltwise_74             74   eltwise_integer/sum    2352      0       I: conv2d_73_output                                   (1,7,7,48) (174)      
                                                                            I: conv2d_60_output                                   (1,7,7,48) (162)      
                                                                            O: eltwise_74_output                                  (1,7,7,48) (175)      
------ ---------------------- ---- ---------------------- --------- ------- ----------------------------------------------------- --------------------- 
63     conv2d_75              75   conv2d                 752960    16640   I: eltwise_74_output                                  (1,7,7,48) (175)      
                                                                            S: conv2d_75_scratch0                                                       
                                                                            S: conv2d_75_scratch1                                                       
                                                                            W: conv2d_75_weights                                  (48,1,1,320) (54)     
                                                                            W: conv2d_75_bias                                     (320,) (55)           
                                                                            O: conv2d_75_output                                   (1,7,7,320) (176)     
------ ---------------------- ---- ---------------------- --------- ------- ----------------------------------------------------- --------------------- 
64     pool_76                76   pool                   15680     0       I: conv2d_75_output                                   (1,7,7,320) (176)     
                                                                            O: pool_76_output                                     (1,1,1,320) (177)     
------ ---------------------- ---- ---------------------- --------- ------- ----------------------------------------------------- --------------------- 
65     gemm_77                77   dense                  12519     12636   I: pool_76_output                                     (1,1,1,320) (177)     
                                                                            S: gemm_77_scratch0                                                         
                                                                            W: gemm_77_weights                                    (320,39) (56)         
                                                                            W: gemm_77_bias                                       (39,) (57)            
                                                                            O: gemm_77_output                                     (1,39) (178)          
------ ---------------------- ---- ---------------------- --------- ------- ----------------------------------------------------- --------------------- 
66     nl_78                  78   nl                     585       0       I: gemm_77_output                                     (1,39) (178)          
                                                                            S: nl_78_scratch0                                                           
                                                                            O: nl_78_output                                       (1,39) (179)          
------ ---------------------- ---- ---------------------- --------- ------- ----------------------------------------------------- --------------------- 
67     conversion_79          79   converter              78        0       I: nl_78_output                                       (1,39) (179)          
                                                                            O: conversion_79_output                               (1,39) (180)          
------ ---------------------- ---- ---------------------- --------- ------- ----------------------------------------------------- --------------------- 



Number of operations per c-layer
------- ------ ---------------------------------- ------------ ------------- --------- ---------- 
c_id    m_id   name (type)                                 #op          type    #param   sparsity 
------- ------ ---------------------------------- ------------ ------------- --------- ---------- 
0       0      conversion_0 (converter)                301,056    conv_u8_s8           
1       1      conv2d_1 (optimized_conv2d)           2,709,512    smul_s8_s8       224     0.0134 
2       2      conv2d_2_pad_before (pad)                     0    smul_s8_s8           
3       2      conv2d_2 (conv2d)                     7,225,352    smul_s8_s8       584     0.0103 
4       3      eltwise_3 (eltwise_integer/sum)         100,352      op_s8_s8           
5       4      conv2d_4_pad_before (pad)                     0    smul_s8_s8           
6       4      conv2d_4 (conv2d)                     7,225,376    smul_s8_s8     2,336     0.0090 
7       5      conv2d_5 (conv2d)                       802,824    smul_s8_s8       264     0.0076 
8       6      conv2d_6_pad_before (pad)                     0    smul_s8_s8           
9       6      conv2d_6 (conv2d)                     1,806,368    smul_s8_s8     2,336     0.0090 
10      7      conv2d_7 (conv2d)                       401,424    smul_s8_s8       528     0.0114 
11      8      conv2d_8 (conv2d)                       802,880    smul_s8_s8     1,088     0.0083 
12      9      conv2d_9_pad_before (pad)                     0    smul_s8_s8           
13      9      conv2d_9 (conv2d)                       112,960    smul_s8_s8       640     0.0031 
14      10     pool_10 (pool)                           12,544      op_s8_s8           
15      15     conv2d_15 (conv2d)                          260    smul_s8_s8       260     0.0000 
16      16     conv2d_16 (conv2d)                          320    smul_s8_s8       320     0.0000 
17      17     eltwise_17 (eltwise_integer/min)             64      op_s8_s8         1     0.0000 
18      18     nl_18 (nl)                                   64      op_s8_s8           
19      19     eltwise_19 (eltwise_integer/mul)         12,544      op_s8_s8           
20      20     conv2d_20 (conv2d)                      301,080    smul_s8_s8     1,560     0.0090 
21      21     conv2d_21 (conv2d)                      677,520    smul_s8_s8     3,600     0.0047 
22      22     conv2d_22_pad_before (pad)                    0    smul_s8_s8           
23      22     conv2d_22 (conv2d)                      254,160    smul_s8_s8     1,440     0.0083 
24      23     pool_23 (pool)                           28,224      op_s8_s8           
25      28     conv2d_28 (conv2d)                          870    smul_s8_s8       870     0.0080 
26      29     conv2d_29 (conv2d)                        1,008    smul_s8_s8     1,008     0.0040 
27      30     eltwise_30 (eltwise_integer/min)            144      op_s8_s8         1     0.0000 
28      31     nl_31 (nl)                                  144      op_s8_s8           
29      32     eltwise_32 (eltwise_integer/mul)         28,224      op_s8_s8           
30      33     conv2d_33 (conv2d)                      903,200    smul_s8_s8     4,640     0.0056 
31      34     conv2d_34 (conv2d)                    1,204,416    smul_s8_s8     6,336     0.0060 
32      35     conv2d_35_pad_before (pad)                    0    smul_s8_s8           
33      35     conv2d_35 (conv2d)                      338,880    smul_s8_s8     1,920     0.0026 
34      36     pool_36 (pool)                           37,632      op_s8_s8           
35      41     conv2d_41 (conv2d)                        1,544    smul_s8_s8     1,544     0.0045 
36      42     conv2d_42 (conv2d)                        1,728    smul_s8_s8     1,728     0.0069 
37      43     eltwise_43 (eltwise_integer/min)            192      op_s8_s8         1     0.0000 
38      44     nl_44 (nl)                                  192      op_s8_s8           
39      45     eltwise_45 (eltwise_integer/mul)         37,632      op_s8_s8           
40      46     conv2d_46 (conv2d)                    1,204,256    smul_s8_s8     6,176     0.0092 
41      47     eltwise_47 (eltwise_integer/sum)          6,272      op_s8_s8           
42      48     conv2d_48 (conv2d)                    1,204,416    smul_s8_s8     6,336     0.0084 
43      49     conv2d_49_pad_before (pad)                    0    smul_s8_s8           
44      49     conv2d_49 (conv2d)                       84,864    smul_s8_s8     1,920     0.0036 
45      50     pool_50 (pool)                            9,408      op_s8_s8           
46      55     conv2d_55 (conv2d)                        1,544    smul_s8_s8     1,544     0.0123 
47      56     conv2d_56 (conv2d)                        1,728    smul_s8_s8     1,728     0.0064 
48      57     eltwise_57 (eltwise_integer/min)            192      op_s8_s8         1     0.0000 
49      58     nl_58 (nl)                                  192      op_s8_s8           
50      59     eltwise_59 (eltwise_integer/mul)          9,408      op_s8_s8           
51      60     conv2d_60 (conv2d)                      451,632    smul_s8_s8     9,264     0.0095 
52      61     conv2d_61 (conv2d)                      677,664    smul_s8_s8    14,112     0.0081 
53      62     conv2d_62_pad_before (pad)                    0    smul_s8_s8           
54      62     conv2d_62 (conv2d)                      127,296    smul_s8_s8     2,880     0.0024 
55      63     pool_63 (pool)                           14,112      op_s8_s8           
56      68     conv2d_68 (conv2d)                        3,468    smul_s8_s8     3,468     0.0098 
57      69     conv2d_69 (conv2d)                        3,744    smul_s8_s8     3,744     0.0064 
58      70     eltwise_70 (eltwise_integer/min)            288      op_s8_s8         1     0.0000 
59      71     nl_71 (nl)                                  288      op_s8_s8           
60      72     eltwise_72 (eltwise_integer/mul)         14,112      op_s8_s8           
61      73     conv2d_73 (conv2d)                      677,424    smul_s8_s8    13,872     0.0097 
62      74     eltwise_74 (eltwise_integer/sum)          2,352      op_s8_s8           
63      75     conv2d_75 (conv2d)                      752,960    smul_s8_s8    15,680     0.0080 
64      76     pool_76 (pool)                           15,680      op_s8_s8           
65      77     gemm_77 (dense)                          12,519    smul_s8_s8    12,519     0.0161 
66      78     nl_78 (nl)                                  585      op_s8_s8           
67      79     conversion_79 (converter)                    78   conv_s8_f32           
------- ------ ---------------------------------- ------------ ------------- --------- ---------- 
total                                               30,607,172                 126,474     0.0086 

Number of operation types
---------------- ------------ ----------- 
operation type              #           % 
---------------- ------------ ----------- 
conv_u8_s8            301,056        1.0% 
smul_s8_s8         29,975,197       97.9% 
op_s8_s8              330,841        1.1% 
conv_s8_f32                78        0.0% 

Complexity report (model)
------ -------------------------------------------------- ------------------------- ------------------------- ---------- 
m_id   name                                               c_macc                    c_rom                     c_id       
------ -------------------------------------------------- ------------------------- ------------------------- ---------- 
0      serving_default_input_10                           |                  1.0%   |                  0.0%   [0]        
1      conv2d_1                                           ||||||             8.9%   |                  0.2%   [1]        
2      conv2d_2                                           |||||||||||||||   23.6%   |                  0.4%   [2, 3]     
3      eltwise_3                                          |                  0.3%   |                  0.0%   [4]        
4      conv2d_4                                           ||||||||||||||||  23.6%   |||                1.8%   [5, 6]     
5      conv2d_5                                           ||                 2.6%   |                  0.2%   [7]        
6      conv2d_6                                           ||||               5.9%   |||                1.8%   [8, 9]     
7      conv2d_7                                           |                  1.3%   |                  0.4%   [10]       
8      conv2d_8                                           ||                 2.6%   ||                 0.9%   [11]       
9      conv2d_9                                           |                  0.4%   |                  0.6%   [12, 13]   
10     pool_10                                            |                  0.0%   |                  0.0%   [14]       
15     conv2d_15                                          |                  0.0%   |                  0.2%   [15]       
16     conv2d_16                                          |                  0.0%   |                  0.4%   [16]       
17     model_block4a_se_expand_clip_by_value_Minimum_y    |                  0.0%   |                  0.0%   [17]       
18     nl_18                                              |                  0.0%   |                  0.0%   [18]       
19     eltwise_19                                         |                  0.0%   |                  0.0%   [19]       
20     conv2d_20                                          |                  1.0%   ||                 1.2%   [20]       
21     conv2d_21                                          ||                 2.2%   ||||               3.0%   [21]       
22     conv2d_22                                          |                  0.8%   ||                 1.4%   [22, 23]   
23     pool_23                                            |                  0.1%   |                  0.0%   [24]       
28     conv2d_28                                          |                  0.0%   |                  0.7%   [25]       
29     conv2d_29                                          |                  0.0%   ||                 1.1%   [26]       
30     model_block4a_se_expand_clip_by_value_Minimum_y1   |                  0.0%   |                  0.0%   [27]       
31     nl_31                                              |                  0.0%   |                  0.0%   [28]       
32     eltwise_32                                         |                  0.1%   |                  0.0%   [29]       
33     conv2d_33                                          ||                 3.0%   |||||              3.5%   [30]       
34     conv2d_34                                          |||                3.9%   |||||||            5.1%   [31]       
35     conv2d_35                                          |                  1.1%   |||                1.8%   [32, 33]   
36     pool_36                                            |                  0.1%   |                  0.0%   [34]       
41     conv2d_41                                          |                  0.0%   ||                 1.1%   [35]       
42     conv2d_42                                          |                  0.0%   |||                1.7%   [36]       
43     model_block4a_se_expand_clip_by_value_Minimum_y2   |                  0.0%   |                  0.0%   [37]       
44     nl_44                                              |                  0.0%   |                  0.0%   [38]       
45     eltwise_45                                         |                  0.1%   |                  0.0%   [39]       
46     conv2d_46                                          |||                3.9%   ||||||             4.6%   [40]       
47     eltwise_47                                         |                  0.0%   |                  0.0%   [41]       
48     conv2d_48                                          |||                3.9%   |||||||            5.1%   [42]       
49     conv2d_49                                          |                  0.3%   |||                1.8%   [43, 44]   
50     pool_50                                            |                  0.0%   |                  0.0%   [45]       
55     conv2d_55                                          |                  0.0%   ||                 1.1%   [46]       
56     conv2d_56                                          |                  0.0%   |||                1.7%   [47]       
57     model_block4a_se_expand_clip_by_value_Minimum_y3   |                  0.0%   |                  0.0%   [48]       
58     nl_58                                              |                  0.0%   |                  0.0%   [49]       
59     eltwise_59                                         |                  0.0%   |                  0.0%   [50]       
60     conv2d_60                                          |                  1.5%   |||||||||          6.9%   [51]       
61     conv2d_61                                          ||                 2.2%   ||||||||||||||    11.0%   [52]       
62     conv2d_62                                          |                  0.4%   ||||               2.7%   [53, 54]   
63     pool_63                                            |                  0.0%   |                  0.0%   [55]       
68     conv2d_68                                          |                  0.0%   ||||               2.6%   [56]       
69     conv2d_69                                          |                  0.0%   |||||              3.4%   [57]       
70     model_block4a_se_expand_clip_by_value_Minimum_y4   |                  0.0%   |                  0.0%   [58]       
71     nl_71                                              |                  0.0%   |                  0.0%   [59]       
72     eltwise_72                                         |                  0.0%   |                  0.0%   [60]       
73     conv2d_73                                          ||                 2.2%   |||||||||||||     10.3%   [61]       
74     eltwise_74                                         |                  0.0%   |                  0.0%   [62]       
75     conv2d_75                                          ||                 2.5%   ||||||||||||||||  12.2%   [63]       
76     pool_76                                            |                  0.1%   |                  0.0%   [64]       
77     model_predictions_MatMul                           |                  0.0%   ||||||||||||       9.3%   [65]       
78     nl_78                                              |                  0.0%   |                  0.0%   [66]       
79     conversion_79                                      |                  0.0%   |                  0.0%   [67]       
------ -------------------------------------------------- ------------------------- ------------------------- ---------- 
macc=30,607,172 weights=136,464 act=251,536 ram_io=0

Generated files (7)
---------------------------------------------------------------------------------------------------------------------------------- 
E:\hjTan\Documents\CODE_SPACE\stm32ai-modelzoo-2.0.0\experiments_outputs\2025_07_28_14_57_41\stm32ai_files\network_config.h        
E:\hjTan\Documents\CODE_SPACE\stm32ai-modelzoo-2.0.0\experiments_outputs\2025_07_28_14_57_41\stm32ai_files\network.h               
E:\hjTan\Documents\CODE_SPACE\stm32ai-modelzoo-2.0.0\experiments_outputs\2025_07_28_14_57_41\stm32ai_files\network.c               
E:\hjTan\Documents\CODE_SPACE\stm32ai-modelzoo-2.0.0\experiments_outputs\2025_07_28_14_57_41\stm32ai_files\network_data_params.h   
E:\hjTan\Documents\CODE_SPACE\stm32ai-modelzoo-2.0.0\experiments_outputs\2025_07_28_14_57_41\stm32ai_files\network_data_params.c   
E:\hjTan\Documents\CODE_SPACE\stm32ai-modelzoo-2.0.0\experiments_outputs\2025_07_28_14_57_41\stm32ai_files\network_data.h          
E:\hjTan\Documents\CODE_SPACE\stm32ai-modelzoo-2.0.0\experiments_outputs\2025_07_28_14_57_41\stm32ai_files\network_data.c          
=======
Neural Network Tools for STM32 family v1.7.0 (stm.ai v8.1.0-19520)
Created date          : 2025-07-28 15:33:30
Parameters            : generate -m E:\hjTan\Documents\CODE_SPACE\stm32ai-modelzoo-2.0.0\experiments_outputs\2025_07_28_14_57_41\quantized_models\quantized_model.tflite -v 0 --allocate-inputs --allocate-outputs --output E:\hjTan\Documents\CODE_SPACE\stm32ai-modelzoo-2.0.0\experiments_outputs\2025_07_28_14_57_41/stm32ai_files --workspace E:\hjTan\Documents\CODE_SPACE\stm32ai-modelzoo-2.0.0\experiments_outputs\2025_07_28_14_57_41/stm32ai_files --optimization balanced

Exec/report summary (generate)
--------------------------------------------------------------------------------------------------------------------------------------------------------------
model file         :   E:\hjTan\Documents\CODE_SPACE\stm32ai-modelzoo-2.0.0\experiments_outputs\2025_07_28_14_57_41\quantized_models\quantized_model.tflite   
type               :   tflite                                                                                                                                 
c_name             :   network                                                                                                                                
compression        :   lossless                                                                                                                               
options            :   allocate-inputs, allocate-outputs                                                                                                      
optimization       :   balanced                                                                                                                               
workspace dir      :   E:\hjTan\Documents\CODE_SPACE\stm32ai-modelzoo-2.0.0\experiments_outputs\2025_07_28_14_57_41\stm32ai_files                             
output dir         :   E:\hjTan\Documents\CODE_SPACE\stm32ai-modelzoo-2.0.0\experiments_outputs\2025_07_28_14_57_41\stm32ai_files                             
model_fmt          :   ss/sa per channel                                                                                                                      
model_name         :   quantized_model                                                                                                                        
model_hash         :   0c42220e2b2b6e63ca9c27e54def17f3                                                                                                       
params #           :   126,474 items (133.25 KiB)                                                                                                             
--------------------------------------------------------------------------------------------------------------------------------------------------------------
input 1/1          :   'serving_default_input_10' (domain:activations/**default**)                                                                            
                   :   150528 items, 147.00 KiB, ai_u8, s=0.00784314, zp=127, (1,224,224,3)                                                                   
output 1/1         :   'conversion_79' (domain:activations/**default**)                                                                                       
                   :   39 items, 156 B, ai_float, float, (1,39)                                                                                               
macc               :   30,607,172                                                                                                                             
weights (ro)       :   136,464 B (133.27 KiB) (1 segment) / -369,432(-73.0%) vs float model                                                                   
activations (rw)   :   251,536 B (245.64 KiB) (1 segment) *                                                                                                   
ram (total)        :   251,536 B (245.64 KiB) = 251,536 + 0 + 0                                                                                               
--------------------------------------------------------------------------------------------------------------------------------------------------------------
(*) 'input'/'output' buffers can be used from the activations buffer

Model name - quantized_model ['serving_default_input_10'] ['conversion_79']
…
                                                                            S: conv2d_22_scratch1                                                       
                                                                            W: conv2d_22_weights                                  (144,3,3,1) (16)      
                                                                            W: conv2d_22_bias                                     (144,) (17)           
                                                                            O: conv2d_22_output                                   (1,14,14,144) (123)   
------ ---------------------- ---- ---------------------- --------- ------- ----------------------------------------------------- --------------------- 
24     pool_23                23   pool                   28224     0       I: conv2d_22_output                                   (1,14,14,144) (123)   
                                                                            O: pool_23_output                                     (1,1,1,144) (124)     
------ ---------------------- ---- ---------------------- --------- ------- ----------------------------------------------------- --------------------- 
25     conv2d_28              28   conv2d                 870       888     I: pool_23_output                                     (1,1,1,144) (124)     
                                                                            S: conv2d_28_scratch0                                                       
                                                                            S: conv2d_28_scratch1                                                       
                                                                            W: conv2d_28_weights                                  (144,1,1,6) (18)      
                                                                            W: conv2d_28_bias                                     (6,) (19)             
                                                                            O: conv2d_28_output                                   (1,1,1,6) (126)       
------ ---------------------- ---- ---------------------- --------- ------- ----------------------------------------------------- --------------------- 
26     conv2d_29              29   conv2d                 1008      1440    I: conv2d_28_output                                   (1,1,1,6) (126)       
                                                                            S: conv2d_29_scratch0                                                       
                                                                            W: conv2d_29_weights                                  (6,1,1,144) (20)      
                                                                            W: conv2d_29_bias                                     (144,) (21)           
                                                                            O: conv2d_29_output                                   (1,1,1,144) (127)     
------ ---------------------- ---- ---------------------- --------- ------- ----------------------------------------------------- --------------------- 
27     eltwise_30             30   eltwise_integer/min    144       4       I: conv2d_29_output                                   (1,1,1,144) (127)     
                                                                            I: model_block4a_se_expand_clip_by_value_Minimum_y1   (1,1,1) (184)         
                                                                            O: eltwise_30_output                                  (1,1,1,144) (128)     
------ ---------------------- ---- ---------------------- --------- ------- ----------------------------------------------------- --------------------- 
28     nl_31                  31   nl                     144       0       I: eltwise_30_output                                  (1,1,1,144) (128)     
                                                                            O: nl_31_output                                       (1,1,1,144) (130)     
------ ---------------------- ---- ---------------------- --------- ------- ----------------------------------------------------- --------------------- 
29     eltwise_32             32   eltwise_integer/mul    28224     0       I: conv2d_22_output                                   (1,14,14,144) (123)   
                                                                            I: nl_31_output                                       (1,1,1,144) (130)     
                                                                            O: eltwise_32_output                                  (1,14,14,144) (131)   
------ ---------------------- ---- ---------------------- --------- ------- ----------------------------------------------------- --------------------- 
30     conv2d_33              33   conv2d                 903200    4736    I: eltwise_32_output                                  (1,14,14,144) (131)   
                                                                            S: conv2d_33_scratch0                                                       
                                                                            W: conv2d_33_weights                                  (144,1,1,32) (22)     
                                                                            W: conv2d_33_bias                                     (32,) (23)            
                                                                            O: conv2d_33_output                                   (1,14,14,32) (133)    
------ ---------------------- ---- ---------------------- --------- ------- ----------------------------------------------------- --------------------- 
31     conv2d_34              34   conv2d                 1204416   6912    I: conv2d_33_output                                   (1,14,14,32) (133)    
                                                                            S: conv2d_34_scratch0                                                       
                                                                            S: conv2d_34_scratch1                                                       
                                                                            W: conv2d_34_weights                                  (32,1,1,192) (24)     
                                                                            W: conv2d_34_bias                                     (192,) (25)           
                                                                            O: conv2d_34_output                                   (1,14,14,192) (134)   
------ ---------------------- ---- ---------------------- --------- ------- ----------------------------------------------------- --------------------- 
32     conv2d_35_pad_before   35   pad                    0         0       I: conv2d_34_output                                   (1,14,14,192) (134)   
                                                                            O: conv2d_35_pad_before_output                        (1,16,16,192) (135)   
------ ---------------------- ---- ---------------------- --------- ------- ----------------------------------------------------- --------------------- 
33     conv2d_35              35   conv2d                 338880    2496    I: conv2d_35_pad_before_output                        (1,16,16,192) (135)   
                                                                            S: conv2d_35_scratch0                                                       
                                                                            S: conv2d_35_scratch1                                                       
                                                                            W: conv2d_35_weights                                  (192,3,3,1) (26)      
                                                                            W: conv2d_35_bias                                     (192,) (27)           
                                                                            O: conv2d_35_output                                   (1,14,14,192) (137)   
------ ---------------------- ---- ---------------------- --------- ------- ----------------------------------------------------- --------------------- 
34     pool_36                36   pool                   37632     0       I: conv2d_35_output                                   (1,14,14,192) (137)   
                                                                            O: pool_36_output                                     (1,1,1,192) (138)     
------ ---------------------- ---- ---------------------- --------- ------- ----------------------------------------------------- --------------------- 
35     conv2d_41              41   conv2d                 1544      1568    I: pool_36_output                                     (1,1,1,192) (138)     
                                                                            S: conv2d_41_scratch0                                                       
                                                                            S: conv2d_41_scratch1                                                       
                                                                            W: conv2d_41_weights                                  (192,1,1,8) (28)      
                                                                            W: conv2d_41_bias                                     (8,) (29)             
                                                                            O: conv2d_41_output                                   (1,1,1,8) (140)       
------ ---------------------- ---- ---------------------- --------- ------- ----------------------------------------------------- --------------------- 
36     conv2d_42              42   conv2d                 1728      2304    I: conv2d_41_output                                   (1,1,1,8) (140)       
                                                                            S: conv2d_42_scratch0                                                       
                                                                            W: conv2d_42_weights                                  (8,1,1,192) (30)      
                                                                            W: conv2d_42_bias                                     (192,) (31)           
                                                                            O: conv2d_42_output                                   (1,1,1,192) (141)     
------ ---------------------- ---- ---------------------- --------- ------- ----------------------------------------------------- --------------------- 
37     eltwise_43             43   eltwise_integer/min    192       4       I: conv2d_42_output                                   (1,1,1,192) (141)     
                                                                            I: model_block4a_se_expand_clip_by_value_Minimum_y2   (1,1,1) (183)         
                                                                            O: eltwise_43_output                                  (1,1,1,192) (142)     
------ ---------------------- ---- ---------------------- --------- ------- ----------------------------------------------------- --------------------- 
38     nl_44                  44   nl                     192       0       I: eltwise_43_output                                  (1,1,1,192) (142)     
                                                                            O: nl_44_output                                       (1,1,1,192) (144)     
------ ---------------------- ---- ---------------------- --------- ------- ----------------------------------------------------- --------------------- 
39     eltwise_45             45   eltwise_integer/mul    37632     0       I: conv2d_35_output                                   (1,14,14,192) (137)   
                                                                            I: nl_44_output                                       (1,1,1,192) (144)     
                                                                            O: eltwise_45_output                                  (1,14,14,192) (145)   
------ ---------------------- ---- ---------------------- --------- ------- ----------------------------------------------------- --------------------- 
40     conv2d_46              46   conv2d                 1204256   6272    I: eltwise_45_output                                  (1,14,14,192) (145)   
                                                                            S: conv2d_46_scratch0                                                       
                                                                            W: conv2d_46_weights                                  (192,1,1,32) (32)     
                                                                            W: conv2d_46_bias                                     (32,) (33)            
                                                                            O: conv2d_46_output                                   (1,14,14,32) (147)    
------ ---------------------- ---- ---------------------- --------- ------- ----------------------------------------------------- --------------------- 
41     eltwise_47             47   eltwise_integer/sum    6272      0       I: conv2d_46_output                                   (1,14,14,32) (147)    
                                                                            I: conv2d_33_output                                   (1,14,14,32) (133)    
                                                                            O: eltwise_47_output                                  (1,14,14,32) (148)    
------ ---------------------- ---- ---------------------- --------- ------- ----------------------------------------------------- --------------------- 
42     conv2d_48              48   conv2d                 1204416   6912    I: eltwise_47_output                                  (1,14,14,32) (148)    
                                                                            S: conv2d_48_scratch0                                                       
                                                                            S: conv2d_48_scratch1                                                       
                                                                            W: conv2d_48_weights                                  (32,1,1,192) (34)     
                                                                            W: conv2d_48_bias                                     (192,) (35)           
                                                                            O: conv2d_48_output                                   (1,14,14,192) (149)   
------ ---------------------- ---- ---------------------- --------- ------- ----------------------------------------------------- --------------------- 
43     conv2d_49_pad_before   49   pad                    0         0       I: conv2d_48_output                                   (1,14,14,192) (149)   
                                                                            O: conv2d_49_pad_before_output                        (1,16,16,192) (151)   
------ ---------------------- ---- ---------------------- --------- ------- ----------------------------------------------------- --------------------- 
44     conv2d_49              49   conv2d                 84864     2496    I: conv2d_49_pad_before_output                        (1,16,16,192) (151)   
                                                                            S: conv2d_49_scratch0                                                       
                                                                            S: conv2d_49_scratch1                                                       
                                                                            W: conv2d_49_weights                                  (192,3,3,1) (36)      
                                                                            W: conv2d_49_bias                                     (192,) (37)           
                                                                            O: conv2d_49_output                                   (1,7,7,192) (152)     
------ ---------------------- ---- ---------------------- --------- ------- ----------------------------------------------------- --------------------- 
45     pool_50                50   pool                   9408      0       I: conv2d_49_output                                   (1,7,7,192) (152)     
                                                                            O: pool_50_output                                     (1,1,1,192) (153)     
------ ---------------------- ---- ---------------------- --------- ------- ----------------------------------------------------- --------------------- 
46     conv2d_55              55   conv2d                 1544      1568    I: pool_50_output                                     (1,1,1,192) (153)     
                                                                            S: conv2d_55_scratch0                                                       
                                                                            S: conv2d_55_scratch1                                                       
                                                                            W: conv2d_55_weights                                  (192,1,1,8) (38)      
                                                                            W: conv2d_55_bias                                     (8,) (39)             
                                                                            O: conv2d_55_output                                   (1,1,1,8) (155)       
------ ---------------------- ---- ---------------------- --------- ------- ----------------------------------------------------- --------------------- 
47     conv2d_56              56   conv2d                 1728      2304    I: conv2d_55_output                                   (1,1,1,8) (155)       
                                                                            S: conv2d_56_scratch0                                                       
                                                                            W: conv2d_56_weights                                  (8,1,1,192) (40)      
                                                                            W: conv2d_56_bias                                     (192,) (41)           
                                                                            O: conv2d_56_output                                   (1,1,1,192) (156)     
------ ---------------------- ---- ---------------------- --------- ------- ----------------------------------------------------- --------------------- 
48     eltwise_57             57   eltwise_integer/min    192       4       I: conv2d_56_output                                   (1,1,1,192) (156)     
                                                                            I: model_block4a_se_expand_clip_by_value_Minimum_y3   (1,1,1) (182)         
                                                                            O: eltwise_57_output                                  (1,1,1,192) (157)     
------ ---------------------- ---- ---------------------- --------- ------- ----------------------------------------------------- --------------------- 
49     nl_58                  58   nl                     192       0       I: eltwise_57_output                                  (1,1,1,192) (157)     
                                                                            O: nl_58_output                                       (1,1,1,192) (159)     
------ ---------------------- ---- ---------------------- --------- ------- ----------------------------------------------------- --------------------- 
50     eltwise_59             59   eltwise_integer/mul    9408      0       I: conv2d_49_output                                   (1,7,7,192) (152)     
                                                                            I: nl_58_output                                       (1,1,1,192) (159)     
                                                                            O: eltwise_59_output                                  (1,7,7,192) (160)     
------ ---------------------- ---- ---------------------- --------- ------- ----------------------------------------------------- --------------------- 
51     conv2d_60              60   conv2d                 451632    9408    I: eltwise_59_output                                  (1,7,7,192) (160)     
                                                                            S: conv2d_60_scratch0                                                       
                                                                            W: conv2d_60_weights                                  (192,1,1,48) (42)     
                                                                            W: conv2d_60_bias                                     (48,) (43)            
                                                                            O: conv2d_60_output                                   (1,7,7,48) (162)      
------ ---------------------- ---- ---------------------- --------- ------- ----------------------------------------------------- --------------------- 
52     conv2d_61              61   conv2d                 677664    14976   I: conv2d_60_output                                   (1,7,7,48) (162)      
                                                                            S: conv2d_61_scratch0                                                       
                                                                            S: conv2d_61_scratch1                                                       
                                                                            W: conv2d_61_weights                                  (48,1,1,288) (44)     
                                                                            W: conv2d_61_bias                                     (288,) (45)           
                                                                            O: conv2d_61_output                                   (1,7,7,288) (163)     
------ ---------------------- ---- ---------------------- --------- ------- ----------------------------------------------------- --------------------- 
53     conv2d_62_pad_before   62   pad                    0         0       I: conv2d_61_output                                   (1,7,7,288) (163)     
                                                                            O: conv2d_62_pad_before_output                        (1,9,9,288) (164)     
------ ---------------------- ---- ---------------------- --------- ------- ----------------------------------------------------- --------------------- 
54     conv2d_62              62   conv2d                 127296    3744    I: conv2d_62_pad_before_output                        (1,9,9,288) (164)     
                                                                            S: conv2d_62_scratch0                                                       
                                                                            S: conv2d_62_scratch1                                                       
                                                                            W: conv2d_62_weights                                  (288,3,3,1) (46)      
                                                                            W: conv2d_62_bias                                     (288,) (47)           
                                                                            O: conv2d_62_output                                   (1,7,7,288) (166)     
------ ---------------------- ---- ---------------------- --------- ------- ----------------------------------------------------- --------------------- 
55     pool_63                63   pool                   14112     0       I: conv2d_62_output                                   (1,7,7,288) (166)     
                                                                            O: pool_63_output                                     (1,1,1,288) (167)     
------ ---------------------- ---- ---------------------- --------- ------- ----------------------------------------------------- --------------------- 
56     conv2d_68              68   conv2d                 3468      3504    I: pool_63_output                                     (1,1,1,288) (167)     
                                                                            S: conv2d_68_scratch0                                                       
                                                                            S: conv2d_68_scratch1                                                       
                                                                            W: conv2d_68_weights                                  (288,1,1,12) (48)     
                                                                            W: conv2d_68_bias                                     (12,) (49)            
                                                                            O: conv2d_68_output                                   (1,1,1,12) (168)      
------ ---------------------- ---- ---------------------- --------- ------- ----------------------------------------------------- --------------------- 
57     conv2d_69              69   conv2d                 3744      4608    I: conv2d_68_output                                   (1,1,1,12) (168)      
                                                                            S: conv2d_69_scratch0                                                       
                                                                            W: conv2d_69_weights                                  (12,1,1,288) (50)     
                                                                            W: conv2d_69_bias                                     (288,) (51)           
                                                                            O: conv2d_69_output                                   (1,1,1,288) (170)     
------ ---------------------- ---- ---------------------- --------- ------- ----------------------------------------------------- --------------------- 
58     eltwise_70             70   eltwise_integer/min    288       4       I: conv2d_69_output                                   (1,1,1,288) (170)     
                                                                            I: model_block4a_se_expand_clip_by_value_Minimum_y4   (1,1,1) (181)         
                                                                            O: eltwise_70_output                                  (1,1,1,288) (171)     
------ ---------------------- ---- ---------------------- --------- ------- ----------------------------------------------------- --------------------- 
59     nl_71                  71   nl                     288       0       I: eltwise_70_output                                  (1,1,1,288) (171)     
                                                                            O: nl_71_output                                       (1,1,1,288) (172)     
------ ---------------------- ---- ---------------------- --------- ------- ----------------------------------------------------- --------------------- 
60     eltwise_72             72   eltwise_integer/mul    14112     0       I: conv2d_62_output                                   (1,7,7,288) (166)     
                                                                            I: nl_71_output                                       (1,1,1,288) (172)     
                                                                            O: eltwise_72_output                                  (1,7,7,288) (173)     
------ ---------------------- ---- ---------------------- --------- ------- ----------------------------------------------------- --------------------- 
61     conv2d_73              73   conv2d                 677424    14016   I: eltwise_72_output                                  (1,7,7,288) (173)     
                                                                            S: conv2d_73_scratch0                                                       
                                                                            W: conv2d_73_weights                                  (288,1,1,48) (52)     
                                                                            W: conv2d_73_bias                                     (48,) (53)            
                                                                            O: conv2d_73_output                                   (1,7,7,48) (174)      
------ ---------------------- ---- ---------------------- --------- ------- ----------------------------------------------------- --------------------- 
62     eltwise_74             74   eltwise_integer/sum    2352      0       I: conv2d_73_output                                   (1,7,7,48) (174)      
                                                                            I: conv2d_60_output                                   (1,7,7,48) (162)      
                                                                            O: eltwise_74_output                                  (1,7,7,48) (175)      
------ ---------------------- ---- ---------------------- --------- ------- ----------------------------------------------------- --------------------- 
63     conv2d_75              75   conv2d                 752960    16640   I: eltwise_74_output                                  (1,7,7,48) (175)      
                                                                            S: conv2d_75_scratch0                                                       
                                                                            S: conv2d_75_scratch1                                                       
                                                                            W: conv2d_75_weights                                  (48,1,1,320) (54)     
                                                                            W: conv2d_75_bias                                     (320,) (55)           
                                                                            O: conv2d_75_output                                   (1,7,7,320) (176)     
------ ---------------------- ---- ---------------------- --------- ------- ----------------------------------------------------- --------------------- 
64     pool_76                76   pool                   15680     0       I: conv2d_75_output                                   (1,7,7,320) (176)     
                                                                            O: pool_76_output                                     (1,1,1,320) (177)     
------ ---------------------- ---- ---------------------- --------- ------- ----------------------------------------------------- --------------------- 
65     gemm_77                77   dense                  12519     12636   I: pool_76_output                                     (1,1,1,320) (177)     
                                                                            S: gemm_77_scratch0                                                         
                                                                            W: gemm_77_weights                                    (320,39) (56)         
                                                                            W: gemm_77_bias                                       (39,) (57)            
                                                                            O: gemm_77_output                                     (1,39) (178)          
------ ---------------------- ---- ---------------------- --------- ------- ----------------------------------------------------- --------------------- 
66     nl_78                  78   nl                     585       0       I: gemm_77_output                                     (1,39) (178)          
                                                                            S: nl_78_scratch0                                                           
                                                                            O: nl_78_output                                       (1,39) (179)          
------ ---------------------- ---- ---------------------- --------- ------- ----------------------------------------------------- --------------------- 
67     conversion_79          79   converter              78        0       I: nl_78_output                                       (1,39) (179)          
                                                                            O: conversion_79_output                               (1,39) (180)          
------ ---------------------- ---- ---------------------- --------- ------- ----------------------------------------------------- --------------------- 



Number of operations per c-layer
------- ------ ---------------------------------- ------------ ------------- --------- ---------- 
c_id    m_id   name (type)                                 #op          type    #param   sparsity 
------- ------ ---------------------------------- ------------ ------------- --------- ---------- 
0       0      conversion_0 (converter)                301,056    conv_u8_s8           
1       1      conv2d_1 (optimized_conv2d)           2,709,512    smul_s8_s8       224     0.0134 
2       2      conv2d_2_pad_before (pad)                     0    smul_s8_s8           
3       2      conv2d_2 (conv2d)                     7,225,352    smul_s8_s8       584     0.0103 
4       3      eltwise_3 (eltwise_integer/sum)         100,352      op_s8_s8           
5       4      conv2d_4_pad_before (pad)                     0    smul_s8_s8           
6       4      conv2d_4 (conv2d)                     7,225,376    smul_s8_s8     2,336     0.0090 
7       5      conv2d_5 (conv2d)                       802,824    smul_s8_s8       264     0.0076 
8       6      conv2d_6_pad_before (pad)                     0    smul_s8_s8           
9       6      conv2d_6 (conv2d)                     1,806,368    smul_s8_s8     2,336     0.0090 
10      7      conv2d_7 (conv2d)                       401,424    smul_s8_s8       528     0.0114 
11      8      conv2d_8 (conv2d)                       802,880    smul_s8_s8     1,088     0.0083 
12      9      conv2d_9_pad_before (pad)                     0    smul_s8_s8           
13      9      conv2d_9 (conv2d)                       112,960    smul_s8_s8       640     0.0031 
14      10     pool_10 (pool)                           12,544      op_s8_s8           
15      15     conv2d_15 (conv2d)                          260    smul_s8_s8       260     0.0000 
16      16     conv2d_16 (conv2d)                          320    smul_s8_s8       320     0.0000 
17      17     eltwise_17 (eltwise_integer/min)             64      op_s8_s8         1     0.0000 
18      18     nl_18 (nl)                                   64      op_s8_s8           
19      19     eltwise_19 (eltwise_integer/mul)         12,544      op_s8_s8           
20      20     conv2d_20 (conv2d)                      301,080    smul_s8_s8     1,560     0.0090 
21      21     conv2d_21 (conv2d)                      677,520    smul_s8_s8     3,600     0.0047 
22      22     conv2d_22_pad_before (pad)                    0    smul_s8_s8           
23      22     conv2d_22 (conv2d)                      254,160    smul_s8_s8     1,440     0.0083 
24      23     pool_23 (pool)                           28,224      op_s8_s8           
25      28     conv2d_28 (conv2d)                          870    smul_s8_s8       870     0.0080 
26      29     conv2d_29 (conv2d)                        1,008    smul_s8_s8     1,008     0.0040 
27      30     eltwise_30 (eltwise_integer/min)            144      op_s8_s8         1     0.0000 
28      31     nl_31 (nl)                                  144      op_s8_s8           
29      32     eltwise_32 (eltwise_integer/mul)         28,224      op_s8_s8           
30      33     conv2d_33 (conv2d)                      903,200    smul_s8_s8     4,640     0.0056 
31      34     conv2d_34 (conv2d)                    1,204,416    smul_s8_s8     6,336     0.0060 
32      35     conv2d_35_pad_before (pad)                    0    smul_s8_s8           
33      35     conv2d_35 (conv2d)                      338,880    smul_s8_s8     1,920     0.0026 
34      36     pool_36 (pool)                           37,632      op_s8_s8           
35      41     conv2d_41 (conv2d)                        1,544    smul_s8_s8     1,544     0.0045 
36      42     conv2d_42 (conv2d)                        1,728    smul_s8_s8     1,728     0.0069 
37      43     eltwise_43 (eltwise_integer/min)            192      op_s8_s8         1     0.0000 
38      44     nl_44 (nl)                                  192      op_s8_s8           
39      45     eltwise_45 (eltwise_integer/mul)         37,632      op_s8_s8           
40      46     conv2d_46 (conv2d)                    1,204,256    smul_s8_s8     6,176     0.0092 
41      47     eltwise_47 (eltwise_integer/sum)          6,272      op_s8_s8           
42      48     conv2d_48 (conv2d)                    1,204,416    smul_s8_s8     6,336     0.0084 
43      49     conv2d_49_pad_before (pad)                    0    smul_s8_s8           
44      49     conv2d_49 (conv2d)                       84,864    smul_s8_s8     1,920     0.0036 
45      50     pool_50 (pool)                            9,408      op_s8_s8           
46      55     conv2d_55 (conv2d)                        1,544    smul_s8_s8     1,544     0.0123 
47      56     conv2d_56 (conv2d)                        1,728    smul_s8_s8     1,728     0.0064 
48      57     eltwise_57 (eltwise_integer/min)            192      op_s8_s8         1     0.0000 
49      58     nl_58 (nl)                                  192      op_s8_s8           
50      59     eltwise_59 (eltwise_integer/mul)          9,408      op_s8_s8           
51      60     conv2d_60 (conv2d)                      451,632    smul_s8_s8     9,264     0.0095 
52      61     conv2d_61 (conv2d)                      677,664    smul_s8_s8    14,112     0.0081 
53      62     conv2d_62_pad_before (pad)                    0    smul_s8_s8           
54      62     conv2d_62 (conv2d)                      127,296    smul_s8_s8     2,880     0.0024 
55      63     pool_63 (pool)                           14,112      op_s8_s8           
56      68     conv2d_68 (conv2d)                        3,468    smul_s8_s8     3,468     0.0098 
57      69     conv2d_69 (conv2d)                        3,744    smul_s8_s8     3,744     0.0064 
58      70     eltwise_70 (eltwise_integer/min)            288      op_s8_s8         1     0.0000 
59      71     nl_71 (nl)                                  288      op_s8_s8           
60      72     eltwise_72 (eltwise_integer/mul)         14,112      op_s8_s8           
61      73     conv2d_73 (conv2d)                      677,424    smul_s8_s8    13,872     0.0097 
62      74     eltwise_74 (eltwise_integer/sum)          2,352      op_s8_s8           
63      75     conv2d_75 (conv2d)                      752,960    smul_s8_s8    15,680     0.0080 
64      76     pool_76 (pool)                           15,680      op_s8_s8           
65      77     gemm_77 (dense)                          12,519    smul_s8_s8    12,519     0.0161 
66      78     nl_78 (nl)                                  585      op_s8_s8           
67      79     conversion_79 (converter)                    78   conv_s8_f32           
------- ------ ---------------------------------- ------------ ------------- --------- ---------- 
total                                               30,607,172                 126,474     0.0086 

Number of operation types
---------------- ------------ ----------- 
operation type              #           % 
---------------- ------------ ----------- 
conv_u8_s8            301,056        1.0% 
smul_s8_s8         29,975,197       97.9% 
op_s8_s8              330,841        1.1% 
conv_s8_f32                78        0.0% 

Complexity report (model)
------ -------------------------------------------------- ------------------------- ------------------------- ---------- 
m_id   name                                               c_macc                    c_rom                     c_id       
------ -------------------------------------------------- ------------------------- ------------------------- ---------- 
0      serving_default_input_10                           |                  1.0%   |                  0.0%   [0]        
1      conv2d_1                                           ||||||             8.9%   |                  0.2%   [1]        
2      conv2d_2                                           |||||||||||||||   23.6%   |                  0.4%   [2, 3]     
3      eltwise_3                                          |                  0.3%   |                  0.0%   [4]        
4      conv2d_4                                           ||||||||||||||||  23.6%   |||                1.8%   [5, 6]     
5      conv2d_5                                           ||                 2.6%   |                  0.2%   [7]        
6      conv2d_6                                           ||||               5.9%   |||                1.8%   [8, 9]     
7      conv2d_7                                           |                  1.3%   |                  0.4%   [10]       
8      conv2d_8                                           ||                 2.6%   ||                 0.9%   [11]       
9      conv2d_9                                           |                  0.4%   |                  0.6%   [12, 13]   
10     pool_10                                            |                  0.0%   |                  0.0%   [14]       
15     conv2d_15                                          |                  0.0%   |                  0.2%   [15]       
16     conv2d_16                                          |                  0.0%   |                  0.4%   [16]       
17     model_block4a_se_expand_clip_by_value_Minimum_y    |                  0.0%   |                  0.0%   [17]       
18     nl_18                                              |                  0.0%   |                  0.0%   [18]       
19     eltwise_19                                         |                  0.0%   |                  0.0%   [19]       
20     conv2d_20                                          |                  1.0%   ||                 1.2%   [20]       
21     conv2d_21                                          ||                 2.2%   ||||               3.0%   [21]       
22     conv2d_22                                          |                  0.8%   ||                 1.4%   [22, 23]   
23     pool_23                                            |                  0.1%   |                  0.0%   [24]       
28     conv2d_28                                          |                  0.0%   |                  0.7%   [25]       
29     conv2d_29                                          |                  0.0%   ||                 1.1%   [26]       
30     model_block4a_se_expand_clip_by_value_Minimum_y1   |                  0.0%   |                  0.0%   [27]       
31     nl_31                                              |                  0.0%   |                  0.0%   [28]       
32     eltwise_32                                         |                  0.1%   |                  0.0%   [29]       
33     conv2d_33                                          ||                 3.0%   |||||              3.5%   [30]       
34     conv2d_34                                          |||                3.9%   |||||||            5.1%   [31]       
35     conv2d_35                                          |                  1.1%   |||                1.8%   [32, 33]   
36     pool_36                                            |                  0.1%   |                  0.0%   [34]       
41     conv2d_41                                          |                  0.0%   ||                 1.1%   [35]       
42     conv2d_42                                          |                  0.0%   |||                1.7%   [36]       
43     model_block4a_se_expand_clip_by_value_Minimum_y2   |                  0.0%   |                  0.0%   [37]       
44     nl_44                                              |                  0.0%   |                  0.0%   [38]       
45     eltwise_45                                         |                  0.1%   |                  0.0%   [39]       
46     conv2d_46                                          |||                3.9%   ||||||             4.6%   [40]       
47     eltwise_47                                         |                  0.0%   |                  0.0%   [41]       
48     conv2d_48                                          |||                3.9%   |||||||            5.1%   [42]       
49     conv2d_49                                          |                  0.3%   |||                1.8%   [43, 44]   
50     pool_50                                            |                  0.0%   |                  0.0%   [45]       
55     conv2d_55                                          |                  0.0%   ||                 1.1%   [46]       
56     conv2d_56                                          |                  0.0%   |||                1.7%   [47]       
57     model_block4a_se_expand_clip_by_value_Minimum_y3   |                  0.0%   |                  0.0%   [48]       
58     nl_58                                              |                  0.0%   |                  0.0%   [49]       
59     eltwise_59                                         |                  0.0%   |                  0.0%   [50]       
60     conv2d_60                                          |                  1.5%   |||||||||          6.9%   [51]       
61     conv2d_61                                          ||                 2.2%   ||||||||||||||    11.0%   [52]       
62     conv2d_62                                          |                  0.4%   ||||               2.7%   [53, 54]   
63     pool_63                                            |                  0.0%   |                  0.0%   [55]       
68     conv2d_68                                          |                  0.0%   ||||               2.6%   [56]       
69     conv2d_69                                          |                  0.0%   |||||              3.4%   [57]       
70     model_block4a_se_expand_clip_by_value_Minimum_y4   |                  0.0%   |                  0.0%   [58]       
71     nl_71                                              |                  0.0%   |                  0.0%   [59]       
72     eltwise_72                                         |                  0.0%   |                  0.0%   [60]       
73     conv2d_73                                          ||                 2.2%   |||||||||||||     10.3%   [61]       
74     eltwise_74                                         |                  0.0%   |                  0.0%   [62]       
75     conv2d_75                                          ||                 2.5%   ||||||||||||||||  12.2%   [63]       
76     pool_76                                            |                  0.1%   |                  0.0%   [64]       
77     model_predictions_MatMul                           |                  0.0%   ||||||||||||       9.3%   [65]       
78     nl_78                                              |                  0.0%   |                  0.0%   [66]       
79     conversion_79                                      |                  0.0%   |                  0.0%   [67]       
------ -------------------------------------------------- ------------------------- ------------------------- ---------- 
macc=30,607,172 weights=136,464 act=251,536 ram_io=0

Generated files (7)
---------------------------------------------------------------------------------------------------------------------------------- 
E:\hjTan\Documents\CODE_SPACE\stm32ai-modelzoo-2.0.0\experiments_outputs\2025_07_28_14_57_41\stm32ai_files\network_config.h        
E:\hjTan\Documents\CODE_SPACE\stm32ai-modelzoo-2.0.0\experiments_outputs\2025_07_28_14_57_41\stm32ai_files\network.h               
E:\hjTan\Documents\CODE_SPACE\stm32ai-modelzoo-2.0.0\experiments_outputs\2025_07_28_14_57_41\stm32ai_files\network.c               
E:\hjTan\Documents\CODE_SPACE\stm32ai-modelzoo-2.0.0\experiments_outputs\2025_07_28_14_57_41\stm32ai_files\network_data_params.h   
E:\hjTan\Documents\CODE_SPACE\stm32ai-modelzoo-2.0.0\experiments_outputs\2025_07_28_14_57_41\stm32ai_files\network_data_params.c   
E:\hjTan\Documents\CODE_SPACE\stm32ai-modelzoo-2.0.0\experiments_outputs\2025_07_28_14_57_41\stm32ai_files\network_data.h          
E:\hjTan\Documents\CODE_SPACE\stm32ai-modelzoo-2.0.0\experiments_outputs\2025_07_28_14_57_41\stm32ai_files\network_data.c          
>>>>>>> 1460700 (com)
