Neural Network Tools for STM32 family v1.7.0 (stm.ai v8.1.0-19520)
Created date          : 2025-01-05 15:15:37
Parameters            : generate -m E:\hjTan\Documents\CODE_SPACE\stm32ai-modelzoo-2.0.0\experiments_outputs\2025_01_05_14_31_47\quantized_models\quantized_model.tflite -v 0 --allocate-inputs --allocate-outputs --output E:\hjTan\Documents\CODE_SPACE\stm32ai-modelzoo-2.0.0\experiments_outputs\2025_01_05_14_31_47/stm32ai_files --workspace E:\hjTan\Documents\CODE_SPACE\stm32ai-modelzoo-2.0.0\experiments_outputs\2025_01_05_14_31_47/stm32ai_files --optimization balanced

Exec/report summary (generate)
--------------------------------------------------------------------------------------------------------------------------------------------------------------
model file         :   E:\hjTan\Documents\CODE_SPACE\stm32ai-modelzoo-2.0.0\experiments_outputs\2025_01_05_14_31_47\quantized_models\quantized_model.tflite   
type               :   tflite                                                                                                                                 
c_name             :   network                                                                                                                                
compression        :   lossless                                                                                                                               
options            :   allocate-inputs, allocate-outputs                                                                                                      
optimization       :   balanced                                                                                                                               
workspace dir      :   E:\hjTan\Documents\CODE_SPACE\stm32ai-modelzoo-2.0.0\experiments_outputs\2025_01_05_14_31_47\stm32ai_files                             
output dir         :   E:\hjTan\Documents\CODE_SPACE\stm32ai-modelzoo-2.0.0\experiments_outputs\2025_01_05_14_31_47\stm32ai_files                             
model_fmt          :   ss/sa per channel                                                                                                                      
model_name         :   quantized_model                                                                                                                        
model_hash         :   8ff396b707ea45fb14144270157dc3ea                                                                                                       
params #           :   239,189 items (249.21 KiB)                                                                                                             
--------------------------------------------------------------------------------------------------------------------------------------------------------------
input 1/1          :   'serving_default_input_10' (domain:activations/**default**)                                                                            
                   :   150528 items, 147.00 KiB, ai_u8, s=0.00784314, zp=127, (1,224,224,3)                                                                   
output 1/1         :   'conversion_71' (domain:activations/**default**)                                                                                       
                   :   5 items, 20 B, ai_float, float, (1,5)                                                                                                  
macc               :   36,457,626                                                                                                                             
weights (ro)       :   255,188 B (249.21 KiB) (1 segment) / -701,568(-73.3%) vs float model                                                                   
activations (rw)   :   621,488 B (606.92 KiB) (1 segment) *                                                                                                   
ram (total)        :   621,488 B (606.92 KiB) = 621,488 + 0 + 0                                                                                               
--------------------------------------------------------------------------------------------------------------------------------------------------------------
(*) 'input'/'output' buffers can be used from the activations buffer

Model name - quantized_model ['serving_default_input_10'] ['conversion_71']
------ ------------------------------------------------------ ------------------------------ ----------------- ----------- -------------------------------------- --- ----------------- --------------------- ----------------------------- 
m_id   layer (type,original)                                  oshape                         param/size               macc                           connected to   | c_size            c_macc                c_type                        
------ ------------------------------------------------------ ------------------------------ ----------------- ----------- -------------------------------------- --- ----------------- --------------------- ----------------------------- 
0      serving_default_input_10 (Input, )                     [b:1,h:224,h:224,w:224,c:3]                                                                           |                   +301,056(+100.0%)     converter_oi8[0]              
       conversion_0 (Conversion, QUANTIZE)                    [b:1,h:224,h:224,w:224,c:3]                          301,056               serving_default_input_10   |                   -301,056(-100.0%)     
------ ------------------------------------------------------ ------------------------------ ----------------- ----------- -------------------------------------- --- ----------------- --------------------- ----------------------------- 
1      conv2d_1 (Conv2D, CONV_2D)                             [b:1,h:112,h:112,w:112,c:8]    224/248             2,709,512                           conversion_0   |                                         optimized_conv2d_oi8[1]       
       nl_1_nl (Nonlinearity, CONV_2D)                        [b:1,h:112,h:112,w:112,c:8]                          100,352                               conv2d_1   |                   -100,352(-100.0%)     
------ ------------------------------------------------------ ------------------------------ ----------------- ----------- -------------------------------------- --- ----------------- --------------------- ----------------------------- 
2      conv2d_2 (Conv2D, DEPTHWISE_CONV_2D)                   [b:1,h:112,h:112,w:112,c:8]    80/104                903,176                                nl_1_nl   |                                         pad_oi8/conv2d_oi8[2, 3]      
       nl_2_nl (Nonlinearity, DEPTHWISE_CONV_2D)              [b:1,h:112,h:112,w:112,c:8]                          100,352                               conv2d_2   |                   -100,352(-100.0%)     
------ ------------------------------------------------------ ------------------------------ ----------------- ----------- -------------------------------------- --- ----------------- --------------------- ----------------------------- 
3      conv2d_3 (Conv2D, CONV_2D)                             [b:1,h:112,h:112,w:112,c:8]    72/96                 802,824                                nl_2_nl   |                                         conv2d_oi8[4]                 
------ ------------------------------------------------------ ------------------------------ ----------------- ----------- -------------------------------------- --- ----------------- --------------------- ----------------------------- 
4      eltwise_4 (Eltwise, ADD)                               [b:1,h:112,h:112,w:112,c:8]                          100,352                                nl_1_nl   |                                         eltwise_integer/sum_oi8[5]    
                                                                                                                                                         conv2d_3   | 
------ ------------------------------------------------------ ------------------------------ ----------------- ----------- -------------------------------------- --- ----------------- --------------------- ----------------------------- 
5      conv2d_5 (Conv2D, CONV_2D)                             [b:1,h:112,h:112,w:112,c:48]   432/576             4,816,944                              eltwise_4   |                                         conv2d_oi8[6]                 
       nl_5_nl (Nonlinearity, CONV_2D)                        [b:1,h:112,h:112,w:112,c:48]                         602,112                               conv2d_5   |                   -602,112(-100.0%)     
------ ------------------------------------------------------ ------------------------------ ----------------- ----------- -------------------------------------- --- ----------------- --------------------- ----------------------------- 
6      pad_6 (Pad, PAD)                                       [b:1,h:113,h:113,w:113,c:48]                                                                nl_5_nl   | +624(+100.0%)     +1,354,800(+100.0%)   conv2d_oi8[8]                 
------ ------------------------------------------------------ ------------------------------ ----------------- ----------- -------------------------------------- --- ----------------- --------------------- ----------------------------- 
7      conv2d_7 (Conv2D, DEPTHWISE_CONV_2D)                   [b:1,h:56,h:56,w:56,c:48]      480/624             1,354,800                                  pad_6   | -624(-100.0%)     -1,354,800(-100.0%)   pad_oi8[7]                    
       nl_7_nl (Nonlinearity, DEPTHWISE_CONV_2D)              [b:1,h:56,h:56,w:56,c:48]                            150,528                               conv2d_7   |                   -150,528(-100.0%)     
------ ------------------------------------------------------ ------------------------------ ----------------- ----------- -------------------------------------- --- ----------------- --------------------- ----------------------------- 
8      conv2d_8 (Conv2D, CONV_2D)                             [b:1,h:56,h:56,w:56,c:8]       392/416             1,204,232                                nl_7_nl   |                                         conv2d_oi8[9]                 
------ ------------------------------------------------------ ------------------------------ ----------------- ----------- -------------------------------------- --- ----------------- --------------------- ----------------------------- 
9      conv2d_9 (Conv2D, CONV_2D)                             [b:1,h:56,h:56,w:56,c:48]      432/576             1,204,272                               conv2d_8   |                                         conv2d_oi8[10]                
       nl_9_nl (Nonlinearity, CONV_2D)                        [b:1,h:56,h:56,w:56,c:48]                            150,528                               conv2d_9   |                   -150,528(-100.0%)     
------ ------------------------------------------------------ ------------------------------ ----------------- ----------- -------------------------------------- --- ----------------- --------------------- ----------------------------- 
10     conv2d_10 (Conv2D, DEPTHWISE_CONV_2D)                  [b:1,h:56,h:56,w:56,c:48]      480/624             1,354,800                                nl_9_nl   |                                         pad_oi8/conv2d_oi8[11, 12]    
       nl_10_nl (Nonlinearity, DEPTHWISE_CONV_2D)             [b:1,h:56,h:56,w:56,c:48]                            150,528                              conv2d_10   |                   -150,528(-100.0%)     
------ ------------------------------------------------------ ------------------------------ ----------------- ----------- -------------------------------------- --- ----------------- --------------------- ----------------------------- 
11     conv2d_11 (Conv2D, CONV_2D)                            [b:1,h:56,h:56,w:56,c:8]       392/416             1,204,232                               nl_10_nl   |                                         conv2d_oi8[13]                
------ ------------------------------------------------------ ------------------------------ ----------------- ----------- -------------------------------------- --- ----------------- --------------------- ----------------------------- 
12     eltwise_12 (Eltwise, ADD)                              [b:1,h:56,h:56,w:56,c:8]                              25,088                               conv2d_8   |                                         eltwise_integer/sum_oi8[14]   
                                                                                                                                                        conv2d_11   | 
------ ------------------------------------------------------ ------------------------------ ----------------- ----------- -------------------------------------- --- ----------------- --------------------- ----------------------------- 
13     conv2d_13 (Conv2D, CONV_2D)                            [b:1,h:56,h:56,w:56,c:48]      432/576             1,204,272                             eltwise_12   |                                         conv2d_oi8[15]                
       nl_13_nl (Nonlinearity, CONV_2D)                       [b:1,h:56,h:56,w:56,c:48]                            150,528                              conv2d_13   |                   -150,528(-100.0%)     
------ ------------------------------------------------------ ------------------------------ ----------------- ----------- -------------------------------------- --- ----------------- --------------------- ----------------------------- 
14     pad_14 (Pad, PAD)                                      [b:1,h:57,h:57,w:57,c:48]                                                                  nl_13_nl   | +624(+100.0%)     +338,736(+100.0%)     conv2d_oi8[17]                
------ ------------------------------------------------------ ------------------------------ ----------------- ----------- -------------------------------------- --- ----------------- --------------------- ----------------------------- 
15     conv2d_15 (Conv2D, DEPTHWISE_CONV_2D)                  [b:1,h:28,h:28,w:28,c:48]      480/624               338,736                                 pad_14   | -624(-100.0%)     -338,736(-100.0%)     pad_oi8[16]                   
       nl_15_nl (Nonlinearity, DEPTHWISE_CONV_2D)             [b:1,h:28,h:28,w:28,c:48]                             37,632                              conv2d_15   |                   -37,632(-100.0%)      
------ ------------------------------------------------------ ------------------------------ ----------------- ----------- -------------------------------------- --- ----------------- --------------------- ----------------------------- 
16     conv2d_16 (Conv2D, CONV_2D)                            [b:1,h:28,h:28,w:28,c:8]       392/416               301,064                               nl_15_nl   |                                         conv2d_oi8[18]                
------ ------------------------------------------------------ ------------------------------ ----------------- ----------- -------------------------------------- --- ----------------- --------------------- ----------------------------- 
17     conv2d_17 (Conv2D, CONV_2D)                            [b:1,h:28,h:28,w:28,c:48]      432/576               301,104                              conv2d_16   |                                         conv2d_oi8[19]                
       nl_17_nl (Nonlinearity, CONV_2D)                       [b:1,h:28,h:28,w:28,c:48]                             37,632                              conv2d_17   |                   -37,632(-100.0%)      
------ ------------------------------------------------------ ------------------------------ ----------------- ----------- -------------------------------------- --- ----------------- --------------------- ----------------------------- 
18     conv2d_18 (Conv2D, DEPTHWISE_CONV_2D)                  [b:1,h:28,h:28,w:28,c:48]      480/624               338,736                               nl_17_nl   |                                         pad_oi8/conv2d_oi8[20, 21]    
       nl_18_nl (Nonlinearity, DEPTHWISE_CONV_2D)             [b:1,h:28,h:28,w:28,c:48]                             37,632                              conv2d_18   |                   -37,632(-100.0%)      
------ ------------------------------------------------------ ------------------------------ ----------------- ----------- -------------------------------------- --- ----------------- --------------------- ----------------------------- 
19     conv2d_19 (Conv2D, CONV_2D)                            [b:1,h:28,h:28,w:28,c:8]       392/416               301,064                               nl_18_nl   |                                         conv2d_oi8[22]                
------ ------------------------------------------------------ ------------------------------ ----------------- ----------- -------------------------------------- --- ----------------- --------------------- ----------------------------- 
20     eltwise_20 (Eltwise, ADD)                              [b:1,h:28,h:28,w:28,c:8]                               6,272                              conv2d_16   |                                         eltwise_integer/sum_oi8[23]   
                                                                                                                                                        conv2d_19   | 
------ ------------------------------------------------------ ------------------------------ ----------------- ----------- -------------------------------------- --- ----------------- --------------------- ----------------------------- 
21     conv2d_21 (Conv2D, CONV_2D)                            [b:1,h:28,h:28,w:28,c:48]      432/576               301,104                             eltwise_20   |                                         conv2d_oi8[24]                
       nl_21_nl (Nonlinearity, CONV_2D)                       [b:1,h:28,h:28,w:28,c:48]                             37,632                              conv2d_21   |                   -37,632(-100.0%)      
------ ------------------------------------------------------ ------------------------------ ----------------- ----------- -------------------------------------- --- ----------------- --------------------- ----------------------------- 
22     conv2d_22 (Conv2D, DEPTHWISE_CONV_2D)                  [b:1,h:28,h:28,w:28,c:48]      480/624               338,736                               nl_21_nl   |                                         pad_oi8/conv2d_oi8[25, 26]    
       nl_22_nl (Nonlinearity, DEPTHWISE_CONV_2D)             [b:1,h:28,h:28,w:28,c:48]                             37,632                              conv2d_22   |                   -37,632(-100.0%)      
------ ------------------------------------------------------ ------------------------------ ----------------- ----------- -------------------------------------- --- ----------------- --------------------- ----------------------------- 
23     conv2d_23 (Conv2D, CONV_2D)                            [b:1,h:28,h:28,w:28,c:8]       392/416               301,064                               nl_22_nl   |                                         conv2d_oi8[27]                
------ ------------------------------------------------------ ------------------------------ ----------------- ----------- -------------------------------------- --- ----------------- --------------------- ----------------------------- 
24     eltwise_24 (Eltwise, ADD)                              [b:1,h:28,h:28,w:28,c:8]                               6,272                             eltwise_20   |                                         eltwise_integer/sum_oi8[28]   
                                                                                                                                                        conv2d_23   | 
------ ------------------------------------------------------ ------------------------------ ----------------- ----------- -------------------------------------- --- ----------------- --------------------- ----------------------------- 
25     conv2d_25 (Conv2D, CONV_2D)                            [b:1,h:28,h:28,w:28,c:48]      432/576               301,104                             eltwise_24   |                                         conv2d_oi8[29]                
       nl_25_nl (Nonlinearity, CONV_2D)                       [b:1,h:28,h:28,w:28,c:48]                             37,632                              conv2d_25   |                   -37,632(-100.0%)      
------ ------------------------------------------------------ ------------------------------ ----------------- ----------- -------------------------------------- --- ----------------- --------------------- ----------------------------- 
26     pad_26 (Pad, PAD)                                      [b:1,h:29,h:29,w:29,c:48]                                                                  nl_25_nl   | +624(+100.0%)     +84,720(+100.0%)      conv2d_oi8[31]                
------ ------------------------------------------------------ ------------------------------ ----------------- ----------- -------------------------------------- --- ----------------- --------------------- ----------------------------- 
27     conv2d_27 (Conv2D, DEPTHWISE_CONV_2D)                  [b:1,h:14,h:14,w:14,c:48]      480/624                84,720                                 pad_26   | -624(-100.0%)     -84,720(-100.0%)      pad_oi8[30]                   
       nl_27_nl (Nonlinearity, DEPTHWISE_CONV_2D)             [b:1,h:14,h:14,w:14,c:48]                              9,408                              conv2d_27   |                   -9,408(-100.0%)       
------ ------------------------------------------------------ ------------------------------ ----------------- ----------- -------------------------------------- --- ----------------- --------------------- ----------------------------- 
28     conv2d_28 (Conv2D, CONV_2D)                            [b:1,h:14,h:14,w:14,c:16]      784/832               150,544                               nl_27_nl   |                                         conv2d_oi8[32]                
------ ------------------------------------------------------ ------------------------------ ----------------- ----------- -------------------------------------- --- ----------------- --------------------- ----------------------------- 
29     conv2d_29 (Conv2D, CONV_2D)                            [b:1,h:14,h:14,w:14,c:96]      1,632/1,920           301,152                              conv2d_28   |                                         conv2d_oi8[33]                
       nl_29_nl (Nonlinearity, CONV_2D)                       [b:1,h:14,h:14,w:14,c:96]                             18,816                              conv2d_29   |                   -18,816(-100.0%)      
------ ------------------------------------------------------ ------------------------------ ----------------- ----------- -------------------------------------- --- ----------------- --------------------- ----------------------------- 
30     conv2d_30 (Conv2D, DEPTHWISE_CONV_2D)                  [b:1,h:14,h:14,w:14,c:96]      960/1,248             169,440                               nl_29_nl   |                                         pad_oi8/conv2d_oi8[34, 35]    
       nl_30_nl (Nonlinearity, DEPTHWISE_CONV_2D)             [b:1,h:14,h:14,w:14,c:96]                             18,816                              conv2d_30   |                   -18,816(-100.0%)      
------ ------------------------------------------------------ ------------------------------ ----------------- ----------- -------------------------------------- --- ----------------- --------------------- ----------------------------- 
31     conv2d_31 (Conv2D, CONV_2D)                            [b:1,h:14,h:14,w:14,c:16]      1,552/1,600           301,072                               nl_30_nl   |                                         conv2d_oi8[36]                
------ ------------------------------------------------------ ------------------------------ ----------------- ----------- -------------------------------------- --- ----------------- --------------------- ----------------------------- 
32     eltwise_32 (Eltwise, ADD)                              [b:1,h:14,h:14,w:14,c:16]                              3,136                              conv2d_28   |                                         eltwise_integer/sum_oi8[37]   
                                                                                                                                                        conv2d_31   | 
------ ------------------------------------------------------ ------------------------------ ----------------- ----------- -------------------------------------- --- ----------------- --------------------- ----------------------------- 
33     conv2d_33 (Conv2D, CONV_2D)                            [b:1,h:14,h:14,w:14,c:96]      1,632/1,920           301,152                             eltwise_32   |                                         conv2d_oi8[38]                
       nl_33_nl (Nonlinearity, CONV_2D)                       [b:1,h:14,h:14,w:14,c:96]                             18,816                              conv2d_33   |                   -18,816(-100.0%)      
------ ------------------------------------------------------ ------------------------------ ----------------- ----------- -------------------------------------- --- ----------------- --------------------- ----------------------------- 
34     conv2d_34 (Conv2D, DEPTHWISE_CONV_2D)                  [b:1,h:14,h:14,w:14,c:96]      960/1,248             169,440                               nl_33_nl   |                                         pad_oi8/conv2d_oi8[39, 40]    
       nl_34_nl (Nonlinearity, DEPTHWISE_CONV_2D)             [b:1,h:14,h:14,w:14,c:96]                             18,816                              conv2d_34   |                   -18,816(-100.0%)      
------ ------------------------------------------------------ ------------------------------ ----------------- ----------- -------------------------------------- --- ----------------- --------------------- ----------------------------- 
35     conv2d_35 (Conv2D, CONV_2D)                            [b:1,h:14,h:14,w:14,c:16]      1,552/1,600           301,072                               nl_34_nl   |                                         conv2d_oi8[41]                
------ ------------------------------------------------------ ------------------------------ ----------------- ----------- -------------------------------------- --- ----------------- --------------------- ----------------------------- 
36     eltwise_36 (Eltwise, ADD)                              [b:1,h:14,h:14,w:14,c:16]                              3,136                             eltwise_32   |                                         eltwise_integer/sum_oi8[42]   
                                                                                                                                                        conv2d_35   | 
------ ------------------------------------------------------ ------------------------------ ----------------- ----------- -------------------------------------- --- ----------------- --------------------- ----------------------------- 
37     conv2d_37 (Conv2D, CONV_2D)                            [b:1,h:14,h:14,w:14,c:96]      1,632/1,920           301,152                             eltwise_36   |                                         conv2d_oi8[43]                
       nl_37_nl (Nonlinearity, CONV_2D)                       [b:1,h:14,h:14,w:14,c:96]                             18,816                              conv2d_37   |                   -18,816(-100.0%)      
------ ------------------------------------------------------ ------------------------------ ----------------- ----------- -------------------------------------- --- ----------------- --------------------- ----------------------------- 
38     conv2d_38 (Conv2D, DEPTHWISE_CONV_2D)                  [b:1,h:14,h:14,w:14,c:96]      960/1,248             169,440                               nl_37_nl   |                                         pad_oi8/conv2d_oi8[44, 45]    
       nl_38_nl (Nonlinearity, DEPTHWISE_CONV_2D)             [b:1,h:14,h:14,w:14,c:96]                             18,816                              conv2d_38   |                   -18,816(-100.0%)      
------ ------------------------------------------------------ ------------------------------ ----------------- ----------- -------------------------------------- --- ----------------- --------------------- ----------------------------- 
39     conv2d_39 (Conv2D, CONV_2D)                            [b:1,h:14,h:14,w:14,c:16]      1,552/1,600           301,072                               nl_38_nl   |                                         conv2d_oi8[46]                
------ ------------------------------------------------------ ------------------------------ ----------------- ----------- -------------------------------------- --- ----------------- --------------------- ----------------------------- 
40     eltwise_40 (Eltwise, ADD)                              [b:1,h:14,h:14,w:14,c:16]                              3,136                             eltwise_36   |                                         eltwise_integer/sum_oi8[47]   
                                                                                                                                                        conv2d_39   | 
------ ------------------------------------------------------ ------------------------------ ----------------- ----------- -------------------------------------- --- ----------------- --------------------- ----------------------------- 
41     conv2d_41 (Conv2D, CONV_2D)                            [b:1,h:14,h:14,w:14,c:96]      1,632/1,920           301,152                             eltwise_40   |                                         conv2d_oi8[48]                
       nl_41_nl (Nonlinearity, CONV_2D)                       [b:1,h:14,h:14,w:14,c:96]                             18,816                              conv2d_41   |                   -18,816(-100.0%)      
------ ------------------------------------------------------ ------------------------------ ----------------- ----------- -------------------------------------- --- ----------------- --------------------- ----------------------------- 
42     conv2d_42 (Conv2D, DEPTHWISE_CONV_2D)                  [b:1,h:14,h:14,w:14,c:96]      960/1,248             169,440                               nl_41_nl   |                                         pad_oi8/conv2d_oi8[49, 50]    
       nl_42_nl (Nonlinearity, DEPTHWISE_CONV_2D)             [b:1,h:14,h:14,w:14,c:96]                             18,816                              conv2d_42   |                   -18,816(-100.0%)      
------ ------------------------------------------------------ ------------------------------ ----------------- ----------- -------------------------------------- --- ----------------- --------------------- ----------------------------- 
43     conv2d_43 (Conv2D, CONV_2D)                            [b:1,h:14,h:14,w:14,c:24]      2,328/2,400           451,608                               nl_42_nl   |                                         conv2d_oi8[51]                
------ ------------------------------------------------------ ------------------------------ ----------------- ----------- -------------------------------------- --- ----------------- --------------------- ----------------------------- 
44     conv2d_44 (Conv2D, CONV_2D)                            [b:1,h:14,h:14,w:14,c:144]     3,600/4,032           677,520                              conv2d_43   |                                         conv2d_oi8[52]                
       nl_44_nl (Nonlinearity, CONV_2D)                       [b:1,h:14,h:14,w:14,c:144]                            28,224                              conv2d_44   |                   -28,224(-100.0%)      
------ ------------------------------------------------------ ------------------------------ ----------------- ----------- -------------------------------------- --- ----------------- --------------------- ----------------------------- 
45     conv2d_45 (Conv2D, DEPTHWISE_CONV_2D)                  [b:1,h:14,h:14,w:14,c:144]     1,440/1,872           254,160                               nl_44_nl   |                                         pad_oi8/conv2d_oi8[53, 54]    
       nl_45_nl (Nonlinearity, DEPTHWISE_CONV_2D)             [b:1,h:14,h:14,w:14,c:144]                            28,224                              conv2d_45   |                   -28,224(-100.0%)      
------ ------------------------------------------------------ ------------------------------ ----------------- ----------- -------------------------------------- --- ----------------- --------------------- ----------------------------- 
46     conv2d_46 (Conv2D, CONV_2D)                            [b:1,h:14,h:14,w:14,c:24]      3,480/3,552           677,400                               nl_45_nl   |                                         conv2d_oi8[55]                
------ ------------------------------------------------------ ------------------------------ ----------------- ----------- -------------------------------------- --- ----------------- --------------------- ----------------------------- 
47     eltwise_47 (Eltwise, ADD)                              [b:1,h:14,h:14,w:14,c:24]                              4,704                              conv2d_43   |                                         eltwise_integer/sum_oi8[56]   
                                                                                                                                                        conv2d_46   | 
------ ------------------------------------------------------ ------------------------------ ----------------- ----------- -------------------------------------- --- ----------------- --------------------- ----------------------------- 
48     conv2d_48 (Conv2D, CONV_2D)                            [b:1,h:14,h:14,w:14,c:144]     3,600/4,032           677,520                             eltwise_47   |                                         conv2d_oi8[57]                
       nl_48_nl (Nonlinearity, CONV_2D)                       [b:1,h:14,h:14,w:14,c:144]                            28,224                              conv2d_48   |                   -28,224(-100.0%)      
------ ------------------------------------------------------ ------------------------------ ----------------- ----------- -------------------------------------- --- ----------------- --------------------- ----------------------------- 
49     conv2d_49 (Conv2D, DEPTHWISE_CONV_2D)                  [b:1,h:14,h:14,w:14,c:144]     1,440/1,872           254,160                               nl_48_nl   |                                         pad_oi8/conv2d_oi8[58, 59]    
       nl_49_nl (Nonlinearity, DEPTHWISE_CONV_2D)             [b:1,h:14,h:14,w:14,c:144]                            28,224                              conv2d_49   |                   -28,224(-100.0%)      
------ ------------------------------------------------------ ------------------------------ ----------------- ----------- -------------------------------------- --- ----------------- --------------------- ----------------------------- 
50     conv2d_50 (Conv2D, CONV_2D)                            [b:1,h:14,h:14,w:14,c:24]      3,480/3,552           677,400                               nl_49_nl   |                                         conv2d_oi8[60]                
------ ------------------------------------------------------ ------------------------------ ----------------- ----------- -------------------------------------- --- ----------------- --------------------- ----------------------------- 
51     eltwise_51 (Eltwise, ADD)                              [b:1,h:14,h:14,w:14,c:24]                              4,704                             eltwise_47   |                                         eltwise_integer/sum_oi8[61]   
                                                                                                                                                        conv2d_50   | 
------ ------------------------------------------------------ ------------------------------ ----------------- ----------- -------------------------------------- --- ----------------- --------------------- ----------------------------- 
52     conv2d_52 (Conv2D, CONV_2D)                            [b:1,h:14,h:14,w:14,c:144]     3,600/4,032           677,520                             eltwise_51   |                                         conv2d_oi8[62]                
       nl_52_nl (Nonlinearity, CONV_2D)                       [b:1,h:14,h:14,w:14,c:144]                            28,224                              conv2d_52   |                   -28,224(-100.0%)      
------ ------------------------------------------------------ ------------------------------ ----------------- ----------- -------------------------------------- --- ----------------- --------------------- ----------------------------- 
53     pad_53 (Pad, PAD)                                      [b:1,h:15,h:15,w:15,c:144]                                                                 nl_52_nl   | +1,872(+100.0%)   +63,648(+100.0%)      conv2d_oi8[64]                
------ ------------------------------------------------------ ------------------------------ ----------------- ----------- -------------------------------------- --- ----------------- --------------------- ----------------------------- 
54     conv2d_54 (Conv2D, DEPTHWISE_CONV_2D)                  [b:1,h:7,h:7,w:7,c:144]        1,440/1,872            63,648                                 pad_53   | -1,872(-100.0%)   -63,648(-100.0%)      pad_oi8[63]                   
       nl_54_nl (Nonlinearity, DEPTHWISE_CONV_2D)             [b:1,h:7,h:7,w:7,c:144]                                7,056                              conv2d_54   |                   -7,056(-100.0%)       
------ ------------------------------------------------------ ------------------------------ ----------------- ----------- -------------------------------------- --- ----------------- --------------------- ----------------------------- 
55     conv2d_55 (Conv2D, CONV_2D)                            [b:1,h:7,h:7,w:7,c:40]         5,800/5,920           282,280                               nl_54_nl   |                                         conv2d_oi8[65]                
------ ------------------------------------------------------ ------------------------------ ----------------- ----------- -------------------------------------- --- ----------------- --------------------- ----------------------------- 
56     conv2d_56 (Conv2D, CONV_2D)                            [b:1,h:7,h:7,w:7,c:240]        9,840/10,560          470,640                              conv2d_55   |                                         conv2d_oi8[66]                
       nl_56_nl (Nonlinearity, CONV_2D)                       [b:1,h:7,h:7,w:7,c:240]                               11,760                              conv2d_56   |                   -11,760(-100.0%)      
------ ------------------------------------------------------ ------------------------------ ----------------- ----------- -------------------------------------- --- ----------------- --------------------- ----------------------------- 
57     conv2d_57 (Conv2D, DEPTHWISE_CONV_2D)                  [b:1,h:7,h:7,w:7,c:240]        2,400/3,120           106,080                               nl_56_nl   |                                         pad_oi8/conv2d_oi8[67, 68]    
       nl_57_nl (Nonlinearity, DEPTHWISE_CONV_2D)             [b:1,h:7,h:7,w:7,c:240]                               11,760                              conv2d_57   |                   -11,760(-100.0%)      
------ ------------------------------------------------------ ------------------------------ ----------------- ----------- -------------------------------------- --- ----------------- --------------------- ----------------------------- 
58     conv2d_58 (Conv2D, CONV_2D)                            [b:1,h:7,h:7,w:7,c:40]         9,640/9,760           470,440                               nl_57_nl   |                                         conv2d_oi8[69]                
------ ------------------------------------------------------ ------------------------------ ----------------- ----------- -------------------------------------- --- ----------------- --------------------- ----------------------------- 
59     eltwise_59 (Eltwise, ADD)                              [b:1,h:7,h:7,w:7,c:40]                                 1,960                              conv2d_55   |                                         eltwise_integer/sum_oi8[70]   
                                                                                                                                                        conv2d_58   | 
------ ------------------------------------------------------ ------------------------------ ----------------- ----------- -------------------------------------- --- ----------------- --------------------- ----------------------------- 
60     conv2d_60 (Conv2D, CONV_2D)                            [b:1,h:7,h:7,w:7,c:240]        9,840/10,560          470,640                             eltwise_59   |                                         conv2d_oi8[71]                
       nl_60_nl (Nonlinearity, CONV_2D)                       [b:1,h:7,h:7,w:7,c:240]                               11,760                              conv2d_60   |                   -11,760(-100.0%)      
------ ------------------------------------------------------ ------------------------------ ----------------- ----------- -------------------------------------- --- ----------------- --------------------- ----------------------------- 
61     conv2d_61 (Conv2D, DEPTHWISE_CONV_2D)                  [b:1,h:7,h:7,w:7,c:240]        2,400/3,120           106,080                               nl_60_nl   |                                         pad_oi8/conv2d_oi8[72, 73]    
       nl_61_nl (Nonlinearity, DEPTHWISE_CONV_2D)             [b:1,h:7,h:7,w:7,c:240]                               11,760                              conv2d_61   |                   -11,760(-100.0%)      
------ ------------------------------------------------------ ------------------------------ ----------------- ----------- -------------------------------------- --- ----------------- --------------------- ----------------------------- 
62     conv2d_62 (Conv2D, CONV_2D)                            [b:1,h:7,h:7,w:7,c:40]         9,640/9,760           470,440                               nl_61_nl   |                                         conv2d_oi8[74]                
------ ------------------------------------------------------ ------------------------------ ----------------- ----------- -------------------------------------- --- ----------------- --------------------- ----------------------------- 
63     eltwise_63 (Eltwise, ADD)                              [b:1,h:7,h:7,w:7,c:40]                                 1,960                             eltwise_59   |                                         eltwise_integer/sum_oi8[75]   
                                                                                                                                                        conv2d_62   | 
------ ------------------------------------------------------ ------------------------------ ----------------- ----------- -------------------------------------- --- ----------------- --------------------- ----------------------------- 
64     conv2d_64 (Conv2D, CONV_2D)                            [b:1,h:7,h:7,w:7,c:240]        9,840/10,560          470,640                             eltwise_63   |                                         conv2d_oi8[76]                
       nl_64_nl (Nonlinearity, CONV_2D)                       [b:1,h:7,h:7,w:7,c:240]                               11,760                              conv2d_64   |                   -11,760(-100.0%)      
------ ------------------------------------------------------ ------------------------------ ----------------- ----------- -------------------------------------- --- ----------------- --------------------- ----------------------------- 
65     conv2d_65 (Conv2D, DEPTHWISE_CONV_2D)                  [b:1,h:7,h:7,w:7,c:240]        2,400/3,120           106,080                               nl_64_nl   |                                         pad_oi8/conv2d_oi8[77, 78]    
       nl_65_nl (Nonlinearity, DEPTHWISE_CONV_2D)             [b:1,h:7,h:7,w:7,c:240]                               11,760                              conv2d_65   |                   -11,760(-100.0%)      
------ ------------------------------------------------------ ------------------------------ ----------------- ----------- -------------------------------------- --- ----------------- --------------------- ----------------------------- 
66     conv2d_66 (Conv2D, CONV_2D)                            [b:1,h:7,h:7,w:7,c:80]         19,280/19,520         940,880                               nl_65_nl   |                                         conv2d_oi8[79]                
------ ------------------------------------------------------ ------------------------------ ----------------- ----------- -------------------------------------- --- ----------------- --------------------- ----------------------------- 
67     conv2d_67 (Conv2D, CONV_2D)                            [b:1,h:7,h:7,w:7,c:1280]       103,680/107,520     5,018,880                              conv2d_66   |                                         conv2d_oi8[80]                
       nl_67_nl (Nonlinearity, CONV_2D)                       [b:1,h:7,h:7,w:7,c:1280]                              62,720                              conv2d_67   |                   -62,720(-100.0%)      
------ ------------------------------------------------------ ------------------------------ ----------------- ----------- -------------------------------------- --- ----------------- --------------------- ----------------------------- 
68     pool_68 (Pool, MEAN)                                   [b:1,h:1,h:1,w:1,c:1280]                              62,720                               nl_67_nl   |                                         pool_oi8[81]                  
       reshape_68_reshape (Reshape, MEAN)                     [b:1,c:1280]                                                                                pool_68   |                                         
------ ------------------------------------------------------ ------------------------------ ----------------- ----------- -------------------------------------- --- ----------------- --------------------- ----------------------------- 
69     mobilenet_v2_alpha_0_25_dense_MatMul (Placeholder, )   [h:5,h:5,c:1280]               6,400/6,400                                                            | +20(+0.3%)        +6,405(+100.0%)       dense_oi8[82]                 
       dense_bias (Placeholder, )                             [c:5]                          5/20                                                                   | -20(-100.0%)                            
       gemm_69 (Gemm, FULLY_CONNECTED)                        [b:1,c:5]                                              6,405                     reshape_68_reshape   |                   -6,405(-100.0%)       
                                                                                                                             mobilenet_v2_alpha_0_25_dense_MatMul   | 
                                                                                                                                                       dense_bias   | 
------ ------------------------------------------------------ ------------------------------ ----------------- ----------- -------------------------------------- --- ----------------- --------------------- ----------------------------- 
70     nl_70 (Nonlinearity, SOFTMAX)                          [b:1,c:5]                                                 75                                gemm_69   |                                         nl_oi8[83]                    
------ ------------------------------------------------------ ------------------------------ ----------------- ----------- -------------------------------------- --- ----------------- --------------------- ----------------------------- 
71     conversion_71 (Conversion, DEQUANTIZE)                 [b:1,c:5]                                                 10                                  nl_70   |                                         converter_of32[o][84]         
------ ------------------------------------------------------ ------------------------------ ----------------- ----------- -------------------------------------- --- ----------------- --------------------- ----------------------------- 
model/c-model: macc=38,529,738/36,457,626 -2,072,112(-5.4%) weights=255,188/255,188  activations=--/621,488 io=--/0



Generated C-graph summary
------------------------------------------------------------------------------------------------------------------------
model name            : quantized_model
c-name                : network
c-node #              : 85
c-array #             : 281
activations size      : 621488 (1 segment)
weights size          : 255188 (1 segment)
macc                  : 36457626
inputs                : ['serving_default_input_10_output']
outputs               : ['conversion_71_output']

C-Arrays (281)
------ --------------------------------- --------------- ------------------------- --------------- --------------- --------- 
c_id   name (*_array)                    item/size       domain/mem-pool           c-type          fmt             comment   
------ --------------------------------- --------------- ------------------------- --------------- --------------- --------- 
0      conv2d_34_pad_before_output       24576/24576     activations/**default**   int8_t          sa8                       
1      conv2d_34_output                  18816/18816     activations/**default**   int8_t          sa8                       
2      conv2d_35_output                  3136/3136       activations/**default**   int8_t          sa8                       
3      conv2d_17_scratch0                512/512         activations/**default**   int8_t          s8                        
4      eltwise_36_output                 3136/3136       activations/**default**   int8_t          sa8                       
5      conv2d_37_output                  18816/18816     activations/**default**   int8_t          sa8                       
6      conv2d_17_scratch1                37632/37632     activations/**default**   int8_t          sa8                       
7      conv2d_38_pad_before_output       24576/24576     activations/**default**   int8_t          sa8                       
8      conv2d_38_output                  18816/18816     activations/**default**   int8_t          sa8                       
9      conv2d_39_output                  3136/3136       activations/**default**   int8_t          sa8                       
10     conv2d_18_scratch0                1777/1777       activations/**default**   int8_t          s8                        
11     eltwise_40_output                 3136/3136       activations/**default**   int8_t          sa8                       
12     conv2d_41_output                  18816/18816     activations/**default**   int8_t          sa8                       
13     conv2d_18_scratch1                37632/37632     activations/**default**   int8_t          sa8                       
14     conv2d_42_pad_before_output       24576/24576     activations/**default**   int8_t          sa8                       
15     conv2d_42_output                  18816/18816     activations/**default**   int8_t          sa8                       
16     conv2d_43_output                  4704/4704       activations/**default**   int8_t          sa8                       
17     conv2d_19_scratch0                272/272         activations/**default**   int8_t          s8                        
18     conv2d_44_output                  28224/28224     activations/**default**   int8_t          sa8                       
19     conv2d_45_pad_before_output       36864/36864     activations/**default**   int8_t          sa8                       
20     conv2d_45_output                  28224/28224     activations/**default**   int8_t          sa8                       
21     conv2d_21_scratch0                512/512         activations/**default**   int8_t          s8                        
22     conv2d_46_output                  4704/4704       activations/**default**   int8_t          sa8                       
23     eltwise_47_output                 4704/4704       activations/**default**   int8_t          sa8                       
24     conv2d_21_scratch1                37632/37632     activations/**default**   int8_t          sa8                       
25     conv2d_48_output                  28224/28224     activations/**default**   int8_t          sa8                       
26     conv2d_49_pad_before_output       36864/36864     activations/**default**   int8_t          sa8                       
27     conv2d_49_output                  28224/28224     activations/**default**   int8_t          sa8                       
28     conv2d_22_scratch0                1777/1777       activations/**default**   int8_t          s8                        
29     conv2d_50_output                  4704/4704       activations/**default**   int8_t          sa8                       
30     eltwise_51_output                 4704/4704       activations/**default**   int8_t          sa8                       
31     conv2d_22_scratch1                37632/37632     activations/**default**   int8_t          sa8                       
32     conv2d_52_output                  28224/28224     activations/**default**   int8_t          sa8                       
33     conv2d_54_pad_before_output       32400/32400     activations/**default**   int8_t          sa8                       
34     conv2d_54_output                  7056/7056       activations/**default**   int8_t          sa8                       
35     conv2d_23_scratch0                272/272         activations/**default**   int8_t          s8                        
36     conv2d_55_output                  1960/1960       activations/**default**   int8_t          sa8                       
37     conv2d_56_output                  11760/11760     activations/**default**   int8_t          sa8                       
38     conv2d_57_pad_before_output       19440/19440     activations/**default**   int8_t          sa8                       
39     conv2d_25_scratch0                512/512         activations/**default**   int8_t          s8                        
40     conv2d_57_output                  11760/11760     activations/**default**   int8_t          sa8                       
41     conv2d_58_output                  1960/1960       activations/**default**   int8_t          sa8                       
42     conv2d_25_scratch1                37632/37632     activations/**default**   int8_t          sa8                       
43     eltwise_59_output                 1960/1960       activations/**default**   int8_t          sa8                       
44     conv2d_60_output                  11760/11760     activations/**default**   int8_t          sa8                       
45     conv2d_61_pad_before_output       19440/19440     activations/**default**   int8_t          sa8                       
46     conv2d_27_scratch0                1777/1777       activations/**default**   int8_t          s8                        
47     conv2d_61_output                  11760/11760     activations/**default**   int8_t          sa8                       
48     conv2d_62_output                  1960/1960       activations/**default**   int8_t          sa8                       
49     conv2d_27_scratch1                9408/9408       activations/**default**   int8_t          sa8                       
50     eltwise_63_output                 1960/1960       activations/**default**   int8_t          sa8                       
51     conv2d_64_output                  11760/11760     activations/**default**   int8_t          sa8                       
52     conv2d_65_pad_before_output       19440/19440     activations/**default**   int8_t          sa8                       
53     conv2d_28_scratch0                352/352         activations/**default**   int8_t          s8                        
54     conv2d_65_output                  11760/11760     activations/**default**   int8_t          sa8                       
55     conv2d_66_output                  3920/3920       activations/**default**   int8_t          sa8                       
56     conv2d_67_output                  62720/62720     activations/**default**   int8_t          sa8                       
57     conv2d_29_scratch0                1024/1024       activations/**default**   int8_t          s8                        
58     pool_68_output                    1280/1280       activations/**default**   int8_t          sa8                       
59     gemm_69_output                    5/5             activations/**default**   int8_t          sa8                       
60     conv2d_29_scratch1                18816/18816     activations/**default**   int8_t          sa8                       
61     nl_70_output                      5/5             activations/**default**   int8_t          sa8                       
62     conversion_71_output              5/20            activations/**default**   float           float32         /output   
63     conv2d_1_weights                  216/216         weights/weights           const int8_t    ss8/ch(8)                 
64     conv2d_30_scratch0                3553/3553       activations/**default**   int8_t          s8                        
65     conv2d_1_bias                     8/32            weights/weights           const int32_t   ss32/ch(8)                
66     conv2d_30_scratch1                18816/18816     activations/**default**   int8_t          sa8                       
67     conv2d_2_weights                  72/72           weights/weights           const int8_t    ss8/ch(8)                 
68     conv2d_2_bias                     8/32            weights/weights           const int32_t   ss32/ch(8)                
69     conv2d_31_scratch0                544/544         activations/**default**   int8_t          s8                        
70     conv2d_3_weights                  64/64           weights/weights           const int8_t    ss8/ch(8)                 
71     conv2d_3_bias                     8/32            weights/weights           const int32_t   ss32/ch(8)                
72     conv2d_33_scratch0                1024/1024       activations/**default**   int8_t          s8                        
73     conv2d_5_weights                  384/384         weights/weights           const int8_t    ss8/ch(48)                
74     conv2d_5_bias                     48/192          weights/weights           const int32_t   ss32/ch(48)               
75     conv2d_33_scratch1                18816/18816     activations/**default**   int8_t          sa8                       
76     conv2d_7_weights                  432/432         weights/weights           const int8_t    ss8/ch(48)                
77     conv2d_7_bias                     48/192          weights/weights           const int32_t   ss32/ch(48)               
78     conv2d_34_scratch0                3553/3553       activations/**default**   int8_t          s8                        
79     conv2d_8_weights                  384/384         weights/weights           const int8_t    ss8/ch(8)                 
80     conv2d_34_scratch1                18816/18816     activations/**default**   int8_t          sa8                       
81     conv2d_8_bias                     8/32            weights/weights           const int32_t   ss32/ch(8)                
82     conv2d_9_weights                  384/384         weights/weights           const int8_t    ss8/ch(48)                
83     conv2d_35_scratch0                544/544         activations/**default**   int8_t          s8                        
84     conv2d_9_bias                     48/192          weights/weights           const int32_t   ss32/ch(48)               
85     conv2d_10_weights                 432/432         weights/weights           const int8_t    ss8/ch(48)                
86     conv2d_37_scratch0                1024/1024       activations/**default**   int8_t          s8                        
87     conv2d_10_bias                    48/192          weights/weights           const int32_t   ss32/ch(48)               
88     conv2d_37_scratch1                18816/18816     activations/**default**   int8_t          sa8                       
89     conv2d_11_weights                 384/384         weights/weights           const int8_t    ss8/ch(8)                 
90     conv2d_11_bias                    8/32            weights/weights           const int32_t   ss32/ch(8)                
91     conv2d_38_scratch0                3553/3553       activations/**default**   int8_t          s8                        
92     conv2d_13_weights                 384/384         weights/weights           const int8_t    ss8/ch(48)                
93     conv2d_13_bias                    48/192          weights/weights           const int32_t   ss32/ch(48)               
94     conv2d_38_scratch1                18816/18816     activations/**default**   int8_t          sa8                       
95     conv2d_15_weights                 432/432         weights/weights           const int8_t    ss8/ch(48)                
96     conv2d_15_bias                    48/192          weights/weights           const int32_t   ss32/ch(48)               
97     conv2d_39_scratch0                544/544         activations/**default**   int8_t          s8                        
98     conv2d_16_weights                 384/384         weights/weights           const int8_t    ss8/ch(8)                 
99     conv2d_16_bias                    8/32            weights/weights           const int32_t   ss32/ch(8)                
100    conv2d_41_scratch0                1024/1024       activations/**default**   int8_t          s8                        
101    conv2d_17_weights                 384/384         weights/weights           const int8_t    ss8/ch(48)                
102    conv2d_41_scratch1                18816/18816     activations/**default**   int8_t          sa8                       
103    conv2d_17_bias                    48/192          weights/weights           const int32_t   ss32/ch(48)               
104    conv2d_18_weights                 432/432         weights/weights           const int8_t    ss8/ch(48)                
105    conv2d_42_scratch0                3553/3553       activations/**default**   int8_t          s8                        
106    conv2d_18_bias                    48/192          weights/weights           const int32_t   ss32/ch(48)               
107    conv2d_42_scratch1                18816/18816     activations/**default**   int8_t          sa8                       
108    conv2d_19_weights                 384/384         weights/weights           const int8_t    ss8/ch(8)                 
109    conv2d_19_bias                    8/32            weights/weights           const int32_t   ss32/ch(8)                
110    conv2d_43_scratch0                624/624         activations/**default**   int8_t          s8                        
111    conv2d_21_weights                 384/384         weights/weights           const int8_t    ss8/ch(48)                
112    conv2d_21_bias                    48/192          weights/weights           const int32_t   ss32/ch(48)               
113    conv2d_44_scratch0                1536/1536       activations/**default**   int8_t          s8                        
114    conv2d_22_weights                 432/432         weights/weights           const int8_t    ss8/ch(48)                
115    conv2d_22_bias                    48/192          weights/weights           const int32_t   ss32/ch(48)               
116    conv2d_44_scratch1                28224/28224     activations/**default**   int8_t          sa8                       
117    conv2d_23_weights                 384/384         weights/weights           const int8_t    ss8/ch(8)                 
118    conv2d_23_bias                    8/32            weights/weights           const int32_t   ss32/ch(8)                
119    conv2d_45_scratch0                5329/5329       activations/**default**   int8_t          s8                        
120    conv2d_25_weights                 384/384         weights/weights           const int8_t    ss8/ch(48)                
121    conv2d_45_scratch1                28224/28224     activations/**default**   int8_t          sa8                       
122    conv2d_25_bias                    48/192          weights/weights           const int32_t   ss32/ch(48)               
123    conv2d_27_weights                 432/432         weights/weights           const int8_t    ss8/ch(48)                
124    conv2d_46_scratch0                816/816         activations/**default**   int8_t          s8                        
125    conv2d_27_bias                    48/192          weights/weights           const int32_t   ss32/ch(48)               
126    conv2d_28_weights                 768/768         weights/weights           const int8_t    ss8/ch(16)                
127    conv2d_48_scratch0                1536/1536       activations/**default**   int8_t          s8                        
128    conv2d_28_bias                    16/64           weights/weights           const int32_t   ss32/ch(16)               
129    conv2d_48_scratch1                28224/28224     activations/**default**   int8_t          sa8                       
130    conv2d_29_weights                 1536/1536       weights/weights           const int8_t    ss8/ch(96)                
131    conv2d_29_bias                    96/384          weights/weights           const int32_t   ss32/ch(96)               
132    conv2d_49_scratch0                5329/5329       activations/**default**   int8_t          s8                        
133    conv2d_30_weights                 864/864         weights/weights           const int8_t    ss8/ch(96)                
134    conv2d_30_bias                    96/384          weights/weights           const int32_t   ss32/ch(96)               
135    conv2d_49_scratch1                28224/28224     activations/**default**   int8_t          sa8                       
136    conv2d_31_weights                 1536/1536       weights/weights           const int8_t    ss8/ch(16)                
137    conv2d_31_bias                    16/64           weights/weights           const int32_t   ss32/ch(16)               
138    conv2d_50_scratch0                816/816         activations/**default**   int8_t          s8                        
139    conv2d_33_weights                 1536/1536       weights/weights           const int8_t    ss8/ch(96)                
140    conv2d_33_bias                    96/384          weights/weights           const int32_t   ss32/ch(96)               
141    conv2d_52_scratch0                1536/1536       activations/**default**   int8_t          s8                        
142    conv2d_34_weights                 864/864         weights/weights           const int8_t    ss8/ch(96)                
143    conv2d_52_scratch1                28224/28224     activations/**default**   int8_t          sa8                       
144    conv2d_34_bias                    96/384          weights/weights           const int32_t   ss32/ch(96)               
145    conv2d_35_weights                 1536/1536       weights/weights           const int8_t    ss8/ch(16)                
146    conv2d_54_scratch0                5329/5329       activations/**default**   int8_t          s8                        
147    conv2d_35_bias                    16/64           weights/weights           const int32_t   ss32/ch(16)               
148    conv2d_54_scratch1                7056/7056       activations/**default**   int8_t          sa8                       
149    conv2d_37_weights                 1536/1536       weights/weights           const int8_t    ss8/ch(96)                
150    conv2d_37_bias                    96/384          weights/weights           const int32_t   ss32/ch(96)               
151    conv2d_55_scratch0                976/976         activations/**default**   int8_t          s8                        
152    conv2d_38_weights                 864/864         weights/weights           const int8_t    ss8/ch(96)                
153    conv2d_38_bias                    96/384          weights/weights           const int32_t   ss32/ch(96)               
154    conv2d_56_scratch0                2560/2560       activations/**default**   int8_t          s8                        
155    conv2d_39_weights                 1536/1536       weights/weights           const int8_t    ss8/ch(16)                
156    conv2d_39_bias                    16/64           weights/weights           const int32_t   ss32/ch(16)               
157    conv2d_56_scratch1                11760/11760     activations/**default**   int8_t          sa8                       
158    conv2d_41_weights                 1536/1536       weights/weights           const int8_t    ss8/ch(96)                
159    conv2d_41_bias                    96/384          weights/weights           const int32_t   ss32/ch(96)               
160    conv2d_57_scratch0                8881/8881       activations/**default**   int8_t          s8                        
161    conv2d_42_weights                 864/864         weights/weights           const int8_t    ss8/ch(96)                
162    conv2d_57_scratch1                11760/11760     activations/**default**   int8_t          sa8                       
163    conv2d_42_bias                    96/384          weights/weights           const int32_t   ss32/ch(96)               
164    conv2d_43_weights                 2304/2304       weights/weights           const int8_t    ss8/ch(24)                
165    conv2d_58_scratch0                1360/1360       activations/**default**   int8_t          s8                        
166    conv2d_43_bias                    24/96           weights/weights           const int32_t   ss32/ch(24)               
167    conv2d_44_weights                 3456/3456       weights/weights           const int8_t    ss8/ch(144)               
168    conv2d_60_scratch0                2560/2560       activations/**default**   int8_t          s8                        
169    conv2d_44_bias                    144/576         weights/weights           const int32_t   ss32/ch(144)              
170    conv2d_60_scratch1                11760/11760     activations/**default**   int8_t          sa8                       
171    conv2d_45_weights                 1296/1296       weights/weights           const int8_t    ss8/ch(144)               
172    conv2d_45_bias                    144/576         weights/weights           const int32_t   ss32/ch(144)              
173    conv2d_61_scratch0                8881/8881       activations/**default**   int8_t          s8                        
174    conv2d_46_weights                 3456/3456       weights/weights           const int8_t    ss8/ch(24)                
175    conv2d_46_bias                    24/96           weights/weights           const int32_t   ss32/ch(24)               
176    conv2d_61_scratch1                11760/11760     activations/**default**   int8_t          sa8                       
177    conv2d_48_weights                 3456/3456       weights/weights           const int8_t    ss8/ch(144)               
178    conv2d_48_bias                    144/576         weights/weights           const int32_t   ss32/ch(144)              
179    conv2d_62_scratch0                1360/1360       activations/**default**   int8_t          s8                        
180    conv2d_49_weights                 1296/1296       weights/weights           const int8_t    ss8/ch(144)               
181    conv2d_49_bias                    144/576         weights/weights           const int32_t   ss32/ch(144)              
182    conv2d_64_scratch0                2560/2560       activations/**default**   int8_t          s8                        
183    conv2d_50_weights                 3456/3456       weights/weights           const int8_t    ss8/ch(24)                
184    conv2d_64_scratch1                11760/11760     activations/**default**   int8_t          sa8                       
185    conv2d_50_bias                    24/96           weights/weights           const int32_t   ss32/ch(24)               
186    conv2d_52_weights                 3456/3456       weights/weights           const int8_t    ss8/ch(144)               
187    conv2d_65_scratch0                8881/8881       activations/**default**   int8_t          s8                        
188    conv2d_52_bias                    144/576         weights/weights           const int32_t   ss32/ch(144)              
189    conv2d_65_scratch1                11760/11760     activations/**default**   int8_t          sa8                       
190    conv2d_54_weights                 1296/1296       weights/weights           const int8_t    ss8/ch(144)               
191    conv2d_54_bias                    144/576         weights/weights           const int32_t   ss32/ch(144)              
192    conv2d_66_scratch0                1760/1760       activations/**default**   int8_t          s8                        
193    conv2d_55_weights                 5760/5760       weights/weights           const int8_t    ss8/ch(40)                
194    conv2d_55_bias                    40/160          weights/weights           const int32_t   ss32/ch(40)               
195    conv2d_67_scratch0                13120/13120     activations/**default**   int8_t          s8                        
196    conv2d_56_weights                 9600/9600       weights/weights           const int8_t    ss8/ch(240)               
197    conv2d_56_bias                    240/960         weights/weights           const int32_t   ss32/ch(240)              
198    conv2d_67_scratch1                62720/62720     activations/**default**   int8_t          sa8                       
199    conv2d_57_weights                 2160/2160       weights/weights           const int8_t    ss8/ch(240)               
200    conv2d_57_bias                    240/960         weights/weights           const int32_t   ss32/ch(240)              
201    gemm_69_scratch0                  1280/2560       activations/**default**   int16_t         s16                       
202    conv2d_58_weights                 9600/9600       weights/weights           const int8_t    ss8/ch(40)                
203    conv2d_58_bias                    40/160          weights/weights           const int32_t   ss32/ch(40)               
204    nl_70_scratch0                    5/20            activations/**default**   int32_t         s32                       
205    conv2d_60_weights                 9600/9600       weights/weights           const int8_t    ss8/ch(240)               
206    conv2d_60_bias                    240/960         weights/weights           const int32_t   ss32/ch(240)              
207    conv2d_61_weights                 2160/2160       weights/weights           const int8_t    ss8/ch(240)               
208    conv2d_61_bias                    240/960         weights/weights           const int32_t   ss32/ch(240)              
209    conv2d_62_weights                 9600/9600       weights/weights           const int8_t    ss8/ch(40)                
210    conv2d_62_bias                    40/160          weights/weights           const int32_t   ss32/ch(40)               
211    conv2d_64_weights                 9600/9600       weights/weights           const int8_t    ss8/ch(240)               
212    conv2d_64_bias                    240/960         weights/weights           const int32_t   ss32/ch(240)              
213    conv2d_65_weights                 2160/2160       weights/weights           const int8_t    ss8/ch(240)               
214    conv2d_65_bias                    240/960         weights/weights           const int32_t   ss32/ch(240)              
215    conv2d_66_weights                 19200/19200     weights/weights           const int8_t    ss8/ch(80)                
216    conv2d_66_bias                    80/320          weights/weights           const int32_t   ss32/ch(80)               
217    conv2d_67_weights                 102400/102400   weights/weights           const int8_t    ss8/ch(1280)              
218    conv2d_67_bias                    1280/5120       weights/weights           const int32_t   ss32/ch(1280)             
219    gemm_69_weights                   6400/6400       weights/weights           const int8_t    ss8                       
220    gemm_69_bias                      5/20            weights/weights           const int32_t   ss32                      
221    conv2d_1_scratch0                 652/652         activations/**default**   int8_t          s8                        
222    conv2d_1_scratch1                 100352/100352   activations/**default**   int8_t          sa8                       
223    conv2d_2_scratch0                 297/297         activations/**default**   int8_t          s8                        
224    conv2d_2_scratch1                 100352/100352   activations/**default**   int8_t          sa8                       
225    serving_default_input_10_output   150528/150528   activations/**default**   uint8_t         ua8             /input    
226    conv2d_3_scratch0                 112/112         activations/**default**   int8_t          s8                        
227    conversion_0_output               150528/150529   activations/**default**   int8_t          sa8                       
228    conv2d_1_output                   100352/100352   activations/**default**   int8_t          sa8                       
229    conv2d_2_pad_before_output        103968/103968   activations/**default**   int8_t          sa8                       
230    conv2d_5_scratch0                 512/512         activations/**default**   int8_t          s8                        
231    conv2d_2_output                   100352/100352   activations/**default**   int8_t          sa8                       
232    conv2d_3_output                   100352/100352   activations/**default**   int8_t          sa8                       
233    conv2d_5_scratch1                 602112/602112   activations/**default**   int8_t          sa8                       
234    eltwise_4_output                  100352/100352   activations/**default**   int8_t          ss8                       
235    conv2d_5_output                   602112/602112   activations/**default**   int8_t          sa8                       
236    conv2d_7_pad_before_output        612912/612912   activations/**default**   int8_t          sa8                       
237    conv2d_7_scratch0                 1777/1777       activations/**default**   int8_t          s8                        
238    conv2d_7_output                   150528/150528   activations/**default**   int8_t          sa8                       
239    conv2d_8_output                   25088/25088     activations/**default**   int8_t          sa8                       
240    conv2d_7_scratch1                 150528/150528   activations/**default**   int8_t          sa8                       
241    conv2d_9_output                   150528/150528   activations/**default**   int8_t          sa8                       
242    conv2d_10_pad_before_output       161472/161472   activations/**default**   int8_t          sa8                       
243    conv2d_10_output                  150528/150528   activations/**default**   int8_t          sa8                       
244    conv2d_8_scratch0                 272/272         activations/**default**   int8_t          s8                        
245    conv2d_11_output                  25088/25088     activations/**default**   int8_t          sa8                       
246    eltwise_12_output                 25088/25088     activations/**default**   int8_t          sa8                       
247    conv2d_13_output                  150528/150528   activations/**default**   int8_t          sa8                       
248    conv2d_9_scratch0                 512/512         activations/**default**   int8_t          s8                        
249    conv2d_15_pad_before_output       155952/155952   activations/**default**   int8_t          sa8                       
250    conv2d_15_output                  37632/37632     activations/**default**   int8_t          sa8                       
251    conv2d_9_scratch1                 150528/150528   activations/**default**   int8_t          sa8                       
252    conv2d_16_output                  6272/6272       activations/**default**   int8_t          sa8                       
253    conv2d_17_output                  37632/37632     activations/**default**   int8_t          sa8                       
254    conv2d_18_pad_before_output       43200/43200     activations/**default**   int8_t          sa8                       
255    conv2d_10_scratch0                1777/1777       activations/**default**   int8_t          s8                        
256    conv2d_18_output                  37632/37632     activations/**default**   int8_t          sa8                       
257    conv2d_19_output                  6272/6272       activations/**default**   int8_t          sa8                       
258    conv2d_10_scratch1                150528/150528   activations/**default**   int8_t          sa8                       
259    eltwise_20_output                 6272/6272       activations/**default**   int8_t          sa8                       
260    conv2d_21_output                  37632/37632     activations/**default**   int8_t          sa8                       
261    conv2d_22_pad_before_output       43200/43200     activations/**default**   int8_t          sa8                       
262    conv2d_11_scratch0                272/272         activations/**default**   int8_t          s8                        
263    conv2d_22_output                  37632/37632     activations/**default**   int8_t          sa8                       
264    conv2d_23_output                  6272/6272       activations/**default**   int8_t          ss8                       
265    eltwise_24_output                 6272/6272       activations/**default**   int8_t          sa8                       
266    conv2d_13_scratch0                512/512         activations/**default**   int8_t          s8                        
267    conv2d_25_output                  37632/37632     activations/**default**   int8_t          sa8                       
268    conv2d_27_pad_before_output       40368/40368     activations/**default**   int8_t          sa8                       
269    conv2d_13_scratch1                150528/150528   activations/**default**   int8_t          sa8                       
270    conv2d_27_output                  9408/9408       activations/**default**   int8_t          sa8                       
271    conv2d_28_output                  3136/3136       activations/**default**   int8_t          sa8                       
272    conv2d_29_output                  18816/18816     activations/**default**   int8_t          sa8                       
273    conv2d_15_scratch0                1777/1777       activations/**default**   int8_t          s8                        
274    conv2d_30_pad_before_output       24576/24576     activations/**default**   int8_t          sa8                       
275    conv2d_30_output                  18816/18816     activations/**default**   int8_t          sa8                       
276    conv2d_15_scratch1                37632/37632     activations/**default**   int8_t          sa8                       
277    conv2d_31_output                  3136/3136       activations/**default**   int8_t          sa8                       
278    eltwise_32_output                 3136/3136       activations/**default**   int8_t          sa8                       
279    conv2d_33_output                  18816/18816     activations/**default**   int8_t          sa8                       
280    conv2d_16_scratch0                272/272         activations/**default**   int8_t          s8                        
------ --------------------------------- --------------- ------------------------- --------------- --------------- --------- 

C-Layers (85)
------ ---------------------- ---- ---------------------- --------- -------- ------------------------------------ ---------------------- 
c_id   name (*_layer)         id   layer_type             macc      rom      tensors                              shape (array id)       
------ ---------------------- ---- ---------------------- --------- -------- ------------------------------------ ---------------------- 
0      conversion_0           0    converter              301056    0        I: serving_default_input_10_output   (1,224,224,3) (225)    
                                                                             O: conversion_0_output               (1,224,224,3) (227)    
------ ---------------------- ---- ---------------------- --------- -------- ------------------------------------ ---------------------- 
1      conv2d_1               1    optimized_conv2d       2709512   248      I: conversion_0_output               (1,224,224,3) (227)    
                                                                             S: conv2d_1_scratch0                                        
                                                                             S: conv2d_1_scratch1                                        
                                                                             W: conv2d_1_weights                  (3,3,3,8) (63)         
                                                                             W: conv2d_1_bias                     (8,) (65)              
                                                                             O: conv2d_1_output                   (1,112,112,8) (228)    
------ ---------------------- ---- ---------------------- --------- -------- ------------------------------------ ---------------------- 
2      conv2d_2_pad_before    2    pad                    0         0        I: conv2d_1_output                   (1,112,112,8) (228)    
                                                                             O: conv2d_2_pad_before_output        (1,114,114,8) (229)    
------ ---------------------- ---- ---------------------- --------- -------- ------------------------------------ ---------------------- 
3      conv2d_2               2    conv2d                 903176    104      I: conv2d_2_pad_before_output        (1,114,114,8) (229)    
                                                                             S: conv2d_2_scratch0                                        
                                                                             S: conv2d_2_scratch1                                        
                                                                             W: conv2d_2_weights                  (8,3,3,1) (67)         
                                                                             W: conv2d_2_bias                     (8,) (68)              
                                                                             O: conv2d_2_output                   (1,112,112,8) (231)    
------ ---------------------- ---- ---------------------- --------- -------- ------------------------------------ ---------------------- 
4      conv2d_3               3    conv2d                 802824    96       I: conv2d_2_output                   (1,112,112,8) (231)    
                                                                             S: conv2d_3_scratch0                                        
                                                                             W: conv2d_3_weights                  (8,1,1,8) (70)         
                                                                             W: conv2d_3_bias                     (8,) (71)              
                                                                             O: conv2d_3_output                   (1,112,112,8) (232)    
------ ---------------------- ---- ---------------------- --------- -------- ------------------------------------ ---------------------- 
5      eltwise_4              4    eltwise_integer/sum    100352    0        I: conv2d_1_output                   (1,112,112,8) (228)    
                                                                             I: conv2d_3_output                   (1,112,112,8) (232)    
                                                                             O: eltwise_4_output                  (1,112,112,8) (234)    
------ ---------------------- ---- ---------------------- --------- -------- ------------------------------------ ---------------------- 
6      conv2d_5               5    conv2d                 4816944   576      I: eltwise_4_output                  (1,112,112,8) (234)    
                                                                             S: conv2d_5_scratch0                                        
                                                                             S: conv2d_5_scratch1                                        
                                                                             W: conv2d_5_weights                  (8,1,1,48) (73)        
                                                                             W: conv2d_5_bias                     (48,) (74)             
                                                                             O: conv2d_5_output                   (1,112,112,48) (235)   
------ ---------------------- ---- ---------------------- --------- -------- ------------------------------------ ---------------------- 
7      conv2d_7_pad_before    7    pad                    0         0        I: conv2d_5_output                   (1,112,112,48) (235)   
                                                                             O: conv2d_7_pad_before_output        (1,113,113,48) (236)   
------ ---------------------- ---- ---------------------- --------- -------- ------------------------------------ ---------------------- 
8      conv2d_7               6    conv2d                 1354800   624      I: conv2d_7_pad_before_output        (1,113,113,48) (236)   
                                                                             S: conv2d_7_scratch0                                        
                                                                             S: conv2d_7_scratch1                                        
                                                                             W: conv2d_7_weights                  (48,3,3,1) (76)        
                                                                             W: conv2d_7_bias                     (48,) (77)             
                                                                             O: conv2d_7_output                   (1,56,56,48) (238)     
------ ---------------------- ---- ---------------------- --------- -------- ------------------------------------ ---------------------- 
9      conv2d_8               8    conv2d                 1204232   416      I: conv2d_7_output                   (1,56,56,48) (238)     
                                                                             S: conv2d_8_scratch0                                        
                                                                             W: conv2d_8_weights                  (48,1,1,8) (79)        
                                                                             W: conv2d_8_bias                     (8,) (81)              
                                                                             O: conv2d_8_output                   (1,56,56,8) (239)      
------ ---------------------- ---- ---------------------- --------- -------- ------------------------------------ ---------------------- 
10     conv2d_9               9    conv2d                 1204272   576      I: conv2d_8_output                   (1,56,56,8) (239)      
                                                                             S: conv2d_9_scratch0                                        
                                                                             S: conv2d_9_scratch1                                        
                                                                             W: conv2d_9_weights                  (8,1,1,48) (82)        
                                                                             W: conv2d_9_bias                     (48,) (84)             
                                                                             O: conv2d_9_output                   (1,56,56,48) (241)     
------ ---------------------- ---- ---------------------- --------- -------- ------------------------------------ ---------------------- 
11     conv2d_10_pad_before   10   pad                    0         0        I: conv2d_9_output                   (1,56,56,48) (241)     
                                                                             O: conv2d_10_pad_before_output       (1,58,58,48) (242)     
------ ---------------------- ---- ---------------------- --------- -------- ------------------------------------ ---------------------- 
12     conv2d_10              10   conv2d                 1354800   624      I: conv2d_10_pad_before_output       (1,58,58,48) (242)     
                                                                             S: conv2d_10_scratch0                                       
                                                                             S: conv2d_10_scratch1                                       
                                                                             W: conv2d_10_weights                 (48,3,3,1) (85)        
                                                                             W: conv2d_10_bias                    (48,) (87)             
                                                                             O: conv2d_10_output                  (1,56,56,48) (243)     
------ ---------------------- ---- ---------------------- --------- -------- ------------------------------------ ---------------------- 
13     conv2d_11              11   conv2d                 1204232   416      I: conv2d_10_output                  (1,56,56,48) (243)     
                                                                             S: conv2d_11_scratch0                                       
                                                                             W: conv2d_11_weights                 (48,1,1,8) (89)        
                                                                             W: conv2d_11_bias                    (8,) (90)              
                                                                             O: conv2d_11_output                  (1,56,56,8) (245)      
------ ---------------------- ---- ---------------------- --------- -------- ------------------------------------ ---------------------- 
14     eltwise_12             12   eltwise_integer/sum    25088     0        I: conv2d_8_output                   (1,56,56,8) (239)      
                                                                             I: conv2d_11_output                  (1,56,56,8) (245)      
                                                                             O: eltwise_12_output                 (1,56,56,8) (246)      
------ ---------------------- ---- ---------------------- --------- -------- ------------------------------------ ---------------------- 
15     conv2d_13              13   conv2d                 1204272   576      I: eltwise_12_output                 (1,56,56,8) (246)      
                                                                             S: conv2d_13_scratch0                                       
                                                                             S: conv2d_13_scratch1                                       
                                                                             W: conv2d_13_weights                 (8,1,1,48) (92)        
                                                                             W: conv2d_13_bias                    (48,) (93)             
                                                                             O: conv2d_13_output                  (1,56,56,48) (247)     
------ ---------------------- ---- ---------------------- --------- -------- ------------------------------------ ---------------------- 
16     conv2d_15_pad_before   15   pad                    0         0        I: conv2d_13_output                  (1,56,56,48) (247)     
                                                                             O: conv2d_15_pad_before_output       (1,57,57,48) (249)     
------ ---------------------- ---- ---------------------- --------- -------- ------------------------------------ ---------------------- 
17     conv2d_15              14   conv2d                 338736    624      I: conv2d_15_pad_before_output       (1,57,57,48) (249)     
                                                                             S: conv2d_15_scratch0                                       
                                                                             S: conv2d_15_scratch1                                       
                                                                             W: conv2d_15_weights                 (48,3,3,1) (95)        
                                                                             W: conv2d_15_bias                    (48,) (96)             
                                                                             O: conv2d_15_output                  (1,28,28,48) (250)     
------ ---------------------- ---- ---------------------- --------- -------- ------------------------------------ ---------------------- 
18     conv2d_16              16   conv2d                 301064    416      I: conv2d_15_output                  (1,28,28,48) (250)     
                                                                             S: conv2d_16_scratch0                                       
                                                                             W: conv2d_16_weights                 (48,1,1,8) (98)        
                                                                             W: conv2d_16_bias                    (8,) (99)              
                                                                             O: conv2d_16_output                  (1,28,28,8) (252)      
------ ---------------------- ---- ---------------------- --------- -------- ------------------------------------ ---------------------- 
19     conv2d_17              17   conv2d                 301104    576      I: conv2d_16_output                  (1,28,28,8) (252)      
                                                                             S: conv2d_17_scratch0                                       
                                                                             S: conv2d_17_scratch1                                       
                                                                             W: conv2d_17_weights                 (8,1,1,48) (101)       
                                                                             W: conv2d_17_bias                    (48,) (103)            
                                                                             O: conv2d_17_output                  (1,28,28,48) (253)     
------ ---------------------- ---- ---------------------- --------- -------- ------------------------------------ ---------------------- 
20     conv2d_18_pad_before   18   pad                    0         0        I: conv2d_17_output                  (1,28,28,48) (253)     
                                                                             O: conv2d_18_pad_before_output       (1,30,30,48) (254)     
------ ---------------------- ---- ---------------------- --------- -------- ------------------------------------ ---------------------- 
21     conv2d_18              18   conv2d                 338736    624      I: conv2d_18_pad_before_output       (1,30,30,48) (254)     
                                                                             S: conv2d_18_scratch0                                       
                                                                             S: conv2d_18_scratch1                                       
                                                                             W: conv2d_18_weights                 (48,3,3,1) (104)       
                                                                             W: conv2d_18_bias                    (48,) (106)            
                                                                             O: conv2d_18_output                  (1,28,28,48) (256)     
------ ---------------------- ---- ---------------------- --------- -------- ------------------------------------ ---------------------- 
22     conv2d_19              19   conv2d                 301064    416      I: conv2d_18_output                  (1,28,28,48) (256)     
                                                                             S: conv2d_19_scratch0                                       
                                                                             W: conv2d_19_weights                 (48,1,1,8) (108)       
                                                                             W: conv2d_19_bias                    (8,) (109)             
                                                                             O: conv2d_19_output                  (1,28,28,8) (257)      
------ ---------------------- ---- ---------------------- --------- -------- ------------------------------------ ---------------------- 
23     eltwise_20             20   eltwise_integer/sum    6272      0        I: conv2d_16_output                  (1,28,28,8) (252)      
                                                                             I: conv2d_19_output                  (1,28,28,8) (257)      
                                                                             O: eltwise_20_output                 (1,28,28,8) (259)      
------ ---------------------- ---- ---------------------- --------- -------- ------------------------------------ ---------------------- 
24     conv2d_21              21   conv2d                 301104    576      I: eltwise_20_output                 (1,28,28,8) (259)      
                                                                             S: conv2d_21_scratch0                                       
                                                                             S: conv2d_21_scratch1                                       
                                                                             W: conv2d_21_weights                 (8,1,1,48) (111)       
                                                                             W: conv2d_21_bias                    (48,) (112)            
                                                                             O: conv2d_21_output                  (1,28,28,48) (260)     
------ ---------------------- ---- ---------------------- --------- -------- ------------------------------------ ---------------------- 
25     conv2d_22_pad_before   22   pad                    0         0        I: conv2d_21_output                  (1,28,28,48) (260)     
                                                                             O: conv2d_22_pad_before_output       (1,30,30,48) (261)     
------ ---------------------- ---- ---------------------- --------- -------- ------------------------------------ ---------------------- 
26     conv2d_22              22   conv2d                 338736    624      I: conv2d_22_pad_before_output       (1,30,30,48) (261)     
                                                                             S: conv2d_22_scratch0                                       
                                                                             S: conv2d_22_scratch1                                       
                                                                             W: conv2d_22_weights                 (48,3,3,1) (114)       
                                                                             W: conv2d_22_bias                    (48,) (115)            
                                                                             O: conv2d_22_output                  (1,28,28,48) (263)     
------ ---------------------- ---- ---------------------- --------- -------- ------------------------------------ ---------------------- 
27     conv2d_23              23   conv2d                 301064    416      I: conv2d_22_output                  (1,28,28,48) (263)     
                                                                             S: conv2d_23_scratch0                                       
                                                                             W: conv2d_23_weights                 (48,1,1,8) (117)       
                                                                             W: conv2d_23_bias                    (8,) (118)             
                                                                             O: conv2d_23_output                  (1,28,28,8) (264)      
------ ---------------------- ---- ---------------------- --------- -------- ------------------------------------ ---------------------- 
28     eltwise_24             24   eltwise_integer/sum    6272      0        I: eltwise_20_output                 (1,28,28,8) (259)      
                                                                             I: conv2d_23_output                  (1,28,28,8) (264)      
                                                                             O: eltwise_24_output                 (1,28,28,8) (265)      
------ ---------------------- ---- ---------------------- --------- -------- ------------------------------------ ---------------------- 
29     conv2d_25              25   conv2d                 301104    576      I: eltwise_24_output                 (1,28,28,8) (265)      
                                                                             S: conv2d_25_scratch0                                       
                                                                             S: conv2d_25_scratch1                                       
                                                                             W: conv2d_25_weights                 (8,1,1,48) (120)       
                                                                             W: conv2d_25_bias                    (48,) (122)            
                                                                             O: conv2d_25_output                  (1,28,28,48) (267)     
------ ---------------------- ---- ---------------------- --------- -------- ------------------------------------ ---------------------- 
30     conv2d_27_pad_before   27   pad                    0         0        I: conv2d_25_output                  (1,28,28,48) (267)     
                                                                             O: conv2d_27_pad_before_output       (1,29,29,48) (268)     
------ ---------------------- ---- ---------------------- --------- -------- ------------------------------------ ---------------------- 
31     conv2d_27              26   conv2d                 84720     624      I: conv2d_27_pad_before_output       (1,29,29,48) (268)     
                                                                             S: conv2d_27_scratch0                                       
                                                                             S: conv2d_27_scratch1                                       
                                                                             W: conv2d_27_weights                 (48,3,3,1) (123)       
                                                                             W: conv2d_27_bias                    (48,) (125)            
                                                                             O: conv2d_27_output                  (1,14,14,48) (270)     
------ ---------------------- ---- ---------------------- --------- -------- ------------------------------------ ---------------------- 
32     conv2d_28              28   conv2d                 150544    832      I: conv2d_27_output                  (1,14,14,48) (270)     
                                                                             S: conv2d_28_scratch0                                       
                                                                             W: conv2d_28_weights                 (48,1,1,16) (126)      
                                                                             W: conv2d_28_bias                    (16,) (128)            
                                                                             O: conv2d_28_output                  (1,14,14,16) (271)     
------ ---------------------- ---- ---------------------- --------- -------- ------------------------------------ ---------------------- 
33     conv2d_29              29   conv2d                 301152    1920     I: conv2d_28_output                  (1,14,14,16) (271)     
                                                                             S: conv2d_29_scratch0                                       
                                                                             S: conv2d_29_scratch1                                       
                                                                             W: conv2d_29_weights                 (16,1,1,96) (130)      
                                                                             W: conv2d_29_bias                    (96,) (131)            
                                                                             O: conv2d_29_output                  (1,14,14,96) (272)     
------ ---------------------- ---- ---------------------- --------- -------- ------------------------------------ ---------------------- 
34     conv2d_30_pad_before   30   pad                    0         0        I: conv2d_29_output                  (1,14,14,96) (272)     
                                                                             O: conv2d_30_pad_before_output       (1,16,16,96) (274)     
------ ---------------------- ---- ---------------------- --------- -------- ------------------------------------ ---------------------- 
35     conv2d_30              30   conv2d                 169440    1248     I: conv2d_30_pad_before_output       (1,16,16,96) (274)     
                                                                             S: conv2d_30_scratch0                                       
                                                                             S: conv2d_30_scratch1                                       
                                                                             W: conv2d_30_weights                 (96,3,3,1) (133)       
                                                                             W: conv2d_30_bias                    (96,) (134)            
                                                                             O: conv2d_30_output                  (1,14,14,96) (275)     
------ ---------------------- ---- ---------------------- --------- -------- ------------------------------------ ---------------------- 
36     conv2d_31              31   conv2d                 301072    1600     I: conv2d_30_output                  (1,14,14,96) (275)     
                                                                             S: conv2d_31_scratch0                                       
                                                                             W: conv2d_31_weights                 (96,1,1,16) (136)      
                                                                             W: conv2d_31_bias                    (16,) (137)            
                                                                             O: conv2d_31_output                  (1,14,14,16) (277)     
------ ---------------------- ---- ---------------------- --------- -------- ------------------------------------ ---------------------- 
37     eltwise_32             32   eltwise_integer/sum    3136      0        I: conv2d_28_output                  (1,14,14,16) (271)     
                                                                             I: conv2d_31_output                  (1,14,14,16) (277)     
                                                                             O: eltwise_32_output                 (1,14,14,16) (278)     
------ ---------------------- ---- ---------------------- --------- -------- ------------------------------------ ---------------------- 
38     conv2d_33              33   conv2d                 301152    1920     I: eltwise_32_output                 (1,14,14,16) (278)     
                                                                             S: conv2d_33_scratch0                                       
                                                                             S: conv2d_33_scratch1                                       
                                                                             W: conv2d_33_weights                 (16,1,1,96) (139)      
                                                                             W: conv2d_33_bias                    (96,) (140)            
                                                                             O: conv2d_33_output                  (1,14,14,96) (279)     
------ ---------------------- ---- ---------------------- --------- -------- ------------------------------------ ---------------------- 
39     conv2d_34_pad_before   34   pad                    0         0        I: conv2d_33_output                  (1,14,14,96) (279)     
                                                                             O: conv2d_34_pad_before_output       (1,16,16,96) (0)       
------ ---------------------- ---- ---------------------- --------- -------- ------------------------------------ ---------------------- 
40     conv2d_34              34   conv2d                 169440    1248     I: conv2d_34_pad_before_output       (1,16,16,96) (0)       
                                                                             S: conv2d_34_scratch0                                       
                                                                             S: conv2d_34_scratch1                                       
                                                                             W: conv2d_34_weights                 (96,3,3,1) (142)       
                                                                             W: conv2d_34_bias                    (96,) (144)            
                                                                             O: conv2d_34_output                  (1,14,14,96) (1)       
------ ---------------------- ---- ---------------------- --------- -------- ------------------------------------ ---------------------- 
41     conv2d_35              35   conv2d                 301072    1600     I: conv2d_34_output                  (1,14,14,96) (1)       
                                                                             S: conv2d_35_scratch0                                       
                                                                             W: conv2d_35_weights                 (96,1,1,16) (145)      
                                                                             W: conv2d_35_bias                    (16,) (147)            
                                                                             O: conv2d_35_output                  (1,14,14,16) (2)       
------ ---------------------- ---- ---------------------- --------- -------- ------------------------------------ ---------------------- 
42     eltwise_36             36   eltwise_integer/sum    3136      0        I: eltwise_32_output                 (1,14,14,16) (278)     
                                                                             I: conv2d_35_output                  (1,14,14,16) (2)       
                                                                             O: eltwise_36_output                 (1,14,14,16) (4)       
------ ---------------------- ---- ---------------------- --------- -------- ------------------------------------ ---------------------- 
43     conv2d_37              37   conv2d                 301152    1920     I: eltwise_36_output                 (1,14,14,16) (4)       
                                                                             S: conv2d_37_scratch0                                       
                                                                             S: conv2d_37_scratch1                                       
                                                                             W: conv2d_37_weights                 (16,1,1,96) (149)      
                                                                             W: conv2d_37_bias                    (96,) (150)            
                                                                             O: conv2d_37_output                  (1,14,14,96) (5)       
------ ---------------------- ---- ---------------------- --------- -------- ------------------------------------ ---------------------- 
44     conv2d_38_pad_before   38   pad                    0         0        I: conv2d_37_output                  (1,14,14,96) (5)       
                                                                             O: conv2d_38_pad_before_output       (1,16,16,96) (7)       
------ ---------------------- ---- ---------------------- --------- -------- ------------------------------------ ---------------------- 
45     conv2d_38              38   conv2d                 169440    1248     I: conv2d_38_pad_before_output       (1,16,16,96) (7)       
                                                                             S: conv2d_38_scratch0                                       
                                                                             S: conv2d_38_scratch1                                       
                                                                             W: conv2d_38_weights                 (96,3,3,1) (152)       
                                                                             W: conv2d_38_bias                    (96,) (153)            
                                                                             O: conv2d_38_output                  (1,14,14,96) (8)       
------ ---------------------- ---- ---------------------- --------- -------- ------------------------------------ ---------------------- 
46     conv2d_39              39   conv2d                 301072    1600     I: conv2d_38_output                  (1,14,14,96) (8)       
                                                                             S: conv2d_39_scratch0                                       
                                                                             W: conv2d_39_weights                 (96,1,1,16) (155)      
                                                                             W: conv2d_39_bias                    (16,) (156)            
                                                                             O: conv2d_39_output                  (1,14,14,16) (9)       
------ ---------------------- ---- ---------------------- --------- -------- ------------------------------------ ---------------------- 
47     eltwise_40             40   eltwise_integer/sum    3136      0        I: eltwise_36_output                 (1,14,14,16) (4)       
                                                                             I: conv2d_39_output                  (1,14,14,16) (9)       
                                                                             O: eltwise_40_output                 (1,14,14,16) (11)      
------ ---------------------- ---- ---------------------- --------- -------- ------------------------------------ ---------------------- 
48     conv2d_41              41   conv2d                 301152    1920     I: eltwise_40_output                 (1,14,14,16) (11)      
                                                                             S: conv2d_41_scratch0                                       
                                                                             S: conv2d_41_scratch1                                       
                                                                             W: conv2d_41_weights                 (16,1,1,96) (158)      
                                                                             W: conv2d_41_bias                    (96,) (159)            
                                                                             O: conv2d_41_output                  (1,14,14,96) (12)      
------ ---------------------- ---- ---------------------- --------- -------- ------------------------------------ ---------------------- 
49     conv2d_42_pad_before   42   pad                    0         0        I: conv2d_41_output                  (1,14,14,96) (12)      
                                                                             O: conv2d_42_pad_before_output       (1,16,16,96) (14)      
------ ---------------------- ---- ---------------------- --------- -------- ------------------------------------ ---------------------- 
50     conv2d_42              42   conv2d                 169440    1248     I: conv2d_42_pad_before_output       (1,16,16,96) (14)      
                                                                             S: conv2d_42_scratch0                                       
                                                                             S: conv2d_42_scratch1                                       
                                                                             W: conv2d_42_weights                 (96,3,3,1) (161)       
                                                                             W: conv2d_42_bias                    (96,) (163)            
                                                                             O: conv2d_42_output                  (1,14,14,96) (15)      
------ ---------------------- ---- ---------------------- --------- -------- ------------------------------------ ---------------------- 
51     conv2d_43              43   conv2d                 451608    2400     I: conv2d_42_output                  (1,14,14,96) (15)      
                                                                             S: conv2d_43_scratch0                                       
                                                                             W: conv2d_43_weights                 (96,1,1,24) (164)      
                                                                             W: conv2d_43_bias                    (24,) (166)            
                                                                             O: conv2d_43_output                  (1,14,14,24) (16)      
------ ---------------------- ---- ---------------------- --------- -------- ------------------------------------ ---------------------- 
52     conv2d_44              44   conv2d                 677520    4032     I: conv2d_43_output                  (1,14,14,24) (16)      
                                                                             S: conv2d_44_scratch0                                       
                                                                             S: conv2d_44_scratch1                                       
                                                                             W: conv2d_44_weights                 (24,1,1,144) (167)     
                                                                             W: conv2d_44_bias                    (144,) (169)           
                                                                             O: conv2d_44_output                  (1,14,14,144) (18)     
------ ---------------------- ---- ---------------------- --------- -------- ------------------------------------ ---------------------- 
53     conv2d_45_pad_before   45   pad                    0         0        I: conv2d_44_output                  (1,14,14,144) (18)     
                                                                             O: conv2d_45_pad_before_output       (1,16,16,144) (19)     
------ ---------------------- ---- ---------------------- --------- -------- ------------------------------------ ---------------------- 
54     conv2d_45              45   conv2d                 254160    1872     I: conv2d_45_pad_before_output       (1,16,16,144) (19)     
                                                                             S: conv2d_45_scratch0                                       
                                                                             S: conv2d_45_scratch1                                       
                                                                             W: conv2d_45_weights                 (144,3,3,1) (171)      
                                                                             W: conv2d_45_bias                    (144,) (172)           
                                                                             O: conv2d_45_output                  (1,14,14,144) (20)     
------ ---------------------- ---- ---------------------- --------- -------- ------------------------------------ ---------------------- 
55     conv2d_46              46   conv2d                 677400    3552     I: conv2d_45_output                  (1,14,14,144) (20)     
                                                                             S: conv2d_46_scratch0                                       
                                                                             W: conv2d_46_weights                 (144,1,1,24) (174)     
                                                                             W: conv2d_46_bias                    (24,) (175)            
                                                                             O: conv2d_46_output                  (1,14,14,24) (22)      
------ ---------------------- ---- ---------------------- --------- -------- ------------------------------------ ---------------------- 
56     eltwise_47             47   eltwise_integer/sum    4704      0        I: conv2d_43_output                  (1,14,14,24) (16)      
                                                                             I: conv2d_46_output                  (1,14,14,24) (22)      
                                                                             O: eltwise_47_output                 (1,14,14,24) (23)      
------ ---------------------- ---- ---------------------- --------- -------- ------------------------------------ ---------------------- 
57     conv2d_48              48   conv2d                 677520    4032     I: eltwise_47_output                 (1,14,14,24) (23)      
                                                                             S: conv2d_48_scratch0                                       
                                                                             S: conv2d_48_scratch1                                       
                                                                             W: conv2d_48_weights                 (24,1,1,144) (177)     
                                                                             W: conv2d_48_bias                    (144,) (178)           
                                                                             O: conv2d_48_output                  (1,14,14,144) (25)     
------ ---------------------- ---- ---------------------- --------- -------- ------------------------------------ ---------------------- 
58     conv2d_49_pad_before   49   pad                    0         0        I: conv2d_48_output                  (1,14,14,144) (25)     
                                                                             O: conv2d_49_pad_before_output       (1,16,16,144) (26)     
------ ---------------------- ---- ---------------------- --------- -------- ------------------------------------ ---------------------- 
59     conv2d_49              49   conv2d                 254160    1872     I: conv2d_49_pad_before_output       (1,16,16,144) (26)     
                                                                             S: conv2d_49_scratch0                                       
                                                                             S: conv2d_49_scratch1                                       
                                                                             W: conv2d_49_weights                 (144,3,3,1) (180)      
                                                                             W: conv2d_49_bias                    (144,) (181)           
                                                                             O: conv2d_49_output                  (1,14,14,144) (27)     
------ ---------------------- ---- ---------------------- --------- -------- ------------------------------------ ---------------------- 
60     conv2d_50              50   conv2d                 677400    3552     I: conv2d_49_output                  (1,14,14,144) (27)     
                                                                             S: conv2d_50_scratch0                                       
                                                                             W: conv2d_50_weights                 (144,1,1,24) (183)     
                                                                             W: conv2d_50_bias                    (24,) (185)            
                                                                             O: conv2d_50_output                  (1,14,14,24) (29)      
------ ---------------------- ---- ---------------------- --------- -------- ------------------------------------ ---------------------- 
61     eltwise_51             51   eltwise_integer/sum    4704      0        I: eltwise_47_output                 (1,14,14,24) (23)      
                                                                             I: conv2d_50_output                  (1,14,14,24) (29)      
                                                                             O: eltwise_51_output                 (1,14,14,24) (30)      
------ ---------------------- ---- ---------------------- --------- -------- ------------------------------------ ---------------------- 
62     conv2d_52              52   conv2d                 677520    4032     I: eltwise_51_output                 (1,14,14,24) (30)      
                                                                             S: conv2d_52_scratch0                                       
                                                                             S: conv2d_52_scratch1                                       
                                                                             W: conv2d_52_weights                 (24,1,1,144) (186)     
                                                                             W: conv2d_52_bias                    (144,) (188)           
                                                                             O: conv2d_52_output                  (1,14,14,144) (32)     
------ ---------------------- ---- ---------------------- --------- -------- ------------------------------------ ---------------------- 
63     conv2d_54_pad_before   54   pad                    0         0        I: conv2d_52_output                  (1,14,14,144) (32)     
                                                                             O: conv2d_54_pad_before_output       (1,15,15,144) (33)     
------ ---------------------- ---- ---------------------- --------- -------- ------------------------------------ ---------------------- 
64     conv2d_54              53   conv2d                 63648     1872     I: conv2d_54_pad_before_output       (1,15,15,144) (33)     
                                                                             S: conv2d_54_scratch0                                       
                                                                             S: conv2d_54_scratch1                                       
                                                                             W: conv2d_54_weights                 (144,3,3,1) (190)      
                                                                             W: conv2d_54_bias                    (144,) (191)           
                                                                             O: conv2d_54_output                  (1,7,7,144) (34)       
------ ---------------------- ---- ---------------------- --------- -------- ------------------------------------ ---------------------- 
65     conv2d_55              55   conv2d                 282280    5920     I: conv2d_54_output                  (1,7,7,144) (34)       
                                                                             S: conv2d_55_scratch0                                       
                                                                             W: conv2d_55_weights                 (144,1,1,40) (193)     
                                                                             W: conv2d_55_bias                    (40,) (194)            
                                                                             O: conv2d_55_output                  (1,7,7,40) (36)        
------ ---------------------- ---- ---------------------- --------- -------- ------------------------------------ ---------------------- 
66     conv2d_56              56   conv2d                 470640    10560    I: conv2d_55_output                  (1,7,7,40) (36)        
                                                                             S: conv2d_56_scratch0                                       
                                                                             S: conv2d_56_scratch1                                       
                                                                             W: conv2d_56_weights                 (40,1,1,240) (196)     
                                                                             W: conv2d_56_bias                    (240,) (197)           
                                                                             O: conv2d_56_output                  (1,7,7,240) (37)       
------ ---------------------- ---- ---------------------- --------- -------- ------------------------------------ ---------------------- 
67     conv2d_57_pad_before   57   pad                    0         0        I: conv2d_56_output                  (1,7,7,240) (37)       
                                                                             O: conv2d_57_pad_before_output       (1,9,9,240) (38)       
------ ---------------------- ---- ---------------------- --------- -------- ------------------------------------ ---------------------- 
68     conv2d_57              57   conv2d                 106080    3120     I: conv2d_57_pad_before_output       (1,9,9,240) (38)       
                                                                             S: conv2d_57_scratch0                                       
                                                                             S: conv2d_57_scratch1                                       
                                                                             W: conv2d_57_weights                 (240,3,3,1) (199)      
                                                                             W: conv2d_57_bias                    (240,) (200)           
                                                                             O: conv2d_57_output                  (1,7,7,240) (40)       
------ ---------------------- ---- ---------------------- --------- -------- ------------------------------------ ---------------------- 
69     conv2d_58              58   conv2d                 470440    9760     I: conv2d_57_output                  (1,7,7,240) (40)       
                                                                             S: conv2d_58_scratch0                                       
                                                                             W: conv2d_58_weights                 (240,1,1,40) (202)     
                                                                             W: conv2d_58_bias                    (40,) (203)            
                                                                             O: conv2d_58_output                  (1,7,7,40) (41)        
------ ---------------------- ---- ---------------------- --------- -------- ------------------------------------ ---------------------- 
70     eltwise_59             59   eltwise_integer/sum    1960      0        I: conv2d_55_output                  (1,7,7,40) (36)        
                                                                             I: conv2d_58_output                  (1,7,7,40) (41)        
                                                                             O: eltwise_59_output                 (1,7,7,40) (43)        
------ ---------------------- ---- ---------------------- --------- -------- ------------------------------------ ---------------------- 
71     conv2d_60              60   conv2d                 470640    10560    I: eltwise_59_output                 (1,7,7,40) (43)        
                                                                             S: conv2d_60_scratch0                                       
                                                                             S: conv2d_60_scratch1                                       
                                                                             W: conv2d_60_weights                 (40,1,1,240) (205)     
                                                                             W: conv2d_60_bias                    (240,) (206)           
                                                                             O: conv2d_60_output                  (1,7,7,240) (44)       
------ ---------------------- ---- ---------------------- --------- -------- ------------------------------------ ---------------------- 
72     conv2d_61_pad_before   61   pad                    0         0        I: conv2d_60_output                  (1,7,7,240) (44)       
                                                                             O: conv2d_61_pad_before_output       (1,9,9,240) (45)       
------ ---------------------- ---- ---------------------- --------- -------- ------------------------------------ ---------------------- 
73     conv2d_61              61   conv2d                 106080    3120     I: conv2d_61_pad_before_output       (1,9,9,240) (45)       
                                                                             S: conv2d_61_scratch0                                       
                                                                             S: conv2d_61_scratch1                                       
                                                                             W: conv2d_61_weights                 (240,3,3,1) (207)      
                                                                             W: conv2d_61_bias                    (240,) (208)           
                                                                             O: conv2d_61_output                  (1,7,7,240) (47)       
------ ---------------------- ---- ---------------------- --------- -------- ------------------------------------ ---------------------- 
74     conv2d_62              62   conv2d                 470440    9760     I: conv2d_61_output                  (1,7,7,240) (47)       
                                                                             S: conv2d_62_scratch0                                       
                                                                             W: conv2d_62_weights                 (240,1,1,40) (209)     
                                                                             W: conv2d_62_bias                    (40,) (210)            
                                                                             O: conv2d_62_output                  (1,7,7,40) (48)        
------ ---------------------- ---- ---------------------- --------- -------- ------------------------------------ ---------------------- 
75     eltwise_63             63   eltwise_integer/sum    1960      0        I: eltwise_59_output                 (1,7,7,40) (43)        
                                                                             I: conv2d_62_output                  (1,7,7,40) (48)        
                                                                             O: eltwise_63_output                 (1,7,7,40) (50)        
------ ---------------------- ---- ---------------------- --------- -------- ------------------------------------ ---------------------- 
76     conv2d_64              64   conv2d                 470640    10560    I: eltwise_63_output                 (1,7,7,40) (50)        
                                                                             S: conv2d_64_scratch0                                       
                                                                             S: conv2d_64_scratch1                                       
                                                                             W: conv2d_64_weights                 (40,1,1,240) (211)     
                                                                             W: conv2d_64_bias                    (240,) (212)           
                                                                             O: conv2d_64_output                  (1,7,7,240) (51)       
------ ---------------------- ---- ---------------------- --------- -------- ------------------------------------ ---------------------- 
77     conv2d_65_pad_before   65   pad                    0         0        I: conv2d_64_output                  (1,7,7,240) (51)       
                                                                             O: conv2d_65_pad_before_output       (1,9,9,240) (52)       
------ ---------------------- ---- ---------------------- --------- -------- ------------------------------------ ---------------------- 
78     conv2d_65              65   conv2d                 106080    3120     I: conv2d_65_pad_before_output       (1,9,9,240) (52)       
                                                                             S: conv2d_65_scratch0                                       
                                                                             S: conv2d_65_scratch1                                       
                                                                             W: conv2d_65_weights                 (240,3,3,1) (213)      
                                                                             W: conv2d_65_bias                    (240,) (214)           
                                                                             O: conv2d_65_output                  (1,7,7,240) (54)       
------ ---------------------- ---- ---------------------- --------- -------- ------------------------------------ ---------------------- 
79     conv2d_66              66   conv2d                 940880    19520    I: conv2d_65_output                  (1,7,7,240) (54)       
                                                                             S: conv2d_66_scratch0                                       
                                                                             W: conv2d_66_weights                 (240,1,1,80) (215)     
                                                                             W: conv2d_66_bias                    (80,) (216)            
                                                                             O: conv2d_66_output                  (1,7,7,80) (55)        
------ ---------------------- ---- ---------------------- --------- -------- ------------------------------------ ---------------------- 
80     conv2d_67              67   conv2d                 5018880   107520   I: conv2d_66_output                  (1,7,7,80) (55)        
                                                                             S: conv2d_67_scratch0                                       
                                                                             S: conv2d_67_scratch1                                       
                                                                             W: conv2d_67_weights                 (80,1,1,1280) (217)    
                                                                             W: conv2d_67_bias                    (1280,) (218)          
                                                                             O: conv2d_67_output                  (1,7,7,1280) (56)      
------ ---------------------- ---- ---------------------- --------- -------- ------------------------------------ ---------------------- 
81     pool_68                68   pool                   62720     0        I: conv2d_67_output                  (1,7,7,1280) (56)      
                                                                             O: pool_68_output                    (1,1,1,1280) (58)      
------ ---------------------- ---- ---------------------- --------- -------- ------------------------------------ ---------------------- 
82     gemm_69                69   dense                  6405      6420     I: pool_68_output                    (1,1,1,1280) (58)      
                                                                             S: gemm_69_scratch0                                         
                                                                             W: gemm_69_weights                   (1280,5) (219)         
                                                                             W: gemm_69_bias                      (5,) (220)             
                                                                             O: gemm_69_output                    (1,5) (59)             
------ ---------------------- ---- ---------------------- --------- -------- ------------------------------------ ---------------------- 
83     nl_70                  70   nl                     75        0        I: gemm_69_output                    (1,5) (59)             
                                                                             S: nl_70_scratch0                                           
                                                                             O: nl_70_output                      (1,5) (61)             
------ ---------------------- ---- ---------------------- --------- -------- ------------------------------------ ---------------------- 
84     conversion_71          71   converter              10        0        I: nl_70_output                      (1,5) (61)             
                                                                             O: conversion_71_output              (1,5) (62)             
------ ---------------------- ---- ---------------------- --------- -------- ------------------------------------ ---------------------- 



Number of operations per c-layer
------- ------ ---------------------------------- ------------ ------------- --------- ---------- 
c_id    m_id   name (type)                                 #op          type    #param   sparsity 
------- ------ ---------------------------------- ------------ ------------- --------- ---------- 
0       0      conversion_0 (converter)                301,056    conv_u8_s8           
1       1      conv2d_1 (optimized_conv2d)           2,709,512    smul_s8_s8       224     0.0089 
2       2      conv2d_2_pad_before (pad)                     0    smul_s8_s8           
3       2      conv2d_2 (conv2d)                       903,176    smul_s8_s8        80     0.0125 
4       3      conv2d_3 (conv2d)                       802,824    smul_s8_s8        72     0.0000 
5       4      eltwise_4 (eltwise_integer/sum)         100,352      op_s8_s8           
6       5      conv2d_5 (conv2d)                     4,816,944    smul_s8_s8       432     0.0023 
7       7      conv2d_7_pad_before (pad)                     0    smul_s8_s8           
8       6      conv2d_7 (conv2d)                     1,354,800    smul_s8_s8       480     0.0021 
9       8      conv2d_8 (conv2d)                     1,204,232    smul_s8_s8       392     0.0077 
10      9      conv2d_9 (conv2d)                     1,204,272    smul_s8_s8       432     0.0023 
11      10     conv2d_10_pad_before (pad)                    0    smul_s8_s8           
12      10     conv2d_10 (conv2d)                    1,354,800    smul_s8_s8       480     0.0042 
13      11     conv2d_11 (conv2d)                    1,204,232    smul_s8_s8       392     0.0000 
14      12     eltwise_12 (eltwise_integer/sum)         25,088      op_s8_s8           
15      13     conv2d_13 (conv2d)                    1,204,272    smul_s8_s8       432     0.0093 
16      15     conv2d_15_pad_before (pad)                    0    smul_s8_s8           
17      14     conv2d_15 (conv2d)                      338,736    smul_s8_s8       480     0.0042 
18      16     conv2d_16 (conv2d)                      301,064    smul_s8_s8       392     0.0051 
19      17     conv2d_17 (conv2d)                      301,104    smul_s8_s8       432     0.0023 
20      18     conv2d_18_pad_before (pad)                    0    smul_s8_s8           
21      18     conv2d_18 (conv2d)                      338,736    smul_s8_s8       480     0.0021 
22      19     conv2d_19 (conv2d)                      301,064    smul_s8_s8       392     0.0026 
23      20     eltwise_20 (eltwise_integer/sum)          6,272      op_s8_s8           
24      21     conv2d_21 (conv2d)                      301,104    smul_s8_s8       432     0.0046 
25      22     conv2d_22_pad_before (pad)                    0    smul_s8_s8           
26      22     conv2d_22 (conv2d)                      338,736    smul_s8_s8       480     0.0000 
27      23     conv2d_23 (conv2d)                      301,064    smul_s8_s8       392     0.0077 
28      24     eltwise_24 (eltwise_integer/sum)          6,272      op_s8_s8           
29      25     conv2d_25 (conv2d)                      301,104    smul_s8_s8       432     0.0000 
30      27     conv2d_27_pad_before (pad)                    0    smul_s8_s8           
31      26     conv2d_27 (conv2d)                       84,720    smul_s8_s8       480     0.0125 
32      28     conv2d_28 (conv2d)                      150,544    smul_s8_s8       784     0.0064 
33      29     conv2d_29 (conv2d)                      301,152    smul_s8_s8     1,632     0.0043 
34      30     conv2d_30_pad_before (pad)                    0    smul_s8_s8           
35      30     conv2d_30 (conv2d)                      169,440    smul_s8_s8       960     0.0052 
36      31     conv2d_31 (conv2d)                      301,072    smul_s8_s8     1,552     0.0064 
37      32     eltwise_32 (eltwise_integer/sum)          3,136      op_s8_s8           
38      33     conv2d_33 (conv2d)                      301,152    smul_s8_s8     1,632     0.0067 
39      34     conv2d_34_pad_before (pad)                    0    smul_s8_s8           
40      34     conv2d_34 (conv2d)                      169,440    smul_s8_s8       960     0.0073 
41      35     conv2d_35 (conv2d)                      301,072    smul_s8_s8     1,552     0.0052 
42      36     eltwise_36 (eltwise_integer/sum)          3,136      op_s8_s8           
43      37     conv2d_37 (conv2d)                      301,152    smul_s8_s8     1,632     0.0037 
44      38     conv2d_38_pad_before (pad)                    0    smul_s8_s8           
45      38     conv2d_38 (conv2d)                      169,440    smul_s8_s8       960     0.0010 
46      39     conv2d_39 (conv2d)                      301,072    smul_s8_s8     1,552     0.0039 
47      40     eltwise_40 (eltwise_integer/sum)          3,136      op_s8_s8           
48      41     conv2d_41 (conv2d)                      301,152    smul_s8_s8     1,632     0.0055 
49      42     conv2d_42_pad_before (pad)                    0    smul_s8_s8           
50      42     conv2d_42 (conv2d)                      169,440    smul_s8_s8       960     0.0031 
51      43     conv2d_43 (conv2d)                      451,608    smul_s8_s8     2,328     0.0056 
52      44     conv2d_44 (conv2d)                      677,520    smul_s8_s8     3,600     0.0053 
53      45     conv2d_45_pad_before (pad)                    0    smul_s8_s8           
54      45     conv2d_45 (conv2d)                      254,160    smul_s8_s8     1,440     0.0042 
55      46     conv2d_46 (conv2d)                      677,400    smul_s8_s8     3,480     0.0083 
56      47     eltwise_47 (eltwise_integer/sum)          4,704      op_s8_s8           
57      48     conv2d_48 (conv2d)                      677,520    smul_s8_s8     3,600     0.0053 
58      49     conv2d_49_pad_before (pad)                    0    smul_s8_s8           
59      49     conv2d_49 (conv2d)                      254,160    smul_s8_s8     1,440     0.0056 
60      50     conv2d_50 (conv2d)                      677,400    smul_s8_s8     3,480     0.0072 
61      51     eltwise_51 (eltwise_integer/sum)          4,704      op_s8_s8           
62      52     conv2d_52 (conv2d)                      677,520    smul_s8_s8     3,600     0.0044 
63      54     conv2d_54_pad_before (pad)                    0    smul_s8_s8           
64      53     conv2d_54 (conv2d)                       63,648    smul_s8_s8     1,440     0.0028 
65      55     conv2d_55 (conv2d)                      282,280    smul_s8_s8     5,800     0.0062 
66      56     conv2d_56 (conv2d)                      470,640    smul_s8_s8     9,840     0.0047 
67      57     conv2d_57_pad_before (pad)                    0    smul_s8_s8           
68      57     conv2d_57 (conv2d)                      106,080    smul_s8_s8     2,400     0.0029 
69      58     conv2d_58 (conv2d)                      470,440    smul_s8_s8     9,640     0.0081 
70      59     eltwise_59 (eltwise_integer/sum)          1,960      op_s8_s8           
71      60     conv2d_60 (conv2d)                      470,640    smul_s8_s8     9,840     0.0064 
72      61     conv2d_61_pad_before (pad)                    0    smul_s8_s8           
73      61     conv2d_61 (conv2d)                      106,080    smul_s8_s8     2,400     0.0054 
74      62     conv2d_62 (conv2d)                      470,440    smul_s8_s8     9,640     0.0065 
75      63     eltwise_63 (eltwise_integer/sum)          1,960      op_s8_s8           
76      64     conv2d_64 (conv2d)                      470,640    smul_s8_s8     9,840     0.0049 
77      65     conv2d_65_pad_before (pad)                    0    smul_s8_s8           
78      65     conv2d_65 (conv2d)                      106,080    smul_s8_s8     2,400     0.0038 
79      66     conv2d_66 (conv2d)                      940,880    smul_s8_s8    19,280     0.0061 
80      67     conv2d_67 (conv2d)                    5,018,880    smul_s8_s8   103,680     0.0071 
81      68     pool_68 (pool)                           62,720      op_s8_s8           
82      69     gemm_69 (dense)                           6,405    smul_s8_s8     6,405     0.0158 
83      70     nl_70 (nl)                                   75      op_s8_s8           
84      71     conversion_71 (converter)                    10   conv_s8_f32           
------- ------ ---------------------------------- ------------ ------------- --------- ---------- 
total                                               36,457,626                 239,189     0.0065 

Number of operation types
---------------- ------------ ----------- 
operation type              #           % 
---------------- ------------ ----------- 
conv_u8_s8            301,056        0.8% 
smul_s8_s8         35,933,045       98.6% 
op_s8_s8              223,515        0.6% 
conv_s8_f32                10        0.0% 

Complexity report (model)
------ -------------------------------------- ------------------------- ------------------------- ---------- 
m_id   name                                   c_macc                    c_rom                     c_id       
------ -------------------------------------- ------------------------- ------------------------- ---------- 
0      serving_default_input_10               |                  0.8%   |                  0.0%   [0]        
1      conv2d_1                               |||||||||          7.4%   |                  0.1%   [1]        
2      conv2d_2                               |||                2.5%   |                  0.0%   [2, 3]     
3      conv2d_3                               |||                2.2%   |                  0.0%   [4]        
4      eltwise_4                              |                  0.3%   |                  0.0%   [5]        
5      conv2d_5                               |||||||||||||||   13.2%   |                  0.2%   [6]        
6      pad_6                                  |||||              3.7%   |                  0.2%   [8]        
7      conv2d_7                               |                  0.0%   |                  0.0%   [7]        
8      conv2d_8                               ||||               3.3%   |                  0.2%   [9]        
9      conv2d_9                               ||||               3.3%   |                  0.2%   [10]       
10     conv2d_10                              |||||              3.7%   |                  0.2%   [11, 12]   
11     conv2d_11                              ||||               3.3%   |                  0.2%   [13]       
12     eltwise_12                             |                  0.1%   |                  0.0%   [14]       
13     conv2d_13                              ||||               3.3%   |                  0.2%   [15]       
14     pad_14                                 ||                 0.9%   |                  0.2%   [17]       
15     conv2d_15                              |                  0.0%   |                  0.0%   [16]       
16     conv2d_16                              |                  0.8%   |                  0.2%   [18]       
17     conv2d_17                              |                  0.8%   |                  0.2%   [19]       
18     conv2d_18                              ||                 0.9%   |                  0.2%   [20, 21]   
19     conv2d_19                              |                  0.8%   |                  0.2%   [22]       
20     eltwise_20                             |                  0.0%   |                  0.0%   [23]       
21     conv2d_21                              |                  0.8%   |                  0.2%   [24]       
22     conv2d_22                              ||                 0.9%   |                  0.2%   [25, 26]   
23     conv2d_23                              |                  0.8%   |                  0.2%   [27]       
24     eltwise_24                             |                  0.0%   |                  0.0%   [28]       
25     conv2d_25                              |                  0.8%   |                  0.2%   [29]       
26     pad_26                                 |                  0.2%   |                  0.2%   [31]       
27     conv2d_27                              |                  0.0%   |                  0.0%   [30]       
28     conv2d_28                              |                  0.4%   |                  0.3%   [32]       
29     conv2d_29                              |                  0.8%   |                  0.8%   [33]       
30     conv2d_30                              |                  0.5%   |                  0.5%   [34, 35]   
31     conv2d_31                              |                  0.8%   |                  0.6%   [36]       
32     eltwise_32                             |                  0.0%   |                  0.0%   [37]       
33     conv2d_33                              |                  0.8%   |                  0.8%   [38]       
34     conv2d_34                              |                  0.5%   |                  0.5%   [39, 40]   
35     conv2d_35                              |                  0.8%   |                  0.6%   [41]       
36     eltwise_36                             |                  0.0%   |                  0.0%   [42]       
37     conv2d_37                              |                  0.8%   |                  0.8%   [43]       
38     conv2d_38                              |                  0.5%   |                  0.5%   [44, 45]   
39     conv2d_39                              |                  0.8%   |                  0.6%   [46]       
40     eltwise_40                             |                  0.0%   |                  0.0%   [47]       
41     conv2d_41                              |                  0.8%   |                  0.8%   [48]       
42     conv2d_42                              |                  0.5%   |                  0.5%   [49, 50]   
43     conv2d_43                              ||                 1.2%   |                  0.9%   [51]       
44     conv2d_44                              |||                1.9%   |                  1.6%   [52]       
45     conv2d_45                              |                  0.7%   |                  0.7%   [53, 54]   
46     conv2d_46                              |||                1.9%   |                  1.4%   [55]       
47     eltwise_47                             |                  0.0%   |                  0.0%   [56]       
48     conv2d_48                              |||                1.9%   |                  1.6%   [57]       
49     conv2d_49                              |                  0.7%   |                  0.7%   [58, 59]   
50     conv2d_50                              |||                1.9%   |                  1.4%   [60]       
51     eltwise_51                             |                  0.0%   |                  0.0%   [61]       
52     conv2d_52                              |||                1.9%   |                  1.6%   [62]       
53     pad_53                                 |                  0.2%   |                  0.7%   [64]       
54     conv2d_54                              |                  0.0%   |                  0.0%   [63]       
55     conv2d_55                              |                  0.8%   |                  2.3%   [65]       
56     conv2d_56                              ||                 1.3%   ||                 4.1%   [66]       
57     conv2d_57                              |                  0.3%   |                  1.2%   [67, 68]   
58     conv2d_58                              ||                 1.3%   ||                 3.8%   [69]       
59     eltwise_59                             |                  0.0%   |                  0.0%   [70]       
60     conv2d_60                              ||                 1.3%   ||                 4.1%   [71]       
61     conv2d_61                              |                  0.3%   |                  1.2%   [72, 73]   
62     conv2d_62                              ||                 1.3%   ||                 3.8%   [74]       
63     eltwise_63                             |                  0.0%   |                  0.0%   [75]       
64     conv2d_64                              ||                 1.3%   ||                 4.1%   [76]       
65     conv2d_65                              |                  0.3%   |                  1.2%   [77, 78]   
66     conv2d_66                              |||                2.6%   |||                7.6%   [79]       
67     conv2d_67                              ||||||||||||||||  13.8%   ||||||||||||||||  42.1%   [80]       
68     pool_68                                |                  0.2%   |                  0.0%   [81]       
69     mobilenet_v2_alpha_0_25_dense_MatMul   |                  0.0%   |                  2.5%   [82]       
70     nl_70                                  |                  0.0%   |                  0.0%   [83]       
71     conversion_71                          |                  0.0%   |                  0.0%   [84]       
------ -------------------------------------- ------------------------- ------------------------- ---------- 
macc=36,457,626 weights=255,188 act=621,488 ram_io=0

Generated files (7)
---------------------------------------------------------------------------------------------------------------------------------- 
E:\hjTan\Documents\CODE_SPACE\stm32ai-modelzoo-2.0.0\experiments_outputs\2025_01_05_14_31_47\stm32ai_files\network_config.h        
E:\hjTan\Documents\CODE_SPACE\stm32ai-modelzoo-2.0.0\experiments_outputs\2025_01_05_14_31_47\stm32ai_files\network.h               
E:\hjTan\Documents\CODE_SPACE\stm32ai-modelzoo-2.0.0\experiments_outputs\2025_01_05_14_31_47\stm32ai_files\network.c               
E:\hjTan\Documents\CODE_SPACE\stm32ai-modelzoo-2.0.0\experiments_outputs\2025_01_05_14_31_47\stm32ai_files\network_data_params.h   
E:\hjTan\Documents\CODE_SPACE\stm32ai-modelzoo-2.0.0\experiments_outputs\2025_01_05_14_31_47\stm32ai_files\network_data_params.c   
E:\hjTan\Documents\CODE_SPACE\stm32ai-modelzoo-2.0.0\experiments_outputs\2025_01_05_14_31_47\stm32ai_files\network_data.h          
E:\hjTan\Documents\CODE_SPACE\stm32ai-modelzoo-2.0.0\experiments_outputs\2025_01_05_14_31_47\stm32ai_files\network_data.c          
