<<<<<<< HEAD
Neural Network Tools for STM32 family v1.7.0 (stm.ai v8.1.0-19520)
Created date          : 2025-04-29 17:11:10
Parameters            : generate -m E:\hjTan\Documents\CODE_SPACE\stm32ai-modelzoo-2.0.0\experiments_outputs\2025_04_29_17_01_19\quantized_models\quantized_model.tflite -v 0 --allocate-inputs --allocate-outputs --output E:\hjTan\Documents\CODE_SPACE\stm32ai-modelzoo-2.0.0\experiments_outputs\2025_04_29_17_01_19/stm32ai_files --workspace E:\hjTan\Documents\CODE_SPACE\stm32ai-modelzoo-2.0.0\experiments_outputs\2025_04_29_17_01_19/stm32ai_files --optimization balanced

Exec/report summary (generate)
--------------------------------------------------------------------------------------------------------------------------------------------------------------
model file         :   E:\hjTan\Documents\CODE_SPACE\stm32ai-modelzoo-2.0.0\experiments_outputs\2025_04_29_17_01_19\quantized_models\quantized_model.tflite   
type               :   tflite                                                                                                                                 
c_name             :   network                                                                                                                                
compression        :   lossless                                                                                                                               
options            :   allocate-inputs, allocate-outputs                                                                                                      
optimization       :   balanced                                                                                                                               
workspace dir      :   E:\hjTan\Documents\CODE_SPACE\stm32ai-modelzoo-2.0.0\experiments_outputs\2025_04_29_17_01_19\stm32ai_files                             
output dir         :   E:\hjTan\Documents\CODE_SPACE\stm32ai-modelzoo-2.0.0\experiments_outputs\2025_04_29_17_01_19\stm32ai_files                             
model_fmt          :   ss/sa per channel                                                                                                                      
model_name         :   quantized_model                                                                                                                        
model_hash         :   631f4434bbbeabc0dce4ed81c5988109                                                                                                       
params #           :   258,445 items (262.48 KiB)                                                                                                             
--------------------------------------------------------------------------------------------------------------------------------------------------------------
input 1/1          :   'serving_default_input_10' (domain:activations/**default**)                                                                            
                   :   49152 items, 48.00 KiB, ai_u8, s=0.00784314, zp=127, (1,128,128,3)                                                                     
output 1/1         :   'conversion_82' (domain:activations/**default**)                                                                                       
                   :   4 items, 16 B, ai_float, float, (1,4)                                                                                                  
macc               :   6,388,698                                                                                                                              
weights (ro)       :   268,804 B (262.50 KiB) (1 segment) / -764,976(-74.0%) vs float model                                                                   
activations (rw)   :   52,920 B (51.68 KiB) (1 segment) *                                                                                                     
ram (total)        :   52,920 B (51.68 KiB) = 52,920 + 0 + 0                                                                                                  
--------------------------------------------------------------------------------------------------------------------------------------------------------------
(*) 'input'/'output' buffers can be used from the activations buffer

Model name - quantized_model ['serving_default_input_10'] ['conversion_82']
------ --------------------------------------------------------------------------- ----------------------------- ----------------- ----------- ----------------------------------------------------------- --- ------------- ------------------ ----------------------------- 
m_id   layer (type,original)                                                       oshape                        param/size               macc                                                connected to   | c_size        c_macc             c_type                        
------ --------------------------------------------------------------------------- ----------------------------- ----------------- ----------- ----------------------------------------------------------- --- ------------- ------------------ ----------------------------- 
0      serving_default_input_10 (Input, )                                          [b:1,h:128,h:128,w:128,c:3]                                                                                               |               +98,304(+100.0%)   converter_oi8[0]              
       conversion_0 (Conversion, QUANTIZE)                                         [b:1,h:128,h:128,w:128,c:3]                          98,304                                    serving_default_input_10   |               -98,304(-100.0%)   
------ --------------------------------------------------------------------------- ----------------------------- ----------------- ----------- ----------------------------------------------------------- --- ------------- ------------------ ----------------------------- 
1      conv2d_1 (Conv2D, CONV_2D)                                                  [b:1,h:64,h:64,w:64,c:8]      224/248               884,744                                                conversion_0   |                                  optimized_conv2d_oi8[1]       
       nl_1_nl (Nonlinearity, CONV_2D)                                             [b:1,h:64,h:64,w:64,c:8]                             32,768                                                    conv2d_1   |               -32,768(-100.0%)   
------ --------------------------------------------------------------------------- ----------------------------- ----------------- ----------- ----------------------------------------------------------- --- ------------- ------------------ ----------------------------- 
2      conv2d_2 (Conv2D, CONV_2D)                                                  [b:1,h:32,h:32,w:32,c:16]     1,168/1,216         1,179,664                                                     nl_1_nl   |                                  pad_oi8/conv2d_oi8[2, 3]      
       nl_2_nl (Nonlinearity, CONV_2D)                                             [b:1,h:32,h:32,w:32,c:16]                            16,384                                                    conv2d_2   |               -16,384(-100.0%)   
------ --------------------------------------------------------------------------- ----------------------------- ----------------- ----------- ----------------------------------------------------------- --- ------------- ------------------ ----------------------------- 
3      pool_3 (Pool, AVERAGE_POOL_2D)                                              [b:1,h:1,h:1,w:1,c:16]                               16,384                                                     nl_2_nl   |                                  pool_oi8[4]                   
------ --------------------------------------------------------------------------- ----------------------------- ----------------- ----------- ----------------------------------------------------------- --- ------------- ------------------ ----------------------------- 
4      conv2d_4 (Conv2D, CONV_2D)                                                  [b:1,h:1,h:1,w:1,c:4]         68/80                      68                                                      pool_3   |                                  conv2d_oi8[5]                 
       nl_4_nl (Nonlinearity, CONV_2D)                                             [b:1,h:1,h:1,w:1,c:4]                                     4                                                    conv2d_4   |               -4(-100.0%)        
------ --------------------------------------------------------------------------- ----------------------------- ----------------- ----------- ----------------------------------------------------------- --- ------------- ------------------ ----------------------------- 
5      conv2d_5 (Conv2D, CONV_2D)                                                  [b:1,h:1,h:1,w:1,c:16]        80/128                     80                                                     nl_4_nl   |                                  conv2d_oi8[6]                 
------ --------------------------------------------------------------------------- ----------------------------- ----------------- ----------- ----------------------------------------------------------- --- ------------- ------------------ ----------------------------- 
6      EmbeddedNetV1_width0_5_conv2d_14_clip_by_value_Minimum_y (Placeholder, )    []                            1/1                                                                                         | +3(+300.0%)   +16(+100.0%)       eltwise_integer/min_oi8[7]    
       eltwise_6 (Eltwise, MINIMUM)                                                [b:1,h:1,h:1,w:1,c:16]                                   16                                                    conv2d_5   |               -16(-100.0%)       
                                                                                                                                                  EmbeddedNetV1_width0_5_conv2d_14_clip_by_value_Minimum_y   | 
------ --------------------------------------------------------------------------- ----------------------------- ----------------- ----------- ----------------------------------------------------------- --- ------------- ------------------ ----------------------------- 
7      nl_7 (Nonlinearity, RELU)                                                   [b:1,h:1,h:1,w:1,c:16]                                   16                                                   eltwise_6   |               -16(-100.0%)       
------ --------------------------------------------------------------------------- ----------------------------- ----------------- ----------- ----------------------------------------------------------- --- ------------- ------------------ ----------------------------- 
8      eltwise_8 (Eltwise, MUL)                                                    [b:1,h:32,h:32,w:32,c:16]                            16,384                                                     nl_2_nl   |                                  eltwise_integer/mul_oi8[8]    
                                                                                                                                                                                                      nl_7   | 
------ --------------------------------------------------------------------------- ----------------------------- ----------------- ----------- ----------------------------------------------------------- --- ------------- ------------------ ----------------------------- 
9      conv2d_9 (Conv2D, CONV_2D)                                                  [b:1,h:32,h:32,w:32,c:16]     272/320               262,160                                                   eltwise_8   |                                  conv2d_oi8[9]                 
       nl_9_nl (Nonlinearity, CONV_2D)                                             [b:1,h:32,h:32,w:32,c:16]                            16,384                                                    conv2d_9   |               -16,384(-100.0%)   
------ --------------------------------------------------------------------------- ----------------------------- ----------------- ----------- ----------------------------------------------------------- --- ------------- ------------------ ----------------------------- 
10     conv2d_10 (Conv2D, CONV_2D)                                                 [b:1,h:32,h:32,w:32,c:8]      136/160               131,080                                                     nl_9_nl   |                                  conv2d_oi8[10]                
------ --------------------------------------------------------------------------- ----------------------------- ----------------- ----------- ----------------------------------------------------------- --- ------------- ------------------ ----------------------------- 
11     conv2d_11 (Conv2D, CONV_2D)                                                 [b:1,h:16,h:16,w:16,c:32]     2,336/2,432           589,856                                                   conv2d_10   |                                  pad_oi8/conv2d_oi8[11, 12]    
       nl_11_nl (Nonlinearity, CONV_2D)                                            [b:1,h:16,h:16,w:16,c:32]                             8,192                                                   conv2d_11   |               -8,192(-100.0%)    
------ --------------------------------------------------------------------------- ----------------------------- ----------------- ----------- ----------------------------------------------------------- --- ------------- ------------------ ----------------------------- 
12     conv2d_12 (Conv2D, CONV_2D)                                                 [b:1,h:16,h:16,w:16,c:16]     528/576               131,088                                                    nl_11_nl   |                                  conv2d_oi8[13]                
       nl_12_nl (Nonlinearity, CONV_2D)                                            [b:1,h:16,h:16,w:16,c:16]                             4,096                                                   conv2d_12   |               -4,096(-100.0%)    
------ --------------------------------------------------------------------------- ----------------------------- ----------------- ----------- ----------------------------------------------------------- --- ------------- ------------------ ----------------------------- 
13     conv2d_13 (Conv2D, CONV_2D)                                                 [b:1,h:16,h:16,w:16,c:8]      136/160                32,776                                                    nl_12_nl   |                                  conv2d_oi8[14]                
------ --------------------------------------------------------------------------- ----------------------------- ----------------- ----------- ----------------------------------------------------------- --- ------------- ------------------ ----------------------------- 
14     conv2d_14 (Conv2D, CONV_2D)                                                 [b:1,h:16,h:16,w:16,c:40]     2,920/3,040           737,320                                                   conv2d_13   |                                  pad_oi8/conv2d_oi8[15, 16]    
       nl_14_nl (Nonlinearity, CONV_2D)                                            [b:1,h:16,h:16,w:16,c:40]                            10,240                                                   conv2d_14   |               -10,240(-100.0%)   
------ --------------------------------------------------------------------------- ----------------------------- ----------------- ----------- ----------------------------------------------------------- --- ------------- ------------------ ----------------------------- 
15     conv2d_15 (Conv2D, CONV_2D)                                                 [b:1,h:16,h:16,w:16,c:16]     656/704               163,856                                                    nl_14_nl   |                                  conv2d_oi8[17]                
       nl_15_nl (Nonlinearity, CONV_2D)                                            [b:1,h:16,h:16,w:16,c:16]                             4,096                                                   conv2d_15   |               -4,096(-100.0%)    
------ --------------------------------------------------------------------------- ----------------------------- ----------------- ----------- ----------------------------------------------------------- --- ------------- ------------------ ----------------------------- 
16     conv2d_16 (Conv2D, CONV_2D)                                                 [b:1,h:16,h:16,w:16,c:8]      136/160                32,776                                                    nl_15_nl   |                                  conv2d_oi8[18]                
------ --------------------------------------------------------------------------- ----------------------------- ----------------- ----------- ----------------------------------------------------------- --- ------------- ------------------ ----------------------------- 
17     eltwise_17 (Eltwise, ADD)                                                   [b:1,h:16,h:16,w:16,c:8]                              2,048                                                   conv2d_13   |                                  eltwise_integer/sum_oi8[19]   
                                                                                                                                                                                                 conv2d_16   | 
------ --------------------------------------------------------------------------- ----------------------------- ----------------- ----------- ----------------------------------------------------------- --- ------------- ------------------ ----------------------------- 
18     conv2d_18 (Conv2D, CONV_2D)                                                 [b:1,h:16,h:16,w:16,c:48]     432/576                98,352                                                  eltwise_17   |                                  conv2d_oi8[20]                
       nl_18_nl (Nonlinearity, CONV_2D)                                            [b:1,h:16,h:16,w:16,c:48]                            12,288                                                   conv2d_18   |               -12,288(-100.0%)   
------ --------------------------------------------------------------------------- ----------------------------- ----------------- ----------- ----------------------------------------------------------- --- ------------- ------------------ ----------------------------- 
19     conv2d_19 (Conv2D, DEPTHWISE_CONV_2D)                                       [b:1,h:8,h:8,w:8,c:48]        1,248/1,392            76,848                                                    nl_18_nl   |                                  conv2d_oi8[21]                
       nl_19_nl (Nonlinearity, DEPTHWISE_CONV_2D)                                  [b:1,h:8,h:8,w:8,c:48]                                3,072                                                   conv2d_19   |               -3,072(-100.0%)    
------ --------------------------------------------------------------------------- ----------------------------- ----------------- ----------- ----------------------------------------------------------- --- ------------- ------------------ ----------------------------- 
20     pool_20 (Pool, AVERAGE_POOL_2D)                                             [b:1,h:1,h:1,w:1,c:48]                                3,072                                                    nl_19_nl   |                                  pool_oi8[22]                  
------ --------------------------------------------------------------------------- ----------------------------- ----------------- ----------- ----------------------------------------------------------- --- ------------- ------------------ ----------------------------- 
21     conv2d_21 (Conv2D, CONV_2D)                                                 [b:1,h:1,h:1,w:1,c:12]        588/624                   588                                                     pool_20   |                                  conv2d_oi8[23]                
       nl_21_nl (Nonlinearity, CONV_2D)                                            [b:1,h:1,h:1,w:1,c:12]                                   12                                                   conv2d_21   |               -12(-100.0%)       
------ --------------------------------------------------------------------------- ----------------------------- ----------------- ----------- ----------------------------------------------------------- --- ------------- ------------------ ----------------------------- 
22     conv2d_22 (Conv2D, CONV_2D)                                                 [b:1,h:1,h:1,w:1,c:48]        624/768                   624                                                    nl_21_nl   |                                  conv2d_oi8[24]                
------ --------------------------------------------------------------------------- ----------------------------- ----------------- ----------- ----------------------------------------------------------- --- ------------- ------------------ ----------------------------- 
23     EmbeddedNetV1_width0_5_conv2d_14_clip_by_value_Minimum_y1 (Placeholder, )   []                            1/1                                                                                         | +3(+300.0%)   +48(+100.0%)       eltwise_integer/min_oi8[25]   
       eltwise_23 (Eltwise, MINIMUM)                                               [b:1,h:1,h:1,w:1,c:48]                                   48                                                   conv2d_22   |               -48(-100.0%)       
                                                                                                                                                 EmbeddedNetV1_width0_5_conv2d_14_clip_by_value_Minimum_y1   | 
------ --------------------------------------------------------------------------- ----------------------------- ----------------- ----------- ----------------------------------------------------------- --- ------------- ------------------ ----------------------------- 
24     nl_24 (Nonlinearity, RELU)                                                  [b:1,h:1,h:1,w:1,c:48]                                   48                                                  eltwise_23   |                                  nl_oi8[26]                    
------ --------------------------------------------------------------------------- ----------------------------- ----------------- ----------- ----------------------------------------------------------- --- ------------- ------------------ ----------------------------- 
25     eltwise_25 (Eltwise, MUL)                                                   [b:1,h:8,h:8,w:8,c:48]                                3,072                                                    nl_19_nl   |                                  eltwise_integer/mul_oi8[27]   
                                                                                                                                                                                                     nl_24   | 
------ --------------------------------------------------------------------------- ----------------------------- ----------------- ----------- ----------------------------------------------------------- --- ------------- ------------------ ----------------------------- 
26     conv2d_26 (Conv2D, CONV_2D)                                                 [b:1,h:8,h:8,w:8,c:16]        784/832                49,168                                                  eltwise_25   |                                  conv2d_oi8[28]                
------ --------------------------------------------------------------------------- ----------------------------- ----------------- ----------- ----------------------------------------------------------- --- ------------- ------------------ ----------------------------- 
27     conv2d_27 (Conv2D, CONV_2D)                                                 [b:1,h:8,h:8,w:8,c:96]        1,632/1,920            98,400                                                   conv2d_26   |                                  conv2d_oi8[29]                
       nl_27_nl (Nonlinearity, CONV_2D)                                            [b:1,h:8,h:8,w:8,c:96]                                6,144                                                   conv2d_27   |               -6,144(-100.0%)    
------ --------------------------------------------------------------------------- ----------------------------- ----------------- ----------- ----------------------------------------------------------- --- ------------- ------------------ ----------------------------- 
28     conv2d_28 (Conv2D, DEPTHWISE_CONV_2D)                                       [b:1,h:8,h:8,w:8,c:96]        2,496/2,784           153,696                                                    nl_27_nl   |                                  conv2d_oi8[30]                
       nl_28_nl (Nonlinearity, DEPTHWISE_CONV_2D)                                  [b:1,h:8,h:8,w:8,c:96]                                6,144                                                   conv2d_28   |               -6,144(-100.0%)    
------ --------------------------------------------------------------------------- ----------------------------- ----------------- ----------- ----------------------------------------------------------- --- ------------- ------------------ ----------------------------- 
29     pool_29 (Pool, AVERAGE_POOL_2D)                                             [b:1,h:1,h:1,w:1,c:96]                                6,144                                                    nl_28_nl   |                                  pool_oi8[31]                  
------ --------------------------------------------------------------------------- ----------------------------- ----------------- ----------- ----------------------------------------------------------- --- ------------- ------------------ ----------------------------- 
30     conv2d_30 (Conv2D, CONV_2D)                                                 [b:1,h:1,h:1,w:1,c:24]        2,328/2,400             2,328                                                     pool_29   |                                  conv2d_oi8[32]                
       nl_30_nl (Nonlinearity, CONV_2D)                                            [b:1,h:1,h:1,w:1,c:24]                                   24                                                   conv2d_30   |               -24(-100.0%)       
------ --------------------------------------------------------------------------- ----------------------------- ----------------- ----------- ----------------------------------------------------------- --- ------------- ------------------ ----------------------------- 
31     conv2d_31 (Conv2D, CONV_2D)                                                 [b:1,h:1,h:1,w:1,c:96]        2,400/2,688             2,400                                                    nl_30_nl   |                                  conv2d_oi8[33]                
------ --------------------------------------------------------------------------- ----------------------------- ----------------- ----------- ----------------------------------------------------------- --- ------------- ------------------ ----------------------------- 
32     EmbeddedNetV1_width0_5_conv2d_14_clip_by_value_Minimum_y2 (Placeholder, )   []                            1/1                                                                                         | +3(+300.0%)   +96(+100.0%)       eltwise_integer/min_oi8[34]   
       eltwise_32 (Eltwise, MINIMUM)                                               [b:1,h:1,h:1,w:1,c:96]                                   96                                                   conv2d_31   |               -96(-100.0%)       
                                                                                                                                                 EmbeddedNetV1_width0_5_conv2d_14_clip_by_value_Minimum_y2   | 
------ --------------------------------------------------------------------------- ----------------------------- ----------------- ----------- ----------------------------------------------------------- --- ------------- ------------------ ----------------------------- 
33     nl_33 (Nonlinearity, RELU)                                                  [b:1,h:1,h:1,w:1,c:96]                                   96                                                  eltwise_32   |                                  nl_oi8[35]                    
------ --------------------------------------------------------------------------- ----------------------------- ----------------- ----------- ----------------------------------------------------------- --- ------------- ------------------ ----------------------------- 
34     eltwise_34 (Eltwise, MUL)                                                   [b:1,h:8,h:8,w:8,c:96]                                6,144                                                    nl_28_nl   |                                  eltwise_integer/mul_oi8[36]   
                                                                                                                                                                                                     nl_33   | 
------ --------------------------------------------------------------------------- ----------------------------- ----------------- ----------- ----------------------------------------------------------- --- ------------- ------------------ ----------------------------- 
35     conv2d_35 (Conv2D, CONV_2D)                                                 [b:1,h:8,h:8,w:8,c:16]        1,552/1,600            98,320                                                  eltwise_34   |                                  conv2d_oi8[37]                
------ --------------------------------------------------------------------------- ----------------------------- ----------------- ----------- ----------------------------------------------------------- --- ------------- ------------------ ----------------------------- 
36     eltwise_36 (Eltwise, ADD)                                                   [b:1,h:8,h:8,w:8,c:16]                                1,024                                                   conv2d_26   |                                  eltwise_integer/sum_oi8[38]   
                                                                                                                                                                                                 conv2d_35   | 
------ --------------------------------------------------------------------------- ----------------------------- ----------------- ----------- ----------------------------------------------------------- --- ------------- ------------------ ----------------------------- 
37     conv2d_37 (Conv2D, CONV_2D)                                                 [b:1,h:8,h:8,w:8,c:64]        1,088/1,280            65,600                                                  eltwise_36   |                                  conv2d_oi8[39]                
       nl_37_nl (Nonlinearity, CONV_2D)                                            [b:1,h:8,h:8,w:8,c:64]                                4,096                                                   conv2d_37   |               -4,096(-100.0%)    
------ --------------------------------------------------------------------------- ----------------------------- ----------------- ----------- ----------------------------------------------------------- --- ------------- ------------------ ----------------------------- 
38     conv2d_38 (Conv2D, DEPTHWISE_CONV_2D)                                       [b:1,h:8,h:8,w:8,c:64]        1,664/1,856           102,464                                                    nl_37_nl   |                                  conv2d_oi8[40]                
       nl_38_nl (Nonlinearity, DEPTHWISE_CONV_2D)                                  [b:1,h:8,h:8,w:8,c:64]                                4,096                                                   conv2d_38   |               -4,096(-100.0%)    
------ --------------------------------------------------------------------------- ----------------------------- ----------------- ----------- ----------------------------------------------------------- --- ------------- ------------------ ----------------------------- 
39     pool_39 (Pool, AVERAGE_POOL_2D)                                             [b:1,h:1,h:1,w:1,c:64]                                4,096                                                    nl_38_nl   |                                  pool_oi8[41]                  
------ --------------------------------------------------------------------------- ----------------------------- ----------------- ----------- ----------------------------------------------------------- --- ------------- ------------------ ----------------------------- 
40     conv2d_40 (Conv2D, CONV_2D)                                                 [b:1,h:1,h:1,w:1,c:16]        1,040/1,088             1,040                                                     pool_39   |                                  conv2d_oi8[42]                
       nl_40_nl (Nonlinearity, CONV_2D)                                            [b:1,h:1,h:1,w:1,c:16]                                   16                                                   conv2d_40   |               -16(-100.0%)       
------ --------------------------------------------------------------------------- ----------------------------- ----------------- ----------- ----------------------------------------------------------- --- ------------- ------------------ ----------------------------- 
41     conv2d_41 (Conv2D, CONV_2D)                                                 [b:1,h:1,h:1,w:1,c:64]        1,088/1,280             1,088                                                    nl_40_nl   |                                  conv2d_oi8[43]                
------ --------------------------------------------------------------------------- ----------------------------- ----------------- ----------- ----------------------------------------------------------- --- ------------- ------------------ ----------------------------- 
42     EmbeddedNetV1_width0_5_conv2d_14_clip_by_value_Minimum_y3 (Placeholder, )   []                            1/1                                                                                         | +3(+300.0%)   +64(+100.0%)       eltwise_integer/min_oi8[44]   
       eltwise_42 (Eltwise, MINIMUM)                                               [b:1,h:1,h:1,w:1,c:64]                                   64                                                   conv2d_41   |               -64(-100.0%)       
                                                                                                                                                 EmbeddedNetV1_width0_5_conv2d_14_clip_by_value_Minimum_y3   | 
------ --------------------------------------------------------------------------- ----------------------------- ----------------- ----------- ----------------------------------------------------------- --- ------------- ------------------ ----------------------------- 
43     nl_43 (Nonlinearity, RELU)                                                  [b:1,h:1,h:1,w:1,c:64]                                   64                                                  eltwise_42   |               -64(-100.0%)       
------ --------------------------------------------------------------------------- ----------------------------- ----------------- ----------- ----------------------------------------------------------- --- ------------- ------------------ ----------------------------- 
44     eltwise_44 (Eltwise, MUL)                                                   [b:1,h:8,h:8,w:8,c:64]                                4,096                                                    nl_38_nl   |                                  eltwise_integer/mul_oi8[45]   
                                                                                                                                                                                                     nl_43   | 
------ --------------------------------------------------------------------------- ----------------------------- ----------------- ----------- ----------------------------------------------------------- --- ------------- ------------------ ----------------------------- 
45     conv2d_45 (Conv2D, CONV_2D)                                                 [b:1,h:8,h:8,w:8,c:16]        1,040/1,088            65,552                                                  eltwise_44   |                                  conv2d_oi8[46]                
------ --------------------------------------------------------------------------- ----------------------------- ----------------- ----------- ----------------------------------------------------------- --- ------------- ------------------ ----------------------------- 
46     eltwise_46 (Eltwise, ADD)                                                   [b:1,h:8,h:8,w:8,c:16]                                1,024                                                  eltwise_36   |                                  eltwise_integer/sum_oi8[47]   
                                                                                                                                                                                                 conv2d_45   | 
------ --------------------------------------------------------------------------- ----------------------------- ----------------- ----------- ----------------------------------------------------------- --- ------------- ------------------ ----------------------------- 
47     conv2d_47 (Conv2D, CONV_2D)                                                 [b:1,h:8,h:8,w:8,c:120]       2,040/2,400           123,000                                                  eltwise_46   |                                  conv2d_oi8[48]                
       nl_47_nl (Nonlinearity, CONV_2D)                                            [b:1,h:8,h:8,w:8,c:120]                               7,680                                                   conv2d_47   |               -7,680(-100.0%)    
------ --------------------------------------------------------------------------- ----------------------------- ----------------- ----------- ----------------------------------------------------------- --- ------------- ------------------ ----------------------------- 
48     conv2d_48 (Conv2D, DEPTHWISE_CONV_2D)                                       [b:1,h:4,h:4,w:4,c:120]       3,120/3,480            48,120                                                    nl_47_nl   |                                  conv2d_oi8[49]                
       nl_48_nl (Nonlinearity, DEPTHWISE_CONV_2D)                                  [b:1,h:4,h:4,w:4,c:120]                               1,920                                                   conv2d_48   |               -1,920(-100.0%)    
------ --------------------------------------------------------------------------- ----------------------------- ----------------- ----------- ----------------------------------------------------------- --- ------------- ------------------ ----------------------------- 
49     pool_49 (Pool, AVERAGE_POOL_2D)                                             [b:1,h:1,h:1,w:1,c:120]                               1,920                                                    nl_48_nl   |                                  pool_oi8[50]                  
------ --------------------------------------------------------------------------- ----------------------------- ----------------- ----------- ----------------------------------------------------------- --- ------------- ------------------ ----------------------------- 
50     conv2d_50 (Conv2D, CONV_2D)                                                 [b:1,h:1,h:1,w:1,c:30]        3,630/3,720             3,630                                                     pool_49   |                                  conv2d_oi8[51]                
       nl_50_nl (Nonlinearity, CONV_2D)                                            [b:1,h:1,h:1,w:1,c:30]                                   30                                                   conv2d_50   |               -30(-100.0%)       
------ --------------------------------------------------------------------------- ----------------------------- ----------------- ----------- ----------------------------------------------------------- --- ------------- ------------------ ----------------------------- 
51     conv2d_51 (Conv2D, CONV_2D)                                                 [b:1,h:1,h:1,w:1,c:120]       3,720/4,080             3,720                                                    nl_50_nl   |                                  conv2d_oi8[52]                
------ --------------------------------------------------------------------------- ----------------------------- ----------------- ----------- ----------------------------------------------------------- --- ------------- ------------------ ----------------------------- 
52     EmbeddedNetV1_width0_5_conv2d_14_clip_by_value_Minimum_y4 (Placeholder, )   []                            1/1                                                                                         | +3(+300.0%)   +120(+100.0%)      eltwise_integer/min_oi8[53]   
       eltwise_52 (Eltwise, MINIMUM)                                               [b:1,h:1,h:1,w:1,c:120]                                 120                                                   conv2d_51   |               -120(-100.0%)      
                                                                                                                                                 EmbeddedNetV1_width0_5_conv2d_14_clip_by_value_Minimum_y4   | 
------ --------------------------------------------------------------------------- ----------------------------- ----------------- ----------- ----------------------------------------------------------- --- ------------- ------------------ ----------------------------- 
53     nl_53 (Nonlinearity, RELU)                                                  [b:1,h:1,h:1,w:1,c:120]                                 120                                                  eltwise_52   |                                  nl_oi8[54]                    
------ --------------------------------------------------------------------------- ----------------------------- ----------------- ----------- ----------------------------------------------------------- --- ------------- ------------------ ----------------------------- 
54     eltwise_54 (Eltwise, MUL)                                                   [b:1,h:4,h:4,w:4,c:120]                               1,920                                                    nl_48_nl   |                                  eltwise_integer/mul_oi8[55]   
                                                                                                                                                                                                     nl_53   | 
------ --------------------------------------------------------------------------- ----------------------------- ----------------- ----------- ----------------------------------------------------------- --- ------------- ------------------ ----------------------------- 
55     conv2d_55 (Conv2D, CONV_2D)                                                 [b:1,h:4,h:4,w:4,c:40]        4,840/4,960            76,840                                                  eltwise_54   |                                  conv2d_oi8[56]                
------ --------------------------------------------------------------------------- ----------------------------- ----------------- ----------- ----------------------------------------------------------- --- ------------- ------------------ ----------------------------- 
56     conv2d_56 (Conv2D, CONV_2D)                                                 [b:1,h:4,h:4,w:4,c:160]       6,560/7,040           102,560                                                   conv2d_55   |                                  conv2d_oi8[57]                
       nl_56_nl (Nonlinearity, CONV_2D)                                            [b:1,h:4,h:4,w:4,c:160]                               2,560                                                   conv2d_56   |               -2,560(-100.0%)    
------ --------------------------------------------------------------------------- ----------------------------- ----------------- ----------- ----------------------------------------------------------- --- ------------- ------------------ ----------------------------- 
57     conv2d_57 (Conv2D, DEPTHWISE_CONV_2D)                                       [b:1,h:4,h:4,w:4,c:160]       4,160/4,640            64,160                                                    nl_56_nl   |                                  conv2d_oi8[58]                
       nl_57_nl (Nonlinearity, DEPTHWISE_CONV_2D)                                  [b:1,h:4,h:4,w:4,c:160]                               2,560                                                   conv2d_57   |               -2,560(-100.0%)    
------ --------------------------------------------------------------------------- ----------------------------- ----------------- ----------- ----------------------------------------------------------- --- ------------- ------------------ ----------------------------- 
58     pool_58 (Pool, AVERAGE_POOL_2D)                                             [b:1,h:1,h:1,w:1,c:160]                               2,560                                                    nl_57_nl   |                                  pool_oi8[59]                  
------ --------------------------------------------------------------------------- ----------------------------- ----------------- ----------- ----------------------------------------------------------- --- ------------- ------------------ ----------------------------- 
59     conv2d_59 (Conv2D, CONV_2D)                                                 [b:1,h:1,h:1,w:1,c:40]        6,440/6,560             6,440                                                     pool_58   |                                  conv2d_oi8[60]                
       nl_59_nl (Nonlinearity, CONV_2D)                                            [b:1,h:1,h:1,w:1,c:40]                                   40                                                   conv2d_59   |               -40(-100.0%)       
------ --------------------------------------------------------------------------- ----------------------------- ----------------- ----------- ----------------------------------------------------------- --- ------------- ------------------ ----------------------------- 
60     conv2d_60 (Conv2D, CONV_2D)                                                 [b:1,h:1,h:1,w:1,c:160]       6,560/7,040             6,560                                                    nl_59_nl   |                                  conv2d_oi8[61]                
------ --------------------------------------------------------------------------- ----------------------------- ----------------- ----------- ----------------------------------------------------------- --- ------------- ------------------ ----------------------------- 
61     EmbeddedNetV1_width0_5_conv2d_14_clip_by_value_Minimum_y5 (Placeholder, )   []                            1/1                                                                                         | +3(+300.0%)   +160(+100.0%)      eltwise_integer/min_oi8[62]   
       eltwise_61 (Eltwise, MINIMUM)                                               [b:1,h:1,h:1,w:1,c:160]                                 160                                                   conv2d_60   |               -160(-100.0%)      
                                                                                                                                                 EmbeddedNetV1_width0_5_conv2d_14_clip_by_value_Minimum_y5   | 
------ --------------------------------------------------------------------------- ----------------------------- ----------------- ----------- ----------------------------------------------------------- --- ------------- ------------------ ----------------------------- 
62     nl_62 (Nonlinearity, RELU)                                                  [b:1,h:1,h:1,w:1,c:160]                                 160                                                  eltwise_61   |                                  nl_oi8[63]                    
------ --------------------------------------------------------------------------- ----------------------------- ----------------- ----------- ----------------------------------------------------------- --- ------------- ------------------ ----------------------------- 
63     eltwise_63 (Eltwise, MUL)                                                   [b:1,h:4,h:4,w:4,c:160]                               2,560                                                    nl_57_nl   |                                  eltwise_integer/mul_oi8[64]   
                                                                                                                                                                                                     nl_62   | 
------ --------------------------------------------------------------------------- ----------------------------- ----------------- ----------- ----------------------------------------------------------- --- ------------- ------------------ ----------------------------- 
64     conv2d_64 (Conv2D, CONV_2D)                                                 [b:1,h:4,h:4,w:4,c:40]        6,440/6,560           102,440                                                  eltwise_63   |                                  conv2d_oi8[65]                
------ --------------------------------------------------------------------------- ----------------------------- ----------------- ----------- ----------------------------------------------------------- --- ------------- ------------------ ----------------------------- 
65     eltwise_65 (Eltwise, ADD)                                                   [b:1,h:4,h:4,w:4,c:40]                                  640                                                   conv2d_55   |                                  eltwise_integer/sum_oi8[66]   
                                                                                                                                                                                                 conv2d_64   | 
------ --------------------------------------------------------------------------- ----------------------------- ----------------- ----------- ----------------------------------------------------------- --- ------------- ------------------ ----------------------------- 
66     conv2d_66 (Conv2D, CONV_2D)                                                 [b:1,h:4,h:4,w:4,c:240]       9,840/10,560          153,840                                                  eltwise_65   |                                  conv2d_oi8[67]                
       nl_66_nl (Nonlinearity, CONV_2D)                                            [b:1,h:4,h:4,w:4,c:240]                               3,840                                                   conv2d_66   |               -3,840(-100.0%)    
------ --------------------------------------------------------------------------- ----------------------------- ----------------- ----------- ----------------------------------------------------------- --- ------------- ------------------ ----------------------------- 
67     conv2d_67 (Conv2D, DEPTHWISE_CONV_2D)                                       [b:1,h:4,h:4,w:4,c:240]       6,240/6,960            96,240                                                    nl_66_nl   |                                  conv2d_oi8[68]                
       nl_67_nl (Nonlinearity, DEPTHWISE_CONV_2D)                                  [b:1,h:4,h:4,w:4,c:240]                               3,840                                                   conv2d_67   |               -3,840(-100.0%)    
------ --------------------------------------------------------------------------- ----------------------------- ----------------- ----------- ----------------------------------------------------------- --- ------------- ------------------ ----------------------------- 
68     pool_68 (Pool, AVERAGE_POOL_2D)                                             [b:1,h:1,h:1,w:1,c:240]                               3,840                                                    nl_67_nl   |                                  pool_oi8[69]                  
------ --------------------------------------------------------------------------- ----------------------------- ----------------- ----------- ----------------------------------------------------------- --- ------------- ------------------ ----------------------------- 
69     conv2d_69 (Conv2D, CONV_2D)                                                 [b:1,h:1,h:1,w:1,c:60]        14,460/14,640          14,460                                                     pool_68   |                                  conv2d_oi8[70]                
       nl_69_nl (Nonlinearity, CONV_2D)                                            [b:1,h:1,h:1,w:1,c:60]                                   60                                                   conv2d_69   |               -60(-100.0%)       
------ --------------------------------------------------------------------------- ----------------------------- ----------------- ----------- ----------------------------------------------------------- --- ------------- ------------------ ----------------------------- 
70     conv2d_70 (Conv2D, CONV_2D)                                                 [b:1,h:1,h:1,w:1,c:240]       14,640/15,360          14,640                                                    nl_69_nl   |                                  conv2d_oi8[71]                
------ --------------------------------------------------------------------------- ----------------------------- ----------------- ----------- ----------------------------------------------------------- --- ------------- ------------------ ----------------------------- 
71     EmbeddedNetV1_width0_5_conv2d_14_clip_by_value_Minimum_y6 (Placeholder, )   []                            1/1                                                                                         | +3(+300.0%)   +240(+100.0%)      eltwise_integer/min_oi8[72]   
       eltwise_71 (Eltwise, MINIMUM)                                               [b:1,h:1,h:1,w:1,c:240]                                 240                                                   conv2d_70   |               -240(-100.0%)      
                                                                                                                                                 EmbeddedNetV1_width0_5_conv2d_14_clip_by_value_Minimum_y6   | 
------ --------------------------------------------------------------------------- ----------------------------- ----------------- ----------- ----------------------------------------------------------- --- ------------- ------------------ ----------------------------- 
72     nl_72 (Nonlinearity, RELU)                                                  [b:1,h:1,h:1,w:1,c:240]                                 240                                                  eltwise_71   |                                  nl_oi8[73]                    
------ --------------------------------------------------------------------------- ----------------------------- ----------------- ----------- ----------------------------------------------------------- --- ------------- ------------------ ----------------------------- 
73     eltwise_73 (Eltwise, MUL)                                                   [b:1,h:4,h:4,w:4,c:240]                               3,840                                                    nl_67_nl   |                                  eltwise_integer/mul_oi8[74]   
                                                                                                                                                                                                     nl_72   | 
------ --------------------------------------------------------------------------- ----------------------------- ----------------- ----------- ----------------------------------------------------------- --- ------------- ------------------ ----------------------------- 
74     conv2d_74 (Conv2D, CONV_2D)                                                 [b:1,h:4,h:4,w:4,c:40]        9,640/9,760           153,640                                                  eltwise_73   |                                  conv2d_oi8[75]                
------ --------------------------------------------------------------------------- ----------------------------- ----------------- ----------- ----------------------------------------------------------- --- ------------- ------------------ ----------------------------- 
75     eltwise_75 (Eltwise, ADD)                                                   [b:1,h:4,h:4,w:4,c:40]                                  640                                                  eltwise_65   |                                  eltwise_integer/sum_oi8[76]   
                                                                                                                                                                                                 conv2d_74   | 
------ --------------------------------------------------------------------------- ----------------------------- ----------------- ----------- ----------------------------------------------------------- --- ------------- ------------------ ----------------------------- 
76     conv2d_76 (Conv2D, CONV_2D)                                                 [b:1,h:4,h:4,w:4,c:240]       9,840/10,560          153,840                                                  eltwise_75   |                                  conv2d_oi8[77]                
       nl_76_nl (Nonlinearity, CONV_2D)                                            [b:1,h:4,h:4,w:4,c:240]                               3,840                                                   conv2d_76   |               -3,840(-100.0%)    
------ --------------------------------------------------------------------------- ----------------------------- ----------------- ----------- ----------------------------------------------------------- --- ------------- ------------------ ----------------------------- 
77     pool_77 (Pool, MEAN)                                                        [b:1,h:1,h:1,w:1,c:240]                               3,840                                                    nl_76_nl   |                                  pool_oi8[78]                  
------ --------------------------------------------------------------------------- ----------------------------- ----------------- ----------- ----------------------------------------------------------- --- ------------- ------------------ ----------------------------- 
78     conv2d_78 (Conv2D, CONV_2D)                                                 [b:1,h:1,h:1,w:1,c:480]       115,680/117,120       115,680                                                     pool_77   |                                  conv2d_oi8[79]                
       nl_78_nl (Nonlinearity, CONV_2D)                                            [b:1,h:1,h:1,w:1,c:480]                                 480                                                   conv2d_78   |               -480(-100.0%)      
------ --------------------------------------------------------------------------- ----------------------------- ----------------- ----------- ----------------------------------------------------------- --- ------------- ------------------ ----------------------------- 
79     conv2d_79 (Conv2D, CONV_2D)                                                 [b:1,h:1,h:1,w:1,c:4]         1,924/1,936             1,924                                                    nl_78_nl   |                                  conv2d_oi8[80]                
------ --------------------------------------------------------------------------- ----------------------------- ----------------- ----------- ----------------------------------------------------------- --- ------------- ------------------ ----------------------------- 
80     reshape_80 (Reshape, RESHAPE)                                               [b:1,c:4]                                                                                                     conv2d_79   |                                  
------ --------------------------------------------------------------------------- ----------------------------- ----------------- ----------- ----------------------------------------------------------- --- ------------- ------------------ ----------------------------- 
81     nl_81 (Nonlinearity, SOFTMAX)                                               [b:1,c:4]                                                60                                                  reshape_80   |                                  nl_oi8[81]                    
------ --------------------------------------------------------------------------- ----------------------------- ----------------- ----------- ----------------------------------------------------------- --- ------------- ------------------ ----------------------------- 
82     conversion_82 (Conversion, DEQUANTIZE)                                      [b:1,c:4]                                                 8                                                       nl_81   |                                  converter_of32[o][82]         
------ --------------------------------------------------------------------------- ----------------------------- ----------------- ----------- ----------------------------------------------------------- --- ------------- ------------------ ----------------------------- 
model/c-model: macc=6,543,684/6,388,698 -154,986(-2.4%) weights=268,783/268,804 +21(+0.0%) activations=--/52,920 io=--/0



Generated C-graph summary
------------------------------------------------------------------------------------------------------------------------
model name            : quantized_model
c-name                : network
c-node #              : 83
c-array #             : 252
activations size      : 52920 (1 segment)
weights size          : 268804 (1 segment)
macc                  : 6388698
inputs                : ['serving_default_input_10_output']
outputs               : ['conversion_82_output']

C-Arrays (252)
------ ----------------------------------------------------------- --------------- ------------------------- --------------- -------------- --------- 
c_id   name (*_array)                                              item/size       domain/mem-pool           c-type          fmt            comment   
------ ----------------------------------------------------------- --------------- ------------------------- --------------- -------------- --------- 
0      eltwise_36_output                                           1024/1024       activations/**default**   int8_t          sa8                      
1      conv2d_37_output                                            4096/4096       activations/**default**   int8_t          sa8                      
2      conv2d_27_scratch0                                          1024/1024       activations/**default**   int8_t          s8                       
3      conv2d_38_output                                            4096/4096       activations/**default**   int8_t          sa8                      
4      pool_39_output                                              64/64           activations/**default**   int8_t          sa8                      
5      conv2d_27_scratch1                                          6144/6144       activations/**default**   int8_t          sa8                      
6      conv2d_40_output                                            16/16           activations/**default**   int8_t          sa8                      
7      conv2d_41_output                                            64/64           activations/**default**   int8_t          sa8                      
8      eltwise_42_output                                           64/64           activations/**default**   int8_t          sa8                      
9      conv2d_28_scratch0                                          8161/8161       activations/**default**   int8_t          s8                       
10     eltwise_44_output                                           4096/4096       activations/**default**   int8_t          sa8                      
11     conv2d_45_output                                            1024/1024       activations/**default**   int8_t          sa8                      
12     conv2d_28_scratch1                                          6144/6144       activations/**default**   int8_t          sa8                      
13     eltwise_46_output                                           1024/1024       activations/**default**   int8_t          sa8                      
14     conv2d_47_output                                            7680/7680       activations/**default**   int8_t          sa8                      
15     conv2d_48_output                                            1920/1920       activations/**default**   int8_t          sa8                      
16     conv2d_30_scratch0                                          624/624         activations/**default**   int8_t          s8                       
17     pool_49_output                                              120/120         activations/**default**   int8_t          sa8                      
18     conv2d_50_output                                            30/30           activations/**default**   int8_t          sa8                      
19     conv2d_30_scratch1                                          24/24           activations/**default**   int8_t          sa8                      
20     conv2d_51_output                                            120/120         activations/**default**   int8_t          sa8                      
21     eltwise_52_output                                           120/120         activations/**default**   int8_t          sa8                      
22     nl_53_output                                                120/120         activations/**default**   int8_t          sa8                      
23     conv2d_31_scratch0                                          1056/1056       activations/**default**   int8_t          s8                       
24     eltwise_54_output                                           1920/1920       activations/**default**   int8_t          sa8                      
25     conv2d_55_output                                            640/640         activations/**default**   int8_t          sa8                      
26     conv2d_56_output                                            2560/2560       activations/**default**   int8_t          sa8                      
27     conv2d_35_scratch0                                          544/544         activations/**default**   int8_t          s8                       
28     conv2d_57_output                                            2560/2560       activations/**default**   int8_t          sa8                      
29     pool_58_output                                              160/160         activations/**default**   int8_t          sa8                      
30     conv2d_59_output                                            40/40           activations/**default**   int8_t          sa8                      
31     conv2d_37_scratch0                                          704/704         activations/**default**   int8_t          s8                       
32     conv2d_60_output                                            160/160         activations/**default**   int8_t          sa8                      
33     eltwise_61_output                                           160/160         activations/**default**   int8_t          sa8                      
34     conv2d_37_scratch1                                          4096/4096       activations/**default**   int8_t          sa8                      
35     nl_62_output                                                160/160         activations/**default**   int8_t          sa8                      
36     eltwise_63_output                                           2560/2560       activations/**default**   int8_t          sa8                      
37     conv2d_64_output                                            640/640         activations/**default**   int8_t          sa8                      
38     conv2d_38_scratch0                                          5441/5441       activations/**default**   int8_t          s8                       
39     eltwise_65_output                                           640/640         activations/**default**   int8_t          sa8                      
40     conv2d_66_output                                            3840/3840       activations/**default**   int8_t          sa8                      
41     conv2d_38_scratch1                                          4096/4096       activations/**default**   int8_t          sa8                      
42     conv2d_67_output                                            3840/3840       activations/**default**   int8_t          sa8                      
43     pool_68_output                                              240/240         activations/**default**   int8_t          sa8                      
44     conv2d_69_output                                            60/60           activations/**default**   int8_t          sa8                      
45     conv2d_40_scratch0                                          416/416         activations/**default**   int8_t          s8                       
46     conv2d_70_output                                            240/240         activations/**default**   int8_t          sa8                      
47     eltwise_71_output                                           240/240         activations/**default**   int8_t          sa8                      
48     nl_72_output                                                240/240         activations/**default**   int8_t          sa8                      
49     conv2d_41_scratch0                                          704/704         activations/**default**   int8_t          s8                       
50     eltwise_73_output                                           3840/3840       activations/**default**   int8_t          sa8                      
51     conv2d_74_output                                            640/640         activations/**default**   int8_t          sa8                      
52     eltwise_75_output                                           640/640         activations/**default**   int8_t          sa8                      
53     conv2d_45_scratch0                                          416/416         activations/**default**   int8_t          s8                       
54     conv2d_76_output                                            3840/3840       activations/**default**   int8_t          sa8                      
55     pool_77_output                                              240/240         activations/**default**   int8_t          sa8                      
56     conv2d_78_output                                            480/480         activations/**default**   int8_t          sa8                      
57     conv2d_47_scratch0                                          1264/1264       activations/**default**   int8_t          s8                       
58     conv2d_79_output                                            4/4             activations/**default**   int8_t          sa8                      
59     nl_81_output                                                4/4             activations/**default**   int8_t          sa8                      
60     conv2d_47_scratch1                                          7680/7680       activations/**default**   int8_t          sa8                      
61     conversion_82_output                                        4/16            activations/**default**   float           float32        /output   
62     EmbeddedNetV1_width0_5_conv2d_14_clip_by_value_Minimum_y6   1/4             weights/weights           const int8_t    sa8                      
63     EmbeddedNetV1_width0_5_conv2d_14_clip_by_value_Minimum_y5   1/4             weights/weights           const int8_t    sa8                      
64     conv2d_48_scratch0                                          10201/10201     activations/**default**   int8_t          s8                       
65     EmbeddedNetV1_width0_5_conv2d_14_clip_by_value_Minimum_y4   1/4             weights/weights           const int8_t    sa8                      
66     EmbeddedNetV1_width0_5_conv2d_14_clip_by_value_Minimum_y3   1/4             weights/weights           const int8_t    sa8                      
67     conv2d_48_scratch1                                          1920/1920       activations/**default**   int8_t          sa8                      
68     EmbeddedNetV1_width0_5_conv2d_14_clip_by_value_Minimum_y2   1/4             weights/weights           const int8_t    sa8                      
69     EmbeddedNetV1_width0_5_conv2d_14_clip_by_value_Minimum_y1   1/4             weights/weights           const int8_t    sa8                      
70     EmbeddedNetV1_width0_5_conv2d_14_clip_by_value_Minimum_y    1/4             weights/weights           const int8_t    sa8                      
71     conv2d_50_scratch0                                          780/780         activations/**default**   int8_t          s8                       
72     conv2d_1_weights                                            216/216         weights/weights           const int8_t    ss8/ch(8)                
73     conv2d_1_bias                                               8/32            weights/weights           const int32_t   ss32/ch(8)               
74     conv2d_50_scratch1                                          30/30           activations/**default**   int8_t          sa8                      
75     conv2d_2_weights                                            1152/1152       weights/weights           const int8_t    ss8/ch(16)               
76     conv2d_2_bias                                               16/64           weights/weights           const int32_t   ss32/ch(16)              
77     conv2d_51_scratch0                                          1320/1320       activations/**default**   int8_t          s8                       
78     conv2d_4_weights                                            64/64           weights/weights           const int8_t    ss8/ch(4)                
79     conv2d_4_bias                                               4/16            weights/weights           const int32_t   ss32/ch(4)               
80     conv2d_55_scratch0                                          880/880         activations/**default**   int8_t          s8                       
81     conv2d_5_weights                                            64/64           weights/weights           const int8_t    ss8/ch(16)               
82     conv2d_5_bias                                               16/64           weights/weights           const int32_t   ss32/ch(16)              
83     conv2d_56_scratch0                                          1760/1760       activations/**default**   int8_t          s8                       
84     conv2d_9_weights                                            256/256         weights/weights           const int8_t    ss8/ch(16)               
85     conv2d_56_scratch1                                          2560/2560       activations/**default**   int8_t          sa8                      
86     conv2d_9_bias                                               16/64           weights/weights           const int32_t   ss32/ch(16)              
87     conv2d_10_weights                                           128/128         weights/weights           const int8_t    ss8/ch(8)                
88     conv2d_57_scratch0                                          13601/13601     activations/**default**   int8_t          s8                       
89     conv2d_10_bias                                              8/32            weights/weights           const int32_t   ss32/ch(8)               
90     conv2d_57_scratch1                                          2560/2560       activations/**default**   int8_t          sa8                      
91     conv2d_11_weights                                           2304/2304       weights/weights           const int8_t    ss8/ch(32)               
92     conv2d_11_bias                                              32/128          weights/weights           const int32_t   ss32/ch(32)              
93     conv2d_59_scratch0                                          1040/1040       activations/**default**   int8_t          s8                       
94     conv2d_12_weights                                           512/512         weights/weights           const int8_t    ss8/ch(16)               
95     conv2d_12_bias                                              16/64           weights/weights           const int32_t   ss32/ch(16)              
96     conv2d_59_scratch1                                          40/40           activations/**default**   int8_t          sa8                      
97     conv2d_13_weights                                           128/128         weights/weights           const int8_t    ss8/ch(8)                
98     conv2d_13_bias                                              8/32            weights/weights           const int32_t   ss32/ch(8)               
99     conv2d_60_scratch0                                          1760/1760       activations/**default**   int8_t          s8                       
100    conv2d_14_weights                                           2880/2880       weights/weights           const int8_t    ss8/ch(40)               
101    conv2d_14_bias                                              40/160          weights/weights           const int32_t   ss32/ch(40)              
102    conv2d_64_scratch0                                          1040/1040       activations/**default**   int8_t          s8                       
103    conv2d_15_weights                                           640/640         weights/weights           const int8_t    ss8/ch(16)               
104    conv2d_15_bias                                              16/64           weights/weights           const int32_t   ss32/ch(16)              
105    conv2d_66_scratch0                                          2560/2560       activations/**default**   int8_t          s8                       
106    conv2d_16_weights                                           128/128         weights/weights           const int8_t    ss8/ch(8)                
107    conv2d_66_scratch1                                          3840/3840       activations/**default**   int8_t          sa8                      
108    conv2d_16_bias                                              8/32            weights/weights           const int32_t   ss32/ch(8)               
109    conv2d_18_weights                                           384/384         weights/weights           const int8_t    ss8/ch(48)               
110    conv2d_67_scratch0                                          20401/20401     activations/**default**   int8_t          s8                       
111    conv2d_18_bias                                              48/192          weights/weights           const int32_t   ss32/ch(48)              
112    conv2d_67_scratch1                                          3840/3840       activations/**default**   int8_t          sa8                      
113    conv2d_19_weights                                           1200/1200       weights/weights           const int8_t    ss8/ch(48)               
114    conv2d_19_bias                                              48/192          weights/weights           const int32_t   ss32/ch(48)              
115    conv2d_69_scratch0                                          1560/1560       activations/**default**   int8_t          s8                       
116    conv2d_21_weights                                           576/576         weights/weights           const int8_t    ss8/ch(12)               
117    conv2d_21_bias                                              12/48           weights/weights           const int32_t   ss32/ch(12)              
118    conv2d_69_scratch1                                          60/60           activations/**default**   int8_t          sa8                      
119    conv2d_22_weights                                           576/576         weights/weights           const int8_t    ss8/ch(48)               
120    conv2d_22_bias                                              48/192          weights/weights           const int32_t   ss32/ch(48)              
121    conv2d_70_scratch0                                          2640/2640       activations/**default**   int8_t          s8                       
122    conv2d_26_weights                                           768/768         weights/weights           const int8_t    ss8/ch(16)               
123    conv2d_26_bias                                              16/64           weights/weights           const int32_t   ss32/ch(16)              
124    conv2d_74_scratch0                                          1360/1360       activations/**default**   int8_t          s8                       
125    conv2d_27_weights                                           1536/1536       weights/weights           const int8_t    ss8/ch(96)               
126    conv2d_27_bias                                              96/384          weights/weights           const int32_t   ss32/ch(96)              
127    conv2d_76_scratch0                                          2560/2560       activations/**default**   int8_t          s8                       
128    conv2d_28_weights                                           2400/2400       weights/weights           const int8_t    ss8/ch(96)               
129    conv2d_76_scratch1                                          3840/3840       activations/**default**   int8_t          sa8                      
130    conv2d_28_bias                                              96/384          weights/weights           const int32_t   ss32/ch(96)              
131    conv2d_30_weights                                           2304/2304       weights/weights           const int8_t    ss8/ch(24)               
132    conv2d_78_scratch0                                          5760/5760       activations/**default**   int8_t          s8                       
133    conv2d_30_bias                                              24/96           weights/weights           const int32_t   ss32/ch(24)              
134    conv2d_78_scratch1                                          480/480         activations/**default**   int8_t          sa8                      
135    conv2d_31_weights                                           2304/2304       weights/weights           const int8_t    ss8/ch(96)               
136    conv2d_31_bias                                              96/384          weights/weights           const int32_t   ss32/ch(96)              
137    conv2d_79_scratch0                                          1960/1960       activations/**default**   int8_t          s8                       
138    conv2d_35_weights                                           1536/1536       weights/weights           const int8_t    ss8/ch(16)               
139    conv2d_35_bias                                              16/64           weights/weights           const int32_t   ss32/ch(16)              
140    nl_81_scratch0                                              4/16            activations/**default**   int32_t         s32                      
141    conv2d_37_weights                                           1024/1024       weights/weights           const int8_t    ss8/ch(64)               
142    conv2d_37_bias                                              64/256          weights/weights           const int32_t   ss32/ch(64)              
143    conv2d_38_weights                                           1600/1600       weights/weights           const int8_t    ss8/ch(64)               
144    conv2d_38_bias                                              64/256          weights/weights           const int32_t   ss32/ch(64)              
145    conv2d_40_weights                                           1024/1024       weights/weights           const int8_t    ss8/ch(16)               
146    conv2d_40_bias                                              16/64           weights/weights           const int32_t   ss32/ch(16)              
147    conv2d_41_weights                                           1024/1024       weights/weights           const int8_t    ss8/ch(64)               
148    conv2d_41_bias                                              64/256          weights/weights           const int32_t   ss32/ch(64)              
149    conv2d_45_weights                                           1024/1024       weights/weights           const int8_t    ss8/ch(16)               
150    conv2d_45_bias                                              16/64           weights/weights           const int32_t   ss32/ch(16)              
151    conv2d_47_weights                                           1920/1920       weights/weights           const int8_t    ss8/ch(120)              
152    conv2d_47_bias                                              120/480         weights/weights           const int32_t   ss32/ch(120)             
153    conv2d_48_weights                                           3000/3000       weights/weights           const int8_t    ss8/ch(120)              
154    conv2d_48_bias                                              120/480         weights/weights           const int32_t   ss32/ch(120)             
155    conv2d_50_weights                                           3600/3600       weights/weights           const int8_t    ss8/ch(30)               
156    conv2d_50_bias                                              30/120          weights/weights           const int32_t   ss32/ch(30)              
157    conv2d_51_weights                                           3600/3600       weights/weights           const int8_t    ss8/ch(120)              
158    conv2d_51_bias                                              120/480         weights/weights           const int32_t   ss32/ch(120)             
159    conv2d_55_weights                                           4800/4800       weights/weights           const int8_t    ss8/ch(40)               
160    conv2d_55_bias                                              40/160          weights/weights           const int32_t   ss32/ch(40)              
161    conv2d_56_weights                                           6400/6400       weights/weights           const int8_t    ss8/ch(160)              
162    conv2d_56_bias                                              160/640         weights/weights           const int32_t   ss32/ch(160)             
163    conv2d_57_weights                                           4000/4000       weights/weights           const int8_t    ss8/ch(160)              
164    conv2d_57_bias                                              160/640         weights/weights           const int32_t   ss32/ch(160)             
165    conv2d_59_weights                                           6400/6400       weights/weights           const int8_t    ss8/ch(40)               
166    conv2d_59_bias                                              40/160          weights/weights           const int32_t   ss32/ch(40)              
167    conv2d_60_weights                                           6400/6400       weights/weights           const int8_t    ss8/ch(160)              
168    conv2d_60_bias                                              160/640         weights/weights           const int32_t   ss32/ch(160)             
169    conv2d_64_weights                                           6400/6400       weights/weights           const int8_t    ss8/ch(40)               
170    conv2d_64_bias                                              40/160          weights/weights           const int32_t   ss32/ch(40)              
171    conv2d_66_weights                                           9600/9600       weights/weights           const int8_t    ss8/ch(240)              
172    conv2d_66_bias                                              240/960         weights/weights           const int32_t   ss32/ch(240)             
173    conv2d_67_weights                                           6000/6000       weights/weights           const int8_t    ss8/ch(240)              
174    conv2d_67_bias                                              240/960         weights/weights           const int32_t   ss32/ch(240)             
175    conv2d_69_weights                                           14400/14400     weights/weights           const int8_t    ss8/ch(60)               
176    conv2d_69_bias                                              60/240          weights/weights           const int32_t   ss32/ch(60)              
177    conv2d_70_weights                                           14400/14400     weights/weights           const int8_t    ss8/ch(240)              
178    conv2d_70_bias                                              240/960         weights/weights           const int32_t   ss32/ch(240)             
179    conv2d_74_weights                                           9600/9600       weights/weights           const int8_t    ss8/ch(40)               
180    conv2d_74_bias                                              40/160          weights/weights           const int32_t   ss32/ch(40)              
181    conv2d_76_weights                                           9600/9600       weights/weights           const int8_t    ss8/ch(240)              
182    conv2d_76_bias                                              240/960         weights/weights           const int32_t   ss32/ch(240)             
183    conv2d_78_weights                                           115200/115200   weights/weights           const int8_t    ss8/ch(480)              
184    conv2d_78_bias                                              480/1920        weights/weights           const int32_t   ss32/ch(480)             
185    conv2d_79_weights                                           1920/1920       weights/weights           const int8_t    ss8/ch(4)                
186    conv2d_79_bias                                              4/16            weights/weights           const int32_t   ss32/ch(4)               
187    conv2d_1_scratch0                                           652/652         activations/**default**   int8_t          s8                       
188    conv2d_1_scratch1                                           32768/32768     activations/**default**   int8_t          sa8                      
189    conv2d_2_scratch0                                           2816/2816       activations/**default**   int8_t          s8                       
190    conv2d_2_scratch1                                           16384/16384     activations/**default**   int8_t          sa8                      
191    conv2d_4_scratch0                                           104/104         activations/**default**   int8_t          s8                       
192    conv2d_5_scratch0                                           176/176         activations/**default**   int8_t          s8                       
193    conv2d_9_scratch0                                           224/224         activations/**default**   int8_t          s8                       
194    conv2d_10_scratch0                                          144/144         activations/**default**   int8_t          s8                       
195    conv2d_11_scratch0                                          5344/5344       activations/**default**   int8_t          s8                       
196    conv2d_11_scratch1                                          8192/8192       activations/**default**   int8_t          sa8                      
197    conv2d_12_scratch0                                          288/288         activations/**default**   int8_t          s8                       
198    serving_default_input_10_output                             49152/49152     activations/**default**   uint8_t         ua8            /input    
199    conv2d_12_scratch1                                          4096/4096       activations/**default**   int8_t          sa8                      
200    conversion_0_output                                         49152/49153     activations/**default**   int8_t          sa8                      
201    conv2d_1_output                                             32768/32768     activations/**default**   int8_t          sa8                      
202    conv2d_2_pad_before_output                                  34848/34848     activations/**default**   int8_t          sa8                      
203    conv2d_13_scratch0                                          144/144         activations/**default**   int8_t          s8                       
204    conv2d_2_output                                             16384/16384     activations/**default**   int8_t          sa8                      
205    pool_3_output                                               16/16           activations/**default**   int8_t          sa8                      
206    conv2d_4_output                                             4/4             activations/**default**   int8_t          sa8                      
207    conv2d_14_scratch0                                          5968/5968       activations/**default**   int8_t          s8                       
208    conv2d_5_output                                             16/16           activations/**default**   int8_t          sa8                      
209    eltwise_6_output                                            16/16           activations/**default**   int8_t          sa8                      
210    conv2d_14_scratch1                                          10240/10240     activations/**default**   int8_t          sa8                      
211    eltwise_8_output                                            16384/16384     activations/**default**   int8_t          sa8                      
212    conv2d_9_output                                             16384/16384     activations/**default**   int8_t          sa8                      
213    conv2d_10_output                                            8192/8192       activations/**default**   int8_t          sa8                      
214    conv2d_15_scratch0                                          320/320         activations/**default**   int8_t          s8                       
215    conv2d_11_pad_before_output                                 9248/9248       activations/**default**   int8_t          sa8                      
216    conv2d_11_output                                            8192/8192       activations/**default**   int8_t          sa8                      
217    conv2d_15_scratch1                                          4096/4096       activations/**default**   int8_t          sa8                      
218    conv2d_12_output                                            4096/4096       activations/**default**   int8_t          sa8                      
219    conv2d_13_output                                            2048/2048       activations/**default**   int8_t          sa8                      
220    conv2d_14_pad_before_output                                 2592/2592       activations/**default**   int8_t          sa8                      
221    conv2d_16_scratch0                                          144/144         activations/**default**   int8_t          s8                       
222    conv2d_14_output                                            10240/10240     activations/**default**   int8_t          sa8                      
223    conv2d_15_output                                            4096/4096       activations/**default**   int8_t          sa8                      
224    conv2d_16_output                                            2048/2048       activations/**default**   int8_t          sa8                      
225    conv2d_18_scratch0                                          512/512         activations/**default**   int8_t          s8                       
226    eltwise_17_output                                           2048/2048       activations/**default**   int8_t          sa8                      
227    conv2d_18_output                                            12288/12288     activations/**default**   int8_t          sa8                      
228    conv2d_18_scratch1                                          12288/12288     activations/**default**   int8_t          sa8                      
229    conv2d_19_output                                            3072/3072       activations/**default**   int8_t          sa8                      
230    pool_20_output                                              48/48           activations/**default**   int8_t          sa8                      
231    conv2d_21_output                                            12/12           activations/**default**   int8_t          sa8                      
232    conv2d_19_scratch0                                          4081/4081       activations/**default**   int8_t          s8                       
233    conv2d_22_output                                            48/48           activations/**default**   int8_t          sa8                      
234    eltwise_23_output                                           48/48           activations/**default**   int8_t          sa8                      
235    conv2d_19_scratch1                                          3072/3072       activations/**default**   int8_t          sa8                      
236    nl_24_output                                                48/48           activations/**default**   int8_t          sa8                      
237    eltwise_25_output                                           3072/3072       activations/**default**   int8_t          sa8                      
238    conv2d_26_output                                            1024/1024       activations/**default**   int8_t          sa8                      
239    conv2d_21_scratch0                                          312/312         activations/**default**   int8_t          s8                       
240    conv2d_27_output                                            6144/6144       activations/**default**   int8_t          sa8                      
241    conv2d_28_output                                            6144/6144       activations/**default**   int8_t          sa8                      
242    conv2d_21_scratch1                                          12/12           activations/**default**   int8_t          sa8                      
243    pool_29_output                                              96/96           activations/**default**   int8_t          sa8                      
244    conv2d_30_output                                            24/24           activations/**default**   int8_t          sa8                      
245    conv2d_31_output                                            96/96           activations/**default**   int8_t          sa8                      
246    conv2d_22_scratch0                                          528/528         activations/**default**   int8_t          s8                       
247    eltwise_32_output                                           96/96           activations/**default**   int8_t          sa8                      
248    nl_33_output                                                96/96           activations/**default**   int8_t          sa8                      
249    eltwise_34_output                                           6144/6144       activations/**default**   int8_t          sa8                      
250    conv2d_26_scratch0                                          352/352         activations/**default**   int8_t          s8                       
251    conv2d_35_output                                            1024/1024       activations/**default**   int8_t          ss8                      
------ ----------------------------------------------------------- --------------- ------------------------- --------------- -------------- --------- 

C-Layers (83)
------ ---------------------- ---- ---------------------- --------- -------- -------------------------------------------------------------- --------------------- 
c_id   name (*_layer)         id   layer_type             macc      rom      tensors                                                        shape (array id)      
------ ---------------------- ---- ---------------------- --------- -------- -------------------------------------------------------------- --------------------- 
0      conversion_0           0    converter              98304     0        I: serving_default_input_10_output                             (1,128,128,3) (198)   
                                                                             O: conversion_0_output                                         (1,128,128,3) (200)   
------ ---------------------- ---- ---------------------- --------- -------- -------------------------------------------------------------- --------------------- 
1      conv2d_1               1    optimized_conv2d       884744    248      I: conversion_0_output                                         (1,128,128,3) (200)   
                                                                             S: conv2d_1_scratch0                                                                 
                                                                             S: conv2d_1_scratch1                                                                 
                                                                             W: conv2d_1_weights                                            (3,3,3,8) (72)        
                                                                             W: conv2d_1_bias                                               (8,) (73)             
                                                                             O: conv2d_1_output                                             (1,64,64,8) (201)     
------ ---------------------- ---- ---------------------- --------- -------- -------------------------------------------------------------- --------------------- 
2      conv2d_2_pad_before    2    pad                    0         0        I: conv2d_1_output                                             (1,64,64,8) (201)     
                                                                             O: conv2d_2_pad_before_output                                  (1,66,66,8) (202)     
------ ---------------------- ---- ---------------------- --------- -------- -------------------------------------------------------------- --------------------- 
3      conv2d_2               2    conv2d                 1179664   1216     I: conv2d_2_pad_before_output                                  (1,66,66,8) (202)     
                                                                             S: conv2d_2_scratch0                                                                 
                                                                             S: conv2d_2_scratch1                                                                 
                                                                             W: conv2d_2_weights                                            (8,3,3,16) (75)       
                                                                             W: conv2d_2_bias                                               (16,) (76)            
                                                                             O: conv2d_2_output                                             (1,32,32,16) (204)    
------ ---------------------- ---- ---------------------- --------- -------- -------------------------------------------------------------- --------------------- 
4      pool_3                 3    pool                   16384     0        I: conv2d_2_output                                             (1,32,32,16) (204)    
                                                                             O: pool_3_output                                               (1,1,1,16) (205)      
------ ---------------------- ---- ---------------------- --------- -------- -------------------------------------------------------------- --------------------- 
5      conv2d_4               4    conv2d                 68        80       I: pool_3_output                                               (1,1,1,16) (205)      
                                                                             S: conv2d_4_scratch0                                                                 
                                                                             W: conv2d_4_weights                                            (16,1,1,4) (78)       
                                                                             W: conv2d_4_bias                                               (4,) (79)             
                                                                             O: conv2d_4_output                                             (1,1,1,4) (206)       
------ ---------------------- ---- ---------------------- --------- -------- -------------------------------------------------------------- --------------------- 
6      conv2d_5               5    conv2d                 80        128      I: conv2d_4_output                                             (1,1,1,4) (206)       
                                                                             S: conv2d_5_scratch0                                                                 
                                                                             W: conv2d_5_weights                                            (4,1,1,16) (81)       
                                                                             W: conv2d_5_bias                                               (16,) (82)            
                                                                             O: conv2d_5_output                                             (1,1,1,16) (208)      
------ ---------------------- ---- ---------------------- --------- -------- -------------------------------------------------------------- --------------------- 
7      eltwise_6              6    eltwise_integer/min    16        4        I: conv2d_5_output                                             (1,1,1,16) (208)      
                                                                             I: EmbeddedNetV1_width0_5_conv2d_14_clip_by_value_Minimum_y    (1,1,1) (70)          
                                                                             O: eltwise_6_output                                            (1,1,1,16) (209)      
------ ---------------------- ---- ---------------------- --------- -------- -------------------------------------------------------------- --------------------- 
8      eltwise_8              8    eltwise_integer/mul    16384     0        I: conv2d_2_output                                             (1,32,32,16) (204)    
                                                                             I: eltwise_6_output                                            (1,1,1,16) (209)      
                                                                             O: eltwise_8_output                                            (1,32,32,16) (211)    
------ ---------------------- ---- ---------------------- --------- -------- -------------------------------------------------------------- --------------------- 
9      conv2d_9               9    conv2d                 262160    320      I: eltwise_8_output                                            (1,32,32,16) (211)    
                                                                             S: conv2d_9_scratch0                                                                 
                                                                             W: conv2d_9_weights                                            (16,1,1,16) (84)      
                                                                             W: conv2d_9_bias                                               (16,) (86)            
                                                                             O: conv2d_9_output                                             (1,32,32,16) (212)    
------ ---------------------- ---- ---------------------- --------- -------- -------------------------------------------------------------- --------------------- 
10     conv2d_10              10   conv2d                 131080    160      I: conv2d_9_output                                             (1,32,32,16) (212)    
                                                                             S: conv2d_10_scratch0                                                                
                                                                             W: conv2d_10_weights                                           (16,1,1,8) (87)       
                                                                             W: conv2d_10_bias                                              (8,) (89)             
                                                                             O: conv2d_10_output                                            (1,32,32,8) (213)     
------ ---------------------- ---- ---------------------- --------- -------- -------------------------------------------------------------- --------------------- 
11     conv2d_11_pad_before   11   pad                    0         0        I: conv2d_10_output                                            (1,32,32,8) (213)     
                                                                             O: conv2d_11_pad_before_output                                 (1,34,34,8) (215)     
------ ---------------------- ---- ---------------------- --------- -------- -------------------------------------------------------------- --------------------- 
12     conv2d_11              11   conv2d                 589856    2432     I: conv2d_11_pad_before_output                                 (1,34,34,8) (215)     
                                                                             S: conv2d_11_scratch0                                                                
                                                                             S: conv2d_11_scratch1                                                                
                                                                             W: conv2d_11_weights                                           (8,3,3,32) (91)       
                                                                             W: conv2d_11_bias                                              (32,) (92)            
                                                                             O: conv2d_11_output                                            (1,16,16,32) (216)    
------ ---------------------- ---- ---------------------- --------- -------- -------------------------------------------------------------- --------------------- 
13     conv2d_12              12   conv2d                 131088    576      I: conv2d_11_output                                            (1,16,16,32) (216)    
                                                                             S: conv2d_12_scratch0                                                                
                                                                             S: conv2d_12_scratch1                                                                
                                                                             W: conv2d_12_weights                                           (32,1,1,16) (94)      
                                                                             W: conv2d_12_bias                                              (16,) (95)            
                                                                             O: conv2d_12_output                                            (1,16,16,16) (218)    
------ ---------------------- ---- ---------------------- --------- -------- -------------------------------------------------------------- --------------------- 
14     conv2d_13              13   conv2d                 32776     160      I: conv2d_12_output                                            (1,16,16,16) (218)    
                                                                             S: conv2d_13_scratch0                                                                
                                                                             W: conv2d_13_weights                                           (16,1,1,8) (97)       
                                                                             W: conv2d_13_bias                                              (8,) (98)             
                                                                             O: conv2d_13_output                                            (1,16,16,8) (219)     
------ ---------------------- ---- ---------------------- --------- -------- -------------------------------------------------------------- --------------------- 
15     conv2d_14_pad_before   14   pad                    0         0        I: conv2d_13_output                                            (1,16,16,8) (219)     
                                                                             O: conv2d_14_pad_before_output                                 (1,18,18,8) (220)     
------ ---------------------- ---- ---------------------- --------- -------- -------------------------------------------------------------- --------------------- 
16     conv2d_14              14   conv2d                 737320    3040     I: conv2d_14_pad_before_output                                 (1,18,18,8) (220)     
                                                                             S: conv2d_14_scratch0                                                                
                                                                             S: conv2d_14_scratch1                                                                
                                                                             W: conv2d_14_weights                                           (8,3,3,40) (100)      
                                                                             W: conv2d_14_bias                                              (40,) (101)           
                                                                             O: conv2d_14_output                                            (1,16,16,40) (222)    
------ ---------------------- ---- ---------------------- --------- -------- -------------------------------------------------------------- --------------------- 
17     conv2d_15              15   conv2d                 163856    704      I: conv2d_14_output                                            (1,16,16,40) (222)    
                                                                             S: conv2d_15_scratch0                                                                
                                                                             S: conv2d_15_scratch1                                                                
                                                                             W: conv2d_15_weights                                           (40,1,1,16) (103)     
                                                                             W: conv2d_15_bias                                              (16,) (104)           
                                                                             O: conv2d_15_output                                            (1,16,16,16) (223)    
------ ---------------------- ---- ---------------------- --------- -------- -------------------------------------------------------------- --------------------- 
18     conv2d_16              16   conv2d                 32776     160      I: conv2d_15_output                                            (1,16,16,16) (223)    
                                                                             S: conv2d_16_scratch0                                                                
                                                                             W: conv2d_16_weights                                           (16,1,1,8) (106)      
                                                                             W: conv2d_16_bias                                              (8,) (108)            
                                                                             O: conv2d_16_output                                            (1,16,16,8) (224)     
------ ---------------------- ---- ---------------------- --------- -------- -------------------------------------------------------------- --------------------- 
19     eltwise_17             17   eltwise_integer/sum    2048      0        I: conv2d_13_output                                            (1,16,16,8) (219)     
                                                                             I: conv2d_16_output                                            (1,16,16,8) (224)     
                                                                             O: eltwise_17_output                                           (1,16,16,8) (226)     
------ ---------------------- ---- ---------------------- --------- -------- -------------------------------------------------------------- --------------------- 
20     conv2d_18              18   conv2d                 98352     576      I: eltwise_17_output                                           (1,16,16,8) (226)     
                                                                             S: conv2d_18_scratch0                                                                
                                                                             S: conv2d_18_scratch1                                                                
                                                                             W: conv2d_18_weights                                           (8,1,1,48) (109)      
                                                                             W: conv2d_18_bias                                              (48,) (111)           
                                                                             O: conv2d_18_output                                            (1,16,16,48) (227)    
------ ---------------------- ---- ---------------------- --------- -------- -------------------------------------------------------------- --------------------- 
21     conv2d_19              19   conv2d                 76848     1392     I: conv2d_18_output                                            (1,16,16,48) (227)    
                                                                             S: conv2d_19_scratch0                                                                
                                                                             S: conv2d_19_scratch1                                                                
                                                                             W: conv2d_19_weights                                           (48,5,5,1) (113)      
                                                                             W: conv2d_19_bias                                              (48,) (114)           
                                                                             O: conv2d_19_output                                            (1,8,8,48) (229)      
------ ---------------------- ---- ---------------------- --------- -------- -------------------------------------------------------------- --------------------- 
22     pool_20                20   pool                   3072      0        I: conv2d_19_output                                            (1,8,8,48) (229)      
                                                                             O: pool_20_output                                              (1,1,1,48) (230)      
------ ---------------------- ---- ---------------------- --------- -------- -------------------------------------------------------------- --------------------- 
23     conv2d_21              21   conv2d                 588       624      I: pool_20_output                                              (1,1,1,48) (230)      
                                                                             S: conv2d_21_scratch0                                                                
                                                                             S: conv2d_21_scratch1                                                                
                                                                             W: conv2d_21_weights                                           (48,1,1,12) (116)     
                                                                             W: conv2d_21_bias                                              (12,) (117)           
                                                                             O: conv2d_21_output                                            (1,1,1,12) (231)      
------ ---------------------- ---- ---------------------- --------- -------- -------------------------------------------------------------- --------------------- 
24     conv2d_22              22   conv2d                 624       768      I: conv2d_21_output                                            (1,1,1,12) (231)      
                                                                             S: conv2d_22_scratch0                                                                
                                                                             W: conv2d_22_weights                                           (12,1,1,48) (119)     
                                                                             W: conv2d_22_bias                                              (48,) (120)           
                                                                             O: conv2d_22_output                                            (1,1,1,48) (233)      
------ ---------------------- ---- ---------------------- --------- -------- -------------------------------------------------------------- --------------------- 
25     eltwise_23             23   eltwise_integer/min    48        4        I: conv2d_22_output                                            (1,1,1,48) (233)      
                                                                             I: EmbeddedNetV1_width0_5_conv2d_14_clip_by_value_Minimum_y1   (1,1,1) (69)          
                                                                             O: eltwise_23_output                                           (1,1,1,48) (234)      
------ ---------------------- ---- ---------------------- --------- -------- -------------------------------------------------------------- --------------------- 
26     nl_24                  24   nl                     48        0        I: eltwise_23_output                                           (1,1,1,48) (234)      
                                                                             O: nl_24_output                                                (1,1,1,48) (236)      
------ ---------------------- ---- ---------------------- --------- -------- -------------------------------------------------------------- --------------------- 
27     eltwise_25             25   eltwise_integer/mul    3072      0        I: conv2d_19_output                                            (1,8,8,48) (229)      
                                                                             I: nl_24_output                                                (1,1,1,48) (236)      
                                                                             O: eltwise_25_output                                           (1,8,8,48) (237)      
------ ---------------------- ---- ---------------------- --------- -------- -------------------------------------------------------------- --------------------- 
28     conv2d_26              26   conv2d                 49168     832      I: eltwise_25_output                                           (1,8,8,48) (237)      
                                                                             S: conv2d_26_scratch0                                                                
                                                                             W: conv2d_26_weights                                           (48,1,1,16) (122)     
                                                                             W: conv2d_26_bias                                              (16,) (123)           
                                                                             O: conv2d_26_output                                            (1,8,8,16) (238)      
------ ---------------------- ---- ---------------------- --------- -------- -------------------------------------------------------------- --------------------- 
29     conv2d_27              27   conv2d                 98400     1920     I: conv2d_26_output                                            (1,8,8,16) (238)      
                                                                             S: conv2d_27_scratch0                                                                
                                                                             S: conv2d_27_scratch1                                                                
                                                                             W: conv2d_27_weights                                           (16,1,1,96) (125)     
                                                                             W: conv2d_27_bias                                              (96,) (126)           
                                                                             O: conv2d_27_output                                            (1,8,8,96) (240)      
------ ---------------------- ---- ---------------------- --------- -------- -------------------------------------------------------------- --------------------- 
30     conv2d_28              28   conv2d                 153696    2784     I: conv2d_27_output                                            (1,8,8,96) (240)      
                                                                             S: conv2d_28_scratch0                                                                
                                                                             S: conv2d_28_scratch1                                                                
                                                                             W: conv2d_28_weights                                           (96,5,5,1) (128)      
                                                                             W: conv2d_28_bias                                              (96,) (130)           
                                                                             O: conv2d_28_output                                            (1,8,8,96) (241)      
------ ---------------------- ---- ---------------------- --------- -------- -------------------------------------------------------------- --------------------- 
31     pool_29                29   pool                   6144      0        I: conv2d_28_output                                            (1,8,8,96) (241)      
                                                                             O: pool_29_output                                              (1,1,1,96) (243)      
------ ---------------------- ---- ---------------------- --------- -------- -------------------------------------------------------------- --------------------- 
32     conv2d_30              30   conv2d                 2328      2400     I: pool_29_output                                              (1,1,1,96) (243)      
                                                                             S: conv2d_30_scratch0                                                                
                                                                             S: conv2d_30_scratch1                                                                
                                                                             W: conv2d_30_weights                                           (96,1,1,24) (131)     
                                                                             W: conv2d_30_bias                                              (24,) (133)           
                                                                             O: conv2d_30_output                                            (1,1,1,24) (244)      
------ ---------------------- ---- ---------------------- --------- -------- -------------------------------------------------------------- --------------------- 
33     conv2d_31              31   conv2d                 2400      2688     I: conv2d_30_output                                            (1,1,1,24) (244)      
                                                                             S: conv2d_31_scratch0                                                                
                                                                             W: conv2d_31_weights                                           (24,1,1,96) (135)     
                                                                             W: conv2d_31_bias                                              (96,) (136)           
                                                                             O: conv2d_31_output                                            (1,1,1,96) (245)      
------ ---------------------- ---- ---------------------- --------- -------- -------------------------------------------------------------- --------------------- 
34     eltwise_32             32   eltwise_integer/min    96        4        I: conv2d_31_output                                            (1,1,1,96) (245)      
                                                                             I: EmbeddedNetV1_width0_5_conv2d_14_clip_by_value_Minimum_y2   (1,1,1) (68)          
                                                                             O: eltwise_32_output                                           (1,1,1,96) (247)      
------ ---------------------- ---- ---------------------- --------- -------- -------------------------------------------------------------- --------------------- 
35     nl_33                  33   nl                     96        0        I: eltwise_32_output                                           (1,1,1,96) (247)      
                                                                             O: nl_33_output                                                (1,1,1,96) (248)      
------ ---------------------- ---- ---------------------- --------- -------- -------------------------------------------------------------- --------------------- 
36     eltwise_34             34   eltwise_integer/mul    6144      0        I: conv2d_28_output                                            (1,8,8,96) (241)      
                                                                             I: nl_33_output                                                (1,1,1,96) (248)      
                                                                             O: eltwise_34_output                                           (1,8,8,96) (249)      
------ ---------------------- ---- ---------------------- --------- -------- -------------------------------------------------------------- --------------------- 
37     conv2d_35              35   conv2d                 98320     1600     I: eltwise_34_output                                           (1,8,8,96) (249)      
                                                                             S: conv2d_35_scratch0                                                                
                                                                             W: conv2d_35_weights                                           (96,1,1,16) (138)     
                                                                             W: conv2d_35_bias                                              (16,) (139)           
                                                                             O: conv2d_35_output                                            (1,8,8,16) (251)      
------ ---------------------- ---- ---------------------- --------- -------- -------------------------------------------------------------- --------------------- 
38     eltwise_36             36   eltwise_integer/sum    1024      0        I: conv2d_26_output                                            (1,8,8,16) (238)      
                                                                             I: conv2d_35_output                                            (1,8,8,16) (251)      
                                                                             O: eltwise_36_output                                           (1,8,8,16) (0)        
------ ---------------------- ---- ---------------------- --------- -------- -------------------------------------------------------------- --------------------- 
39     conv2d_37              37   conv2d                 65600     1280     I: eltwise_36_output                                           (1,8,8,16) (0)        
                                                                             S: conv2d_37_scratch0                                                                
                                                                             S: conv2d_37_scratch1                                                                
                                                                             W: conv2d_37_weights                                           (16,1,1,64) (141)     
                                                                             W: conv2d_37_bias                                              (64,) (142)           
                                                                             O: conv2d_37_output                                            (1,8,8,64) (1)        
------ ---------------------- ---- ---------------------- --------- -------- -------------------------------------------------------------- --------------------- 
40     conv2d_38              38   conv2d                 102464    1856     I: conv2d_37_output                                            (1,8,8,64) (1)        
                                                                             S: conv2d_38_scratch0                                                                
                                                                             S: conv2d_38_scratch1                                                                
                                                                             W: conv2d_38_weights                                           (64,5,5,1) (143)      
                                                                             W: conv2d_38_bias                                              (64,) (144)           
                                                                             O: conv2d_38_output                                            (1,8,8,64) (3)        
------ ---------------------- ---- ---------------------- --------- -------- -------------------------------------------------------------- --------------------- 
41     pool_39                39   pool                   4096      0        I: conv2d_38_output                                            (1,8,8,64) (3)        
                                                                             O: pool_39_output                                              (1,1,1,64) (4)        
------ ---------------------- ---- ---------------------- --------- -------- -------------------------------------------------------------- --------------------- 
42     conv2d_40              40   conv2d                 1040      1088     I: pool_39_output                                              (1,1,1,64) (4)        
                                                                             S: conv2d_40_scratch0                                                                
                                                                             W: conv2d_40_weights                                           (64,1,1,16) (145)     
                                                                             W: conv2d_40_bias                                              (16,) (146)           
                                                                             O: conv2d_40_output                                            (1,1,1,16) (6)        
------ ---------------------- ---- ---------------------- --------- -------- -------------------------------------------------------------- --------------------- 
43     conv2d_41              41   conv2d                 1088      1280     I: conv2d_40_output                                            (1,1,1,16) (6)        
                                                                             S: conv2d_41_scratch0                                                                
                                                                             W: conv2d_41_weights                                           (16,1,1,64) (147)     
                                                                             W: conv2d_41_bias                                              (64,) (148)           
                                                                             O: conv2d_41_output                                            (1,1,1,64) (7)        
------ ---------------------- ---- ---------------------- --------- -------- -------------------------------------------------------------- --------------------- 
44     eltwise_42             42   eltwise_integer/min    64        4        I: conv2d_41_output                                            (1,1,1,64) (7)        
                                                                             I: EmbeddedNetV1_width0_5_conv2d_14_clip_by_value_Minimum_y3   (1,1,1) (66)          
                                                                             O: eltwise_42_output                                           (1,1,1,64) (8)        
------ ---------------------- ---- ---------------------- --------- -------- -------------------------------------------------------------- --------------------- 
45     eltwise_44             44   eltwise_integer/mul    4096      0        I: conv2d_38_output                                            (1,8,8,64) (3)        
                                                                             I: eltwise_42_output                                           (1,1,1,64) (8)        
                                                                             O: eltwise_44_output                                           (1,8,8,64) (10)       
------ ---------------------- ---- ---------------------- --------- -------- -------------------------------------------------------------- --------------------- 
46     conv2d_45              45   conv2d                 65552     1088     I: eltwise_44_output                                           (1,8,8,64) (10)       
                                                                             S: conv2d_45_scratch0                                                                
                                                                             W: conv2d_45_weights                                           (64,1,1,16) (149)     
                                                                             W: conv2d_45_bias                                              (16,) (150)           
                                                                             O: conv2d_45_output                                            (1,8,8,16) (11)       
------ ---------------------- ---- ---------------------- --------- -------- -------------------------------------------------------------- --------------------- 
47     eltwise_46             46   eltwise_integer/sum    1024      0        I: eltwise_36_output                                           (1,8,8,16) (0)        
                                                                             I: conv2d_45_output                                            (1,8,8,16) (11)       
                                                                             O: eltwise_46_output                                           (1,8,8,16) (13)       
------ ---------------------- ---- ---------------------- --------- -------- -------------------------------------------------------------- --------------------- 
48     conv2d_47              47   conv2d                 123000    2400     I: eltwise_46_output                                           (1,8,8,16) (13)       
                                                                             S: conv2d_47_scratch0                                                                
                                                                             S: conv2d_47_scratch1                                                                
                                                                             W: conv2d_47_weights                                           (16,1,1,120) (151)    
                                                                             W: conv2d_47_bias                                              (120,) (152)          
                                                                             O: conv2d_47_output                                            (1,8,8,120) (14)      
------ ---------------------- ---- ---------------------- --------- -------- -------------------------------------------------------------- --------------------- 
49     conv2d_48              48   conv2d                 48120     3480     I: conv2d_47_output                                            (1,8,8,120) (14)      
                                                                             S: conv2d_48_scratch0                                                                
                                                                             S: conv2d_48_scratch1                                                                
                                                                             W: conv2d_48_weights                                           (120,5,5,1) (153)     
                                                                             W: conv2d_48_bias                                              (120,) (154)          
                                                                             O: conv2d_48_output                                            (1,4,4,120) (15)      
------ ---------------------- ---- ---------------------- --------- -------- -------------------------------------------------------------- --------------------- 
50     pool_49                49   pool                   1920      0        I: conv2d_48_output                                            (1,4,4,120) (15)      
                                                                             O: pool_49_output                                              (1,1,1,120) (17)      
------ ---------------------- ---- ---------------------- --------- -------- -------------------------------------------------------------- --------------------- 
51     conv2d_50              50   conv2d                 3630      3720     I: pool_49_output                                              (1,1,1,120) (17)      
                                                                             S: conv2d_50_scratch0                                                                
                                                                             S: conv2d_50_scratch1                                                                
                                                                             W: conv2d_50_weights                                           (120,1,1,30) (155)    
                                                                             W: conv2d_50_bias                                              (30,) (156)           
                                                                             O: conv2d_50_output                                            (1,1,1,30) (18)       
------ ---------------------- ---- ---------------------- --------- -------- -------------------------------------------------------------- --------------------- 
52     conv2d_51              51   conv2d                 3720      4080     I: conv2d_50_output                                            (1,1,1,30) (18)       
                                                                             S: conv2d_51_scratch0                                                                
                                                                             W: conv2d_51_weights                                           (30,1,1,120) (157)    
                                                                             W: conv2d_51_bias                                              (120,) (158)          
                                                                             O: conv2d_51_output                                            (1,1,1,120) (20)      
------ ---------------------- ---- ---------------------- --------- -------- -------------------------------------------------------------- --------------------- 
53     eltwise_52             52   eltwise_integer/min    120       4        I: conv2d_51_output                                            (1,1,1,120) (20)      
                                                                             I: EmbeddedNetV1_width0_5_conv2d_14_clip_by_value_Minimum_y4   (1,1,1) (65)          
                                                                             O: eltwise_52_output                                           (1,1,1,120) (21)      
------ ---------------------- ---- ---------------------- --------- -------- -------------------------------------------------------------- --------------------- 
54     nl_53                  53   nl                     120       0        I: eltwise_52_output                                           (1,1,1,120) (21)      
                                                                             O: nl_53_output                                                (1,1,1,120) (22)      
------ ---------------------- ---- ---------------------- --------- -------- -------------------------------------------------------------- --------------------- 
55     eltwise_54             54   eltwise_integer/mul    1920      0        I: conv2d_48_output                                            (1,4,4,120) (15)      
                                                                             I: nl_53_output                                                (1,1,1,120) (22)      
                                                                             O: eltwise_54_output                                           (1,4,4,120) (24)      
------ ---------------------- ---- ---------------------- --------- -------- -------------------------------------------------------------- --------------------- 
…
                                                                             S: conv2d_47_scratch1                                                                
                                                                             W: conv2d_47_weights                                           (16,1,1,120) (151)    
                                                                             W: conv2d_47_bias                                              (120,) (152)          
                                                                             O: conv2d_47_output                                            (1,8,8,120) (14)      
------ ---------------------- ---- ---------------------- --------- -------- -------------------------------------------------------------- --------------------- 
49     conv2d_48              48   conv2d                 48120     3480     I: conv2d_47_output                                            (1,8,8,120) (14)      
                                                                             S: conv2d_48_scratch0                                                                
                                                                             S: conv2d_48_scratch1                                                                
                                                                             W: conv2d_48_weights                                           (120,5,5,1) (153)     
                                                                             W: conv2d_48_bias                                              (120,) (154)          
                                                                             O: conv2d_48_output                                            (1,4,4,120) (15)      
------ ---------------------- ---- ---------------------- --------- -------- -------------------------------------------------------------- --------------------- 
50     pool_49                49   pool                   1920      0        I: conv2d_48_output                                            (1,4,4,120) (15)      
                                                                             O: pool_49_output                                              (1,1,1,120) (17)      
------ ---------------------- ---- ---------------------- --------- -------- -------------------------------------------------------------- --------------------- 
51     conv2d_50              50   conv2d                 3630      3720     I: pool_49_output                                              (1,1,1,120) (17)      
                                                                             S: conv2d_50_scratch0                                                                
                                                                             S: conv2d_50_scratch1                                                                
                                                                             W: conv2d_50_weights                                           (120,1,1,30) (155)    
                                                                             W: conv2d_50_bias                                              (30,) (156)           
                                                                             O: conv2d_50_output                                            (1,1,1,30) (18)       
------ ---------------------- ---- ---------------------- --------- -------- -------------------------------------------------------------- --------------------- 
52     conv2d_51              51   conv2d                 3720      4080     I: conv2d_50_output                                            (1,1,1,30) (18)       
                                                                             S: conv2d_51_scratch0                                                                
                                                                             W: conv2d_51_weights                                           (30,1,1,120) (157)    
                                                                             W: conv2d_51_bias                                              (120,) (158)          
                                                                             O: conv2d_51_output                                            (1,1,1,120) (20)      
------ ---------------------- ---- ---------------------- --------- -------- -------------------------------------------------------------- --------------------- 
53     eltwise_52             52   eltwise_integer/min    120       4        I: conv2d_51_output                                            (1,1,1,120) (20)      
                                                                             I: EmbeddedNetV1_width0_5_conv2d_14_clip_by_value_Minimum_y4   (1,1,1) (65)          
                                                                             O: eltwise_52_output                                           (1,1,1,120) (21)      
------ ---------------------- ---- ---------------------- --------- -------- -------------------------------------------------------------- --------------------- 
54     nl_53                  53   nl                     120       0        I: eltwise_52_output                                           (1,1,1,120) (21)      
                                                                             O: nl_53_output                                                (1,1,1,120) (22)      
------ ---------------------- ---- ---------------------- --------- -------- -------------------------------------------------------------- --------------------- 
55     eltwise_54             54   eltwise_integer/mul    1920      0        I: conv2d_48_output                                            (1,4,4,120) (15)      
                                                                             I: nl_53_output                                                (1,1,1,120) (22)      
                                                                             O: eltwise_54_output                                           (1,4,4,120) (24)      
------ ---------------------- ---- ---------------------- --------- -------- -------------------------------------------------------------- --------------------- 
56     conv2d_55              55   conv2d                 76840     4960     I: eltwise_54_output                                           (1,4,4,120) (24)      
                                                                             S: conv2d_55_scratch0                                                                
                                                                             W: conv2d_55_weights                                           (120,1,1,40) (159)    
                                                                             W: conv2d_55_bias                                              (40,) (160)           
                                                                             O: conv2d_55_output                                            (1,4,4,40) (25)       
------ ---------------------- ---- ---------------------- --------- -------- -------------------------------------------------------------- --------------------- 
57     conv2d_56              56   conv2d                 102560    7040     I: conv2d_55_output                                            (1,4,4,40) (25)       
                                                                             S: conv2d_56_scratch0                                                                
                                                                             S: conv2d_56_scratch1                                                                
                                                                             W: conv2d_56_weights                                           (40,1,1,160) (161)    
                                                                             W: conv2d_56_bias                                              (160,) (162)          
                                                                             O: conv2d_56_output                                            (1,4,4,160) (26)      
------ ---------------------- ---- ---------------------- --------- -------- -------------------------------------------------------------- --------------------- 
58     conv2d_57              57   conv2d                 64160     4640     I: conv2d_56_output                                            (1,4,4,160) (26)      
                                                                             S: conv2d_57_scratch0                                                                
                                                                             S: conv2d_57_scratch1                                                                
                                                                             W: conv2d_57_weights                                           (160,5,5,1) (163)     
                                                                             W: conv2d_57_bias                                              (160,) (164)          
                                                                             O: conv2d_57_output                                            (1,4,4,160) (28)      
------ ---------------------- ---- ---------------------- --------- -------- -------------------------------------------------------------- --------------------- 
59     pool_58                58   pool                   2560      0        I: conv2d_57_output                                            (1,4,4,160) (28)      
                                                                             O: pool_58_output                                              (1,1,1,160) (29)      
------ ---------------------- ---- ---------------------- --------- -------- -------------------------------------------------------------- --------------------- 
60     conv2d_59              59   conv2d                 6440      6560     I: pool_58_output                                              (1,1,1,160) (29)      
                                                                             S: conv2d_59_scratch0                                                                
                                                                             S: conv2d_59_scratch1                                                                
                                                                             W: conv2d_59_weights                                           (160,1,1,40) (165)    
                                                                             W: conv2d_59_bias                                              (40,) (166)           
                                                                             O: conv2d_59_output                                            (1,1,1,40) (30)       
------ ---------------------- ---- ---------------------- --------- -------- -------------------------------------------------------------- --------------------- 
61     conv2d_60              60   conv2d                 6560      7040     I: conv2d_59_output                                            (1,1,1,40) (30)       
                                                                             S: conv2d_60_scratch0                                                                
                                                                             W: conv2d_60_weights                                           (40,1,1,160) (167)    
                                                                             W: conv2d_60_bias                                              (160,) (168)          
                                                                             O: conv2d_60_output                                            (1,1,1,160) (32)      
------ ---------------------- ---- ---------------------- --------- -------- -------------------------------------------------------------- --------------------- 
62     eltwise_61             61   eltwise_integer/min    160       4        I: conv2d_60_output                                            (1,1,1,160) (32)      
                                                                             I: EmbeddedNetV1_width0_5_conv2d_14_clip_by_value_Minimum_y5   (1,1,1) (63)          
                                                                             O: eltwise_61_output                                           (1,1,1,160) (33)      
------ ---------------------- ---- ---------------------- --------- -------- -------------------------------------------------------------- --------------------- 
63     nl_62                  62   nl                     160       0        I: eltwise_61_output                                           (1,1,1,160) (33)      
                                                                             O: nl_62_output                                                (1,1,1,160) (35)      
------ ---------------------- ---- ---------------------- --------- -------- -------------------------------------------------------------- --------------------- 
64     eltwise_63             63   eltwise_integer/mul    2560      0        I: conv2d_57_output                                            (1,4,4,160) (28)      
                                                                             I: nl_62_output                                                (1,1,1,160) (35)      
                                                                             O: eltwise_63_output                                           (1,4,4,160) (36)      
------ ---------------------- ---- ---------------------- --------- -------- -------------------------------------------------------------- --------------------- 
65     conv2d_64              64   conv2d                 102440    6560     I: eltwise_63_output                                           (1,4,4,160) (36)      
                                                                             S: conv2d_64_scratch0                                                                
                                                                             W: conv2d_64_weights                                           (160,1,1,40) (169)    
                                                                             W: conv2d_64_bias                                              (40,) (170)           
                                                                             O: conv2d_64_output                                            (1,4,4,40) (37)       
------ ---------------------- ---- ---------------------- --------- -------- -------------------------------------------------------------- --------------------- 
66     eltwise_65             65   eltwise_integer/sum    640       0        I: conv2d_55_output                                            (1,4,4,40) (25)       
                                                                             I: conv2d_64_output                                            (1,4,4,40) (37)       
                                                                             O: eltwise_65_output                                           (1,4,4,40) (39)       
------ ---------------------- ---- ---------------------- --------- -------- -------------------------------------------------------------- --------------------- 
67     conv2d_66              66   conv2d                 153840    10560    I: eltwise_65_output                                           (1,4,4,40) (39)       
                                                                             S: conv2d_66_scratch0                                                                
                                                                             S: conv2d_66_scratch1                                                                
                                                                             W: conv2d_66_weights                                           (40,1,1,240) (171)    
                                                                             W: conv2d_66_bias                                              (240,) (172)          
                                                                             O: conv2d_66_output                                            (1,4,4,240) (40)      
------ ---------------------- ---- ---------------------- --------- -------- -------------------------------------------------------------- --------------------- 
68     conv2d_67              67   conv2d                 96240     6960     I: conv2d_66_output                                            (1,4,4,240) (40)      
                                                                             S: conv2d_67_scratch0                                                                
                                                                             S: conv2d_67_scratch1                                                                
                                                                             W: conv2d_67_weights                                           (240,5,5,1) (173)     
                                                                             W: conv2d_67_bias                                              (240,) (174)          
                                                                             O: conv2d_67_output                                            (1,4,4,240) (42)      
------ ---------------------- ---- ---------------------- --------- -------- -------------------------------------------------------------- --------------------- 
69     pool_68                68   pool                   3840      0        I: conv2d_67_output                                            (1,4,4,240) (42)      
                                                                             O: pool_68_output                                              (1,1,1,240) (43)      
------ ---------------------- ---- ---------------------- --------- -------- -------------------------------------------------------------- --------------------- 
70     conv2d_69              69   conv2d                 14460     14640    I: pool_68_output                                              (1,1,1,240) (43)      
                                                                             S: conv2d_69_scratch0                                                                
                                                                             S: conv2d_69_scratch1                                                                
                                                                             W: conv2d_69_weights                                           (240,1,1,60) (175)    
                                                                             W: conv2d_69_bias                                              (60,) (176)           
                                                                             O: conv2d_69_output                                            (1,1,1,60) (44)       
------ ---------------------- ---- ---------------------- --------- -------- -------------------------------------------------------------- --------------------- 
71     conv2d_70              70   conv2d                 14640     15360    I: conv2d_69_output                                            (1,1,1,60) (44)       
                                                                             S: conv2d_70_scratch0                                                                
                                                                             W: conv2d_70_weights                                           (60,1,1,240) (177)    
                                                                             W: conv2d_70_bias                                              (240,) (178)          
                                                                             O: conv2d_70_output                                            (1,1,1,240) (46)      
------ ---------------------- ---- ---------------------- --------- -------- -------------------------------------------------------------- --------------------- 
72     eltwise_71             71   eltwise_integer/min    240       4        I: conv2d_70_output                                            (1,1,1,240) (46)      
                                                                             I: EmbeddedNetV1_width0_5_conv2d_14_clip_by_value_Minimum_y6   (1,1,1) (62)          
                                                                             O: eltwise_71_output                                           (1,1,1,240) (47)      
------ ---------------------- ---- ---------------------- --------- -------- -------------------------------------------------------------- --------------------- 
73     nl_72                  72   nl                     240       0        I: eltwise_71_output                                           (1,1,1,240) (47)      
                                                                             O: nl_72_output                                                (1,1,1,240) (48)      
------ ---------------------- ---- ---------------------- --------- -------- -------------------------------------------------------------- --------------------- 
74     eltwise_73             73   eltwise_integer/mul    3840      0        I: conv2d_67_output                                            (1,4,4,240) (42)      
                                                                             I: nl_72_output                                                (1,1,1,240) (48)      
                                                                             O: eltwise_73_output                                           (1,4,4,240) (50)      
------ ---------------------- ---- ---------------------- --------- -------- -------------------------------------------------------------- --------------------- 
75     conv2d_74              74   conv2d                 153640    9760     I: eltwise_73_output                                           (1,4,4,240) (50)      
                                                                             S: conv2d_74_scratch0                                                                
                                                                             W: conv2d_74_weights                                           (240,1,1,40) (179)    
                                                                             W: conv2d_74_bias                                              (40,) (180)           
                                                                             O: conv2d_74_output                                            (1,4,4,40) (51)       
------ ---------------------- ---- ---------------------- --------- -------- -------------------------------------------------------------- --------------------- 
76     eltwise_75             75   eltwise_integer/sum    640       0        I: eltwise_65_output                                           (1,4,4,40) (39)       
                                                                             I: conv2d_74_output                                            (1,4,4,40) (51)       
                                                                             O: eltwise_75_output                                           (1,4,4,40) (52)       
------ ---------------------- ---- ---------------------- --------- -------- -------------------------------------------------------------- --------------------- 
77     conv2d_76              76   conv2d                 153840    10560    I: eltwise_75_output                                           (1,4,4,40) (52)       
                                                                             S: conv2d_76_scratch0                                                                
                                                                             S: conv2d_76_scratch1                                                                
                                                                             W: conv2d_76_weights                                           (40,1,1,240) (181)    
                                                                             W: conv2d_76_bias                                              (240,) (182)          
                                                                             O: conv2d_76_output                                            (1,4,4,240) (54)      
------ ---------------------- ---- ---------------------- --------- -------- -------------------------------------------------------------- --------------------- 
78     pool_77                77   pool                   3840      0        I: conv2d_76_output                                            (1,4,4,240) (54)      
                                                                             O: pool_77_output                                              (1,1,1,240) (55)      
------ ---------------------- ---- ---------------------- --------- -------- -------------------------------------------------------------- --------------------- 
79     conv2d_78              78   conv2d                 115680    117120   I: pool_77_output                                              (1,1,1,240) (55)      
                                                                             S: conv2d_78_scratch0                                                                
                                                                             S: conv2d_78_scratch1                                                                
                                                                             W: conv2d_78_weights                                           (240,1,1,480) (183)   
                                                                             W: conv2d_78_bias                                              (480,) (184)          
                                                                             O: conv2d_78_output                                            (1,1,1,480) (56)      
------ ---------------------- ---- ---------------------- --------- -------- -------------------------------------------------------------- --------------------- 
80     conv2d_79              79   conv2d                 1924      1936     I: conv2d_78_output                                            (1,1,1,480) (56)      
                                                                             S: conv2d_79_scratch0                                                                
                                                                             W: conv2d_79_weights                                           (480,1,1,4) (185)     
                                                                             W: conv2d_79_bias                                              (4,) (186)            
                                                                             O: conv2d_79_output                                            (1,1,1,4) (58)        
------ ---------------------- ---- ---------------------- --------- -------- -------------------------------------------------------------- --------------------- 
81     nl_81                  81   nl                     60        0        I: conv2d_79_output                                            (1,1,1,4) (58)        
                                                                             S: nl_81_scratch0                                                                    
                                                                             O: nl_81_output                                                (1,4) (59)            
------ ---------------------- ---- ---------------------- --------- -------- -------------------------------------------------------------- --------------------- 
82     conversion_82          82   converter              8         0        I: nl_81_output                                                (1,4) (59)            
                                                                             O: conversion_82_output                                        (1,4) (61)            
------ ---------------------- ---- ---------------------- --------- -------- -------------------------------------------------------------- --------------------- 



Number of operations per c-layer
------- ------ ---------------------------------- ----------- ------------- --------- ---------- 
c_id    m_id   name (type)                                #op          type    #param   sparsity 
------- ------ ---------------------------------- ----------- ------------- --------- ---------- 
0       0      conversion_0 (converter)                98,304    conv_u8_s8           
1       1      conv2d_1 (optimized_conv2d)            884,744    smul_s8_s8       224     0.0134 
2       2      conv2d_2_pad_before (pad)                    0    smul_s8_s8           
3       2      conv2d_2 (conv2d)                    1,179,664    smul_s8_s8     1,168     0.0034 
4       3      pool_3 (pool)                           16,384      op_s8_s8           
5       4      conv2d_4 (conv2d)                           68    smul_s8_s8        68     0.0588 
6       5      conv2d_5 (conv2d)                           80    smul_s8_s8        80     0.0000 
7       6      eltwise_6 (eltwise_integer/min)             16      op_s8_s8         1     0.0000 
8       8      eltwise_8 (eltwise_integer/mul)         16,384      op_s8_s8           
9       9      conv2d_9 (conv2d)                      262,160    smul_s8_s8       272     0.0625 
10      10     conv2d_10 (conv2d)                     131,080    smul_s8_s8       136     0.0074 
11      11     conv2d_11_pad_before (pad)                   0    smul_s8_s8           
12      11     conv2d_11 (conv2d)                     589,856    smul_s8_s8     2,336     0.0056 
13      12     conv2d_12 (conv2d)                     131,088    smul_s8_s8       528     0.0322 
14      13     conv2d_13 (conv2d)                      32,776    smul_s8_s8       136     0.0000 
15      14     conv2d_14_pad_before (pad)                   0    smul_s8_s8           
16      14     conv2d_14 (conv2d)                     737,320    smul_s8_s8     2,920     0.0055 
17      15     conv2d_15 (conv2d)                     163,856    smul_s8_s8       656     0.0274 
18      16     conv2d_16 (conv2d)                      32,776    smul_s8_s8       136     0.0000 
19      17     eltwise_17 (eltwise_integer/sum)         2,048      op_s8_s8           
20      18     conv2d_18 (conv2d)                      98,352    smul_s8_s8       432     0.0000 
21      19     conv2d_19 (conv2d)                      76,848    smul_s8_s8     1,248     0.0064 
22      20     pool_20 (pool)                           3,072      op_s8_s8           
23      21     conv2d_21 (conv2d)                         588    smul_s8_s8       588     0.0238 
24      22     conv2d_22 (conv2d)                         624    smul_s8_s8       624     0.0016 
25      23     eltwise_23 (eltwise_integer/min)            48      op_s8_s8         1     0.0000 
26      24     nl_24 (nl)                                  48      op_s8_s8           
27      25     eltwise_25 (eltwise_integer/mul)         3,072      op_s8_s8           
28      26     conv2d_26 (conv2d)                      49,168    smul_s8_s8       784     0.0038 
29      27     conv2d_27 (conv2d)                      98,400    smul_s8_s8     1,632     0.0043 
30      28     conv2d_28 (conv2d)                     153,696    smul_s8_s8     2,496     0.0080 
31      29     pool_29 (pool)                           6,144      op_s8_s8           
32      30     conv2d_30 (conv2d)                       2,328    smul_s8_s8     2,328     0.0142 
33      31     conv2d_31 (conv2d)                       2,400    smul_s8_s8     2,400     0.0025 
34      32     eltwise_32 (eltwise_integer/min)            96      op_s8_s8         1     0.0000 
35      33     nl_33 (nl)                                  96      op_s8_s8           
36      34     eltwise_34 (eltwise_integer/mul)         6,144      op_s8_s8           
37      35     conv2d_35 (conv2d)                      98,320    smul_s8_s8     1,552     0.0064 
38      36     eltwise_36 (eltwise_integer/sum)         1,024      op_s8_s8           
39      37     conv2d_37 (conv2d)                      65,600    smul_s8_s8     1,088     0.0092 
40      38     conv2d_38 (conv2d)                     102,464    smul_s8_s8     1,664     0.0054 
41      39     pool_39 (pool)                           4,096      op_s8_s8           
42      40     conv2d_40 (conv2d)                       1,040    smul_s8_s8     1,040     0.0173 
43      41     conv2d_41 (conv2d)                       1,088    smul_s8_s8     1,088     0.0028 
44      42     eltwise_42 (eltwise_integer/min)            64      op_s8_s8         1     0.0000 
45      44     eltwise_44 (eltwise_integer/mul)         4,096      op_s8_s8           
46      45     conv2d_45 (conv2d)                      65,552    smul_s8_s8     1,040     0.0087 
47      46     eltwise_46 (eltwise_integer/sum)         1,024      op_s8_s8           
48      47     conv2d_47 (conv2d)                     123,000    smul_s8_s8     2,040     0.0039 
49      48     conv2d_48 (conv2d)                      48,120    smul_s8_s8     3,120     0.0064 
50      49     pool_49 (pool)                           1,920      op_s8_s8           
51      50     conv2d_50 (conv2d)                       3,630    smul_s8_s8     3,630     0.0146 
52      51     conv2d_51 (conv2d)                       3,720    smul_s8_s8     3,720     0.0046 
53      52     eltwise_52 (eltwise_integer/min)           120      op_s8_s8         1     0.0000 
54      53     nl_53 (nl)                                 120      op_s8_s8           
55      54     eltwise_54 (eltwise_integer/mul)         1,920      op_s8_s8           
56      55     conv2d_55 (conv2d)                      76,840    smul_s8_s8     4,840     0.0070 
57      56     conv2d_56 (conv2d)                     102,560    smul_s8_s8     6,560     0.0055 
58      57     conv2d_57 (conv2d)                      64,160    smul_s8_s8     4,160     0.0091 
59      58     pool_58 (pool)                           2,560      op_s8_s8           
60      59     conv2d_59 (conv2d)                       6,440    smul_s8_s8     6,440     0.0120 
61      60     conv2d_60 (conv2d)                       6,560    smul_s8_s8     6,560     0.0052 
62      61     eltwise_61 (eltwise_integer/min)           160      op_s8_s8         1     0.0000 
63      62     nl_62 (nl)                                 160      op_s8_s8           
64      63     eltwise_63 (eltwise_integer/mul)         2,560      op_s8_s8           
65      64     conv2d_64 (conv2d)                     102,440    smul_s8_s8     6,440     0.0065 
66      65     eltwise_65 (eltwise_integer/sum)           640      op_s8_s8           
67      66     conv2d_66 (conv2d)                     153,840    smul_s8_s8     9,840     0.0051 
68      67     conv2d_67 (conv2d)                      96,240    smul_s8_s8     6,240     0.0072 
69      68     pool_68 (pool)                           3,840      op_s8_s8           
70      69     conv2d_69 (conv2d)                      14,460    smul_s8_s8    14,460     0.0090 
71      70     conv2d_70 (conv2d)                      14,640    smul_s8_s8    14,640     0.0047 
72      71     eltwise_71 (eltwise_integer/min)           240      op_s8_s8         1     0.0000 
73      72     nl_72 (nl)                                 240      op_s8_s8           
74      73     eltwise_73 (eltwise_integer/mul)         3,840      op_s8_s8           
75      74     conv2d_74 (conv2d)                     153,640    smul_s8_s8     9,640     0.0061 
76      75     eltwise_75 (eltwise_integer/sum)           640      op_s8_s8           
77      76     conv2d_76 (conv2d)                     153,840    smul_s8_s8     9,840     0.0048 
78      77     pool_77 (pool)                           3,840      op_s8_s8           
79      78     conv2d_78 (conv2d)                     115,680    smul_s8_s8   115,680     0.0099 
80      79     conv2d_79 (conv2d)                       1,924    smul_s8_s8     1,924     0.0073 
81      81     nl_81 (nl)                                  60      op_s8_s8           
82      82     conversion_82 (converter)                    8   conv_s8_f32           
------- ------ ---------------------------------- ----------- ------------- --------- ---------- 
total                                               6,388,698                 258,445     0.0084 

Number of operation types
---------------- ----------- ----------- 
operation type             #           % 
---------------- ----------- ----------- 
conv_u8_s8            98,304        1.5% 
smul_s8_s8         6,203,670       97.1% 
op_s8_s8              86,716        1.4% 
conv_s8_f32                8        0.0% 

Complexity report (model)
------ ----------------------------------------------------------- ------------------------- ------------------------- ---------- 
m_id   name                                                        c_macc                    c_rom                     c_id       
------ ----------------------------------------------------------- ------------------------- ------------------------- ---------- 
0      serving_default_input_10                                    ||                 1.5%   |                  0.0%   [0]        
1      conv2d_1                                                    ||||||||||||      13.8%   |                  0.1%   [1]        
2      conv2d_2                                                    ||||||||||||||||  18.5%   |                  0.5%   [2, 3]     
3      pool_3                                                      |                  0.3%   |                  0.0%   [4]        
4      conv2d_4                                                    |                  0.0%   |                  0.0%   [5]        
5      conv2d_5                                                    |                  0.0%   |                  0.0%   [6]        
6      EmbeddedNetV1_width0_5_conv2d_14_clip_by_value_Minimum_y    |                  0.0%   |                  0.0%   [7]        
8      eltwise_8                                                   |                  0.3%   |                  0.0%   [8]        
9      conv2d_9                                                    ||||               4.1%   |                  0.1%   [9]        
10     conv2d_10                                                   ||                 2.1%   |                  0.1%   [10]       
11     conv2d_11                                                   ||||||||           9.2%   |                  0.9%   [11, 12]   
12     conv2d_12                                                   ||                 2.1%   |                  0.2%   [13]       
13     conv2d_13                                                   |                  0.5%   |                  0.1%   [14]       
14     conv2d_14                                                   ||||||||||        11.5%   |                  1.1%   [15, 16]   
15     conv2d_15                                                   |||                2.6%   |                  0.3%   [17]       
16     conv2d_16                                                   |                  0.5%   |                  0.1%   [18]       
17     eltwise_17                                                  |                  0.0%   |                  0.0%   [19]       
18     conv2d_18                                                   ||                 1.5%   |                  0.2%   [20]       
19     conv2d_19                                                   |                  1.2%   |                  0.5%   [21]       
20     pool_20                                                     |                  0.0%   |                  0.0%   [22]       
21     conv2d_21                                                   |                  0.0%   |                  0.2%   [23]       
22     conv2d_22                                                   |                  0.0%   |                  0.3%   [24]       
23     EmbeddedNetV1_width0_5_conv2d_14_clip_by_value_Minimum_y1   |                  0.0%   |                  0.0%   [25]       
24     nl_24                                                       |                  0.0%   |                  0.0%   [26]       
25     eltwise_25                                                  |                  0.0%   |                  0.0%   [27]       
26     conv2d_26                                                   |                  0.8%   |                  0.3%   [28]       
27     conv2d_27                                                   ||                 1.5%   |                  0.7%   [29]       
28     conv2d_28                                                   ||                 2.4%   |                  1.0%   [30]       
29     pool_29                                                     |                  0.1%   |                  0.0%   [31]       
30     conv2d_30                                                   |                  0.0%   |                  0.9%   [32]       
31     conv2d_31                                                   |                  0.0%   |                  1.0%   [33]       
32     EmbeddedNetV1_width0_5_conv2d_14_clip_by_value_Minimum_y2   |                  0.0%   |                  0.0%   [34]       
33     nl_33                                                       |                  0.0%   |                  0.0%   [35]       
34     eltwise_34                                                  |                  0.1%   |                  0.0%   [36]       
35     conv2d_35                                                   ||                 1.5%   |                  0.6%   [37]       
36     eltwise_36                                                  |                  0.0%   |                  0.0%   [38]       
37     conv2d_37                                                   |                  1.0%   |                  0.5%   [39]       
38     conv2d_38                                                   ||                 1.6%   |                  0.7%   [40]       
39     pool_39                                                     |                  0.1%   |                  0.0%   [41]       
40     conv2d_40                                                   |                  0.0%   |                  0.4%   [42]       
41     conv2d_41                                                   |                  0.0%   |                  0.5%   [43]       
42     EmbeddedNetV1_width0_5_conv2d_14_clip_by_value_Minimum_y3   |                  0.0%   |                  0.0%   [44]       
44     eltwise_44                                                  |                  0.1%   |                  0.0%   [45]       
45     conv2d_45                                                   |                  1.0%   |                  0.4%   [46]       
46     eltwise_46                                                  |                  0.0%   |                  0.0%   [47]       
47     conv2d_47                                                   ||                 1.9%   |                  0.9%   [48]       
48     conv2d_48                                                   |                  0.8%   |                  1.3%   [49]       
49     pool_49                                                     |                  0.0%   |                  0.0%   [50]       
50     conv2d_50                                                   |                  0.1%   |                  1.4%   [51]       
51     conv2d_51                                                   |                  0.1%   |                  1.5%   [52]       
52     EmbeddedNetV1_width0_5_conv2d_14_clip_by_value_Minimum_y4   |                  0.0%   |                  0.0%   [53]       
53     nl_53                                                       |                  0.0%   |                  0.0%   [54]       
54     eltwise_54                                                  |                  0.0%   |                  0.0%   [55]       
55     conv2d_55                                                   |                  1.2%   |                  1.8%   [56]       
56     conv2d_56                                                   ||                 1.6%   |                  2.6%   [57]       
57     conv2d_57                                                   |                  1.0%   |                  1.7%   [58]       
58     pool_58                                                     |                  0.0%   |                  0.0%   [59]       
59     conv2d_59                                                   |                  0.1%   |                  2.4%   [60]       
60     conv2d_60                                                   |                  0.1%   |                  2.6%   [61]       
61     EmbeddedNetV1_width0_5_conv2d_14_clip_by_value_Minimum_y5   |                  0.0%   |                  0.0%   [62]       
62     nl_62                                                       |                  0.0%   |                  0.0%   [63]       
63     eltwise_63                                                  |                  0.0%   |                  0.0%   [64]       
64     conv2d_64                                                   ||                 1.6%   |                  2.4%   [65]       
65     eltwise_65                                                  |                  0.0%   |                  0.0%   [66]       
66     conv2d_66                                                   ||                 2.4%   ||                 3.9%   [67]       
67     conv2d_67                                                   ||                 1.5%   |                  2.6%   [68]       
68     pool_68                                                     |                  0.1%   |                  0.0%   [69]       
69     conv2d_69                                                   |                  0.2%   ||                 5.4%   [70]       
70     conv2d_70                                                   |                  0.2%   ||                 5.7%   [71]       
71     EmbeddedNetV1_width0_5_conv2d_14_clip_by_value_Minimum_y6   |                  0.0%   |                  0.0%   [72]       
72     nl_72                                                       |                  0.0%   |                  0.0%   [73]       
73     eltwise_73                                                  |                  0.1%   |                  0.0%   [74]       
74     conv2d_74                                                   ||                 2.4%   ||                 3.6%   [75]       
75     eltwise_75                                                  |                  0.0%   |                  0.0%   [76]       
76     conv2d_76                                                   ||                 2.4%   ||                 3.9%   [77]       
77     pool_77                                                     |                  0.1%   |                  0.0%   [78]       
78     conv2d_78                                                   ||                 1.8%   ||||||||||||||||  43.6%   [79]       
79     conv2d_79                                                   |                  0.0%   |                  0.7%   [80]       
81     nl_81                                                       |                  0.0%   |                  0.0%   [81]       
82     conversion_82                                               |                  0.0%   |                  0.0%   [82]       
------ ----------------------------------------------------------- ------------------------- ------------------------- ---------- 
macc=6,388,698 weights=268,804 act=52,920 ram_io=0

Generated files (7)
---------------------------------------------------------------------------------------------------------------------------------- 
E:\hjTan\Documents\CODE_SPACE\stm32ai-modelzoo-2.0.0\experiments_outputs\2025_04_29_17_01_19\stm32ai_files\network_config.h        
E:\hjTan\Documents\CODE_SPACE\stm32ai-modelzoo-2.0.0\experiments_outputs\2025_04_29_17_01_19\stm32ai_files\network.h               
E:\hjTan\Documents\CODE_SPACE\stm32ai-modelzoo-2.0.0\experiments_outputs\2025_04_29_17_01_19\stm32ai_files\network.c               
E:\hjTan\Documents\CODE_SPACE\stm32ai-modelzoo-2.0.0\experiments_outputs\2025_04_29_17_01_19\stm32ai_files\network_data_params.h   
E:\hjTan\Documents\CODE_SPACE\stm32ai-modelzoo-2.0.0\experiments_outputs\2025_04_29_17_01_19\stm32ai_files\network_data_params.c   
E:\hjTan\Documents\CODE_SPACE\stm32ai-modelzoo-2.0.0\experiments_outputs\2025_04_29_17_01_19\stm32ai_files\network_data.h          
E:\hjTan\Documents\CODE_SPACE\stm32ai-modelzoo-2.0.0\experiments_outputs\2025_04_29_17_01_19\stm32ai_files\network_data.c          
>>>>>>> 1460700 (com)
